…
I0505 04:28:23.721271  2016 net.cpp:322] The NetState phase (0) differed from the phase (1) specified by a rule in layer loss3/top-5
I0505 04:28:23.722268  2016 net.cpp:49] Initializing net from parameters: 
name: "GoogleNet"
state {
  phase: TRAIN
}
layer {
  name: "data"
  type: "Data"
  top: "data"
  top: "label"
  include {
    phase: TRAIN
  }
  transform_param {
    mirror: true
    crop_size: 224
    mean_value: 95
    mean_value: 97
    mean_value: 80
  }
  data_param {
    source: "data/driving/driving_train_lmdb"
    batch_size: 32
    backend: LMDB
  }
}
layer {
  name: "conv1/7x7_s2"
  type: "Convolution"
  bottom: "data"
  top: "conv1/7x7_s2"
  param {
    lr_mult: 1
    decay_mult: 1
  }
  param {
    lr_mult: 2
    decay_mult: 0
  }
  convolution_param {
    num_output: 64
    pad: 3
    kernel_size: 7
    stride: 2
    weight_filler {
      type: "xavier"
    }
    bias_filler {
      type: "constant"
      value: 0.2
    }
  }
}
layer {
  name: "conv1/relu_7x7"
  type: "ReLU"
  bottom: "conv1/7x7_s2"
  top: "conv1/7x7_s2"
}
layer {
  name: "pool1/3x3_s2"
  type: "Pooling"
  bottom: "conv1/7x7_s2"
  top: "pool1/3x3_s2"
  pooling_param {
    pool: MAX
    kernel_size: 3
    stride: 2
  }
}
layer {
  name: "pool1/norm1"
  type: "LRN"
  bottom: "pool1/3x3_s2"
  top: "pool1/norm1"
  lrn_param {
    local_size: 5
    alpha: 0.0001
    beta: 0.75
  }
}
layer {
  name: "conv2/3x3_reduce"
  type: "Convolution"
  bottom: "pool1/norm1"
  top: "conv2/3x3_reduce"
  param {
    lr_mult: 1
    decay_mult: 1
  }
  param {
    lr_mult: 2
    decay_mult: 0
  }
  convolution_param {
    num_output: 64
    kernel_size: 1
    weight_filler {
      type: "xavier"
    }
    bias_filler {
      type: "constant"
      value: 0.2
    }
  }
}
layer {
  name: "conv2/relu_3x3_reduce"
  type: "ReLU"
  bottom: "conv2/3x3_reduce"
  top: "conv2/3x3_reduce"
}
layer {
  name: "conv2/3x3"
  type: "Convolution"
  bottom: "conv2/3x3_reduce"
  top: "conv2/3x3"
  param {
    lr_mult: 1
    decay_mult: 1
  }
  param {
    lr_mult: 2
    decay_mult: 0
  }
  convolution_param {
    num_output: 192
    pad: 1
    kernel_size: 3
    weight_filler {
      type: "xavier"
    }
    bias_filler {
      type: "constant"
      value: 0.2
    }
  }
}
layer {
  name: "conv2/relu_3x3"
  type: "ReLU"
  bottom: "conv2/3x3"
  top: "conv2/3x3"
}
layer {
  name: "conv2/norm2"
  type: "LRN"
  bottom: "conv2/3x3"
  top: "conv2/norm2"
  lrn_param {
    local_size: 5
    alpha: 0.0001
    beta: 0.75
  }
}
layer {
  name: "pool2/3x3_s2"
  type: "Pooling"
  bottom: "conv2/norm2"
  top: "pool2/3x3_s2"
  pooling_param {
    pool: MAX
    kernel_size: 3
    stride: 2
  }
}
layer {
  name: "inception_3a/1x1"
  type: "Convolution"
  bottom: "pool2/3x3_s2"
  top: "inception_3a/1x1"
  param {
    lr_mult: 1
    decay_mult: 1
  }
  param {
    lr_mult: 2
    decay_mult: 0
  }
  convolution_param {
    num_output: 64
    kernel_size: 1
    weight_filler {
      type: "xavier"
    }
    bias_filler {
      type: "constant"
      value: 0.2
    }
  }
}
layer {
  name: "inception_3a/relu_1x1"
  type: "ReLU"
  bottom: "inception_3a/1x1"
  top: "inception_3a/1x1"
}
layer {
  name: "inception_3a/3x3_reduce"
  type: "Convolution"
  bottom: "pool2/3x3_s2"
  top: "inception_3a/3x3_reduce"
  param {
    lr_mult: 1
    decay_mult: 1
  }
  param {
    lr_mult: 2
    decay_mult: 0
  }
  convolution_param {
    num_output: 96
    kernel_size: 1
    weight_filler {
      type: "xavier"
    }
    bias_filler {
      type: "constant"
      value: 0.2
    }
  }
}
layer {
  name: "inception_3a/relu_3x3_reduce"
  type: "ReLU"
  bottom: "inception_3a/3x3_reduce"
  top: "inception_3a/3x3_reduce"
}
layer {
  name: "inception_3a/3x3"
  type: "Convolution"
  bottom: "inception_3a/3x3_reduce"
  top: "inception_3a/3x3"
  param {
    lr_mult: 1
    decay_mult: 1
  }
  param {
    lr_mult: 2
    decay_mult: 0
  }
  convolution_param {
    num_output: 128
    pad: 1
    kernel_size: 3
    weight_filler {
      type: "xavier"
    }
    bias_filler {
      type: "constant"
      value: 0.2
    }
  }
}
layer {
  name: "inception_3a/relu_3x3"
  type: "ReLU"
  bottom: "inception_3a/3x3"
  top: "inception_3a/3x3"
}
layer {
  name: "inception_3a/5x5_reduce"
  type: "Convolution"
  bottom: "pool2/3x3_s2"
  top: "inception_3a/5x5_reduce"
  param {
    lr_mult: 1
    decay_mult: 1
  }
  param {
    lr_mult: 2
    decay_mult: 0
  }
  convolution_param {
    num_output: 16
    kernel_size: 1
    weight_filler {
      type: "xavier"
    }
    bias_filler {
      type: "constant"
      value: 0.2
    }
  }
}
layer {
  name: "inception_3a/relu_5x5_reduce"
  type: "ReLU"
  bottom: "inception_3a/5x5_reduce"
  top: "inception_3a/5x5_reduce"
}
layer {
  name: "inception_3a/5x5"
  type: "Convolution"
  bottom: "inception_3a/5x5_reduce"
  top: "inception_3a/5x5"
  param {
    lr_mult: 1
    decay_mult: 1
  }
  param {
    lr_mult: 2
    decay_mult: 0
  }
  convolution_param {
    num_output: 32
    pad: 2
    kernel_size: 5
    weight_filler {
      type: "xavier"
    }
    bias_filler {
      type: "constant"
      value: 0.2
    }
  }
}
layer {
  name: "inception_3a/relu_5x5"
  type: "ReLU"
  bottom: "inception_3a/5x5"
  top: "inception_3a/5x5"
}
layer {
  name: "inception_3a/pool"
  type: "Pooling"
  bottom: "pool2/3x3_s2"
  top: "inception_3a/pool"
  pooling_param {
    pool: MAX
    kernel_size: 3
    stride: 1
    pad: 1
  }
}
layer {
  name: "inception_3a/pool_proj"
  type: "Convolution"
  bottom: "inception_3a/pool"
  top: "inception_3a/pool_proj"
  param {
    lr_mult: 1
    decay_mult: 1
  }
  param {
    lr_mult: 2
    decay_mult: 0
  }
  convolution_param {
    num_output: 32
    kernel_size: 1
    weight_filler {
      type: "xavier"
    }
    bias_filler {
      type: "constant"
      value: 0.2
    }
  }
}
layer {
  name: "inception_3a/relu_pool_proj"
  type: "ReLU"
  bottom: "inception_3a/pool_proj"
  top: "inception_3a/pool_proj"
}
layer {
  name: "inception_3a/output"
  type: "Concat"
  bottom: "inception_3a/1x1"
  bottom: "inception_3a/3x3"
  bottom: "inception_3a/5x5"
  bottom: "inception_3a/pool_proj"
  top: "inception_3a/output"
}
layer {
  name: "inception_3b/1x1"
  type: "Convolution"
  bottom: "inception_3a/output"
  top: "inception_3b/1x1"
  param {
    lr_mult: 1
    decay_mult: 1
  }
  param {
    lr_mult: 2
    decay_mult: 0
  }
  convolution_param {
    num_output: 128
    kernel_size: 1
    weight_filler {
      type: "xavier"
    }
    bias_filler {
      type: "constant"
      value: 0.2
    }
  }
}
layer {
  name: "inception_3b/relu_1x1"
  type: "ReLU"
  bottom: "inception_3b/1x1"
  top: "inception_3b/1x1"
}
layer {
  name: "inception_3b/3x3_reduce"
  type: "Convolution"
  bottom: "inception_3a/output"
  top: "inception_3b/3x3_reduce"
  param {
    lr_mult: 1
    decay_mult: 1
  }
  param {
    lr_mult: 2
    decay_mult: 0
  }
  convolution_param {
    num_output: 128
    kernel_size: 1
    weight_filler {
      type: "xavier"
    }
    bias_filler {
      type: "constant"
      value: 0.2
    }
  }
}
layer {
  name: "inception_3b/relu_3x3_reduce"
  type: "ReLU"
  bottom: "inception_3b/3x3_reduce"
  top: "inception_3b/3x3_reduce"
}
layer {
  name: "inception_3b/3x3"
  type: "Convolution"
  bottom: "inception_3b/3x3_reduce"
  top: "inception_3b/3x3"
  param {
    lr_mult: 1
    decay_mult: 1
  }
  param {
    lr_mult: 2
    decay_mult: 0
  }
  convolution_param {
    num_output: 192
    pad: 1
    kernel_size: 3
    weight_filler {
      type: "xavier"
    }
    bias_filler {
      type: "constant"
      value: 0.2
    }
  }
}
layer {
  name: "inception_3b/relu_3x3"
  type: "ReLU"
  bottom: "inception_3b/3x3"
  top: "inception_3b/3x3"
}
layer {
  name: "inception_3b/5x5_reduce"
  type: "Convolution"
  bottom: "inception_3a/output"
  top: "inception_3b/5x5_reduce"
  param {
    lr_mult: 1
    decay_mult: 1
  }
  param {
    lr_mult: 2
    decay_mult: 0
  }
  convolution_param {
    num_output: 32
    kernel_size: 1
    weight_filler {
      type: "xavier"
    }
    bias_filler {
      type: "constant"
      value: 0.2
    }
  }
}
layer {
  name: "inception_3b/relu_5x5_reduce"
  type: "ReLU"
  bottom: "inception_3b/5x5_reduce"
  top: "inception_3b/5x5_reduce"
}
layer {
  name: "inception_3b/5x5"
  type: "Convolution"
  bottom: "inception_3b/5x5_reduce"
  top: "inception_3b/5x5"
  param {
    lr_mult: 1
    decay_mult: 1
  }
  param {
    lr_mult: 2
    decay_mult: 0
  }
  convolution_param {
    num_output: 96
    pad: 2
    kernel_size: 5
    weight_filler {
      type: "xavier"
    }
    bias_filler {
      type: "constant"
      value: 0.2
    }
  }
}
layer {
  name: "inception_3b/relu_5x5"
  type: "ReLU"
  bottom: "inception_3b/5x5"
  top: "inception_3b/5x5"
}
layer {
  name: "inception_3b/pool"
  type: "Pooling"
  bottom: "inception_3a/output"
  top: "inception_3b/pool"
  pooling_param {
    pool: MAX
    kernel_size: 3
    stride: 1
    pad: 1
  }
}
layer {
  name: "inception_3b/pool_proj"
  type: "Convolution"
  bottom: "inception_3b/pool"
  top: "inception_3b/pool_proj"
  param {
    lr_mult: 1
    decay_mult: 1
  }
  param {
    lr_mult: 2
    decay_mult: 0
  }
  convolution_param {
    num_output: 64
    kernel_size: 1
    weight_filler {
      type: "xavier"
    }
    bias_filler {
      type: "constant"
      value: 0.2
    }
  }
}
layer {
  name: "inception_3b/relu_pool_proj"
  type: "ReLU"
  bottom: "inception_3b/pool_proj"
  top: "inception_3b/pool_proj"
}
layer {
  name: "inception_3b/output"
  type: "Concat"
  bottom: "inception_3b/1x1"
  bottom: "inception_3b/3x3"
  bottom: "inception_3b/5x5"
  bottom: "inception_3b/pool_proj"
  top: "inception_3b/output"
}
layer {
  name: "pool3/3x3_s2"
  type: "Pooling"
  bottom: "inception_3b/output"
  top: "pool3/3x3_s2"
  pooling_param {
    pool: MAX
    kernel_size: 3
    stride: 2
  }
}
layer {
  name: "inception_4a/1x1"
  type: "Convolution"
  bottom: "pool3/3x3_s2"
  top: "inception_4a/1x1"
  param {
    lr_mult: 1
    decay_mult: 1
  }
  param {
    lr_mult: 2
    decay_mult: 0
  }
  convolution_param {
    num_output: 192
    kernel_size: 1
    weight_filler {
      type: "xavier"
    }
    bias_filler {
      type: "constant"
      value: 0.2
    }
  }
}
layer {
  name: "inception_4a/relu_1x1"
  type: "ReLU"
  bottom: "inception_4a/1x1"
  top: "inception_4a/1x1"
}
layer {
  name: "inception_4a/3x3_reduce"
  type: "Convolution"
  bottom: "pool3/3x3_s2"
  top: "inception_4a/3x3_reduce"
  param {
    lr_mult: 1
    decay_mult: 1
  }
  param {
    lr_mult: 2
    decay_mult: 0
  }
  convolution_param {
    num_output: 96
    kernel_size: 1
    weight_filler {
      type: "xavier"
    }
    bias_filler {
      type: "constant"
      value: 0.2
    }
  }
}
layer {
  name: "inception_4a/relu_3x3_reduce"
  type: "ReLU"
  bottom: "inception_4a/3x3_reduce"
  top: "inception_4a/3x3_reduce"
}
layer {
  name: "inception_4a/3x3"
  type: "Convolution"
  bottom: "inception_4a/3x3_reduce"
  top: "inception_4a/3x3"
  param {
    lr_mult: 1
    decay_mult: 1
  }
  param {
    lr_mult: 2
    decay_mult: 0
  }
  convolution_param {
    num_output: 208
    pad: 1
    kernel_size: 3
    weight_filler {
      type: "xavier"
    }
    bias_filler {
      type: "constant"
      value: 0.2
    }
  }
}
layer {
  name: "inception_4a/relu_3x3"
  type: "ReLU"
  bottom: "inception_4a/3x3"
  top: "inception_4a/3x3"
}
layer {
  name: "inception_4a/5x5_reduce"
  type: "Convolution"
  bottom: "pool3/3x3_s2"
  top: "inception_4a/5x5_reduce"
  param {
    lr_mult: 1
    decay_mult: 1
  }
  param {
    lr_mult: 2
    decay_mult: 0
  }
  convolution_param {
    num_output: 16
    kernel_size: 1
    weight_filler {
      type: "xavier"
    }
    bias_filler {
      type: "constant"
      value: 0.2
    }
  }
}
layer {
  name: "inception_4a/relu_5x5_reduce"
  type: "ReLU"
  bottom: "inception_4a/5x5_reduce"
  top: "inception_4a/5x5_reduce"
}
layer {
  name: "inception_4a/5x5"
  type: "Convolution"
  bottom: "inception_4a/5x5_reduce"
  top: "inception_4a/5x5"
  param {
    lr_mult: 1
    decay_mult: 1
  }
  param {
    lr_mult: 2
    decay_mult: 0
  }
  convolution_param {
    num_output: 48
    pad: 2
    kernel_size: 5
    weight_filler {
      type: "xavier"
    }
    bias_filler {
      type: "constant"
      value: 0.2
    }
  }
}
layer {
  name: "inception_4a/relu_5x5"
  type: "ReLU"
  bottom: "inception_4a/5x5"
  top: "inception_4a/5x5"
}
layer {
  name: "inception_4a/pool"
  type: "Pooling"
  bottom: "pool3/3x3_s2"
  top: "inception_4a/pool"
  pooling_param {
    pool: MAX
    kernel_size: 3
    stride: 1
    pad: 1
  }
}
layer {
  name: "inception_4a/pool_proj"
  type: "Convolution"
  bottom: "inception_4a/pool"
  top: "inception_4a/pool_proj"
  param {
    lr_mult: 1
    decay_mult: 1
  }
  param {
    lr_mult: 2
    decay_mult: 0
  }
  convolution_param {
    num_output: 64
    kernel_size: 1
    weight_filler {
      type: "xavier"
    }
    bias_filler {
      type: "constant"
      value: 0.2
    }
  }
}
layer {
  name: "inception_4a/relu_pool_proj"
  type: "ReLU"
  bottom: "inception_4a/pool_proj"
  top: "inception_4a/pool_proj"
}
layer {
  name: "inception_4a/output"
  type: "Concat"
  bottom: "inception_4a/1x1"
  bottom: "inception_4a/3x3"
  bottom: "inception_4a/5x5"
  bottom: "inception_4a/pool_proj"
  top: "inception_4a/output"
}
layer {
  name: "loss1/ave_pool"
  type: "Pooling"
  bottom: "inception_4a/output"
  top: "loss1/ave_pool"
  pooling_param {
    pool: AVE
    kernel_size: 5
    stride: 3
  }
}
layer {
  name: "loss1/conv"
  type: "Convolution"
  bottom: "loss1/ave_pool"
  top: "loss1/conv"
  param {
    lr_mult: 1
    decay_mult: 1
  }
  param {
    lr_mult: 2
    decay_mult: 0
  }
  convolution_param {
    num_output: 128
    kernel_size: 1
    weight_filler {
      type: "xavier"
    }
    bias_filler {
      type: "constant"
      value: 0.2
    }
  }
}
layer {
  name: "loss1/relu_conv"
  type: "ReLU"
  bottom: "loss1/conv"
  top: "loss1/conv"
}
layer {
  name: "loss1/fc"
  type: "InnerProduct"
  bottom: "loss1/conv"
  top: "loss1/fc"
  param {
    lr_mult: 1
    decay_mult: 1
  }
  param {
    lr_mult: 2
    decay_mult: 0
  }
  inner_product_param {
    num_output: 1024
    weight_filler {
      type: "xavier"
    }
    bias_filler {
      type: "constant"
      value: 0.2
    }
  }
}
layer {
  name: "loss1/relu_fc"
  type: "ReLU"
  bottom: "loss1/fc"
  top: "loss1/fc"
}
layer {
  name: "loss1/drop_fc"
  type: "Dropout"
  bottom: "loss1/fc"
  top: "loss1/fc"
  dropout_param {
    dropout_ratio: 0.7
  }
}
layer {
  name: "loss1/classifier_ft"
  type: "InnerProduct"
  bottom: "loss1/fc"
  top: "loss1/classifier_ft"
  param {
    lr_mult: 100
    decay_mult: 1
  }
  param {
    lr_mult: 2
    decay_mult: 0
  }
  inner_product_param {
    num_output: 10
    weight_filler {
      type: "xavier"
    }
    bias_filler {
      type: "constant"
      value: 0
    }
  }
}
layer {
  name: "loss1/loss"
  type: "SoftmaxWithLoss"
  bottom: "loss1/classifier_ft"
  bottom: "label"
  top: "loss1/loss1"
  loss_weight: 0.3
}
layer {
  name: "inception_4b/1x1"
  type: "Convolution"
  bottom: "inception_4a/output"
  top: "inception_4b/1x1"
  param {
    lr_mult: 1
    decay_mult: 1
  }
  param {
    lr_mult: 2
    decay_mult: 0
  }
  convolution_param {
    num_output: 160
    kernel_size: 1
    weight_filler {
      type: "xavier"
    }
    bias_filler {
      type: "constant"
      value: 0.2
    }
  }
}
layer {
  name: "inception_4b/relu_1x1"
  type: "ReLU"
  bottom: "inception_4b/1x1"
  top: "inception_4b/1x1"
}
layer {
  name: "inception_4b/3x3_reduce"
  type: "Convolution"
  bottom: "inception_4a/output"
  top: "inception_4b/3x3_reduce"
  param {
    lr_mult: 1
    decay_mult: 1
  }
  param {
    lr_mult: 2
    decay_mult: 0
  }
  convolution_param {
    num_output: 112
    kernel_size: 1
    weight_filler {
      type: "xavier"
    }
    bias_filler {
      type: "constant"
      value: 0.2
    }
  }
}
layer {
  name: "inception_4b/relu_3x3_reduce"
  type: "ReLU"
  bottom: "inception_4b/3x3_reduce"
  top: "inception_4b/3x3_reduce"
}
layer {
  name: "inception_4b/3x3"
  type: "Convolution"
  bottom: "inception_4b/3x3_reduce"
  top: "inception_4b/3x3"
  param {
    lr_mult: 1
    decay_mult: 1
  }
  param {
    lr_mult: 2
    decay_mult: 0
  }
  convolution_param {
    num_output: 224
    pad: 1
    kernel_size: 3
    weight_filler {
      type: "xavier"
    }
    bias_filler {
      type: "constant"
      value: 0.2
    }
  }
}
layer {
  name: "inception_4b/relu_3x3"
  type: "ReLU"
  bottom: "inception_4b/3x3"
  top: "inception_4b/3x3"
}
layer {
  name: "inception_4b/5x5_reduce"
  type: "Convolution"
  bottom: "inception_4a/output"
  top: "inception_4b/5x5_reduce"
  param {
    lr_mult: 1
    decay_mult: 1
  }
  param {
    lr_mult: 2
    decay_mult: 0
  }
  convolution_param {
    num_output: 24
    kernel_size: 1
    weight_filler {
      type: "xavier"
    }
    bias_filler {
      type: "constant"
      value: 0.2
    }
  }
}
layer {
  name: "inception_4b/relu_5x5_reduce"
  type: "ReLU"
  bottom: "inception_4b/5x5_reduce"
  top: "inception_4b/5x5_reduce"
}
layer {
  name: "inception_4b/5x5"
  type: "Convolution"
  bottom: "inception_4b/5x5_reduce"
  top: "inception_4b/5x5"
  param {
    lr_mult: 1
    decay_mult: 1
  }
  param {
    lr_mult: 2
    decay_mult: 0
  }
  convolution_param {
    num_output: 64
    pad: 2
    kernel_size: 5
    weight_filler {
      type: "xavier"
    }
    bias_filler {
      type: "constant"
      value: 0.2
    }
  }
}
layer {
  name: "inception_4b/relu_5x5"
  type: "ReLU"
  bottom: "inception_4b/5x5"
  top: "inception_4b/5x5"
}
layer {
  name: "inception_4b/pool"
  type: "Pooling"
  bottom: "inception_4a/output"
  top: "inception_4b/pool"
  pooling_param {
    pool: MAX
    kernel_size: 3
    stride: 1
    pad: 1
  }
}
layer {
  name: "inception_4b/pool_proj"
  type: "Convolution"
  bottom: "inception_4b/pool"
  top: "inception_4b/pool_proj"
  param {
    lr_mult: 1
    decay_mult: 1
  }
  param {
    lr_mult: 2
    decay_mult: 0
  }
  convolution_param {
    num_output: 64
    kernel_size: 1
    weight_filler {
      type: "xavier"
    }
    bias_filler {
      type: "constant"
      value: 0.2
    }
  }
}
layer {
  name: "inception_4b/relu_pool_proj"
  type: "ReLU"
  bottom: "inception_4b/pool_proj"
  top: "inception_4b/pool_proj"
}
layer {
  name: "inception_4b/output"
  type: "Concat"
  bottom: "inception_4b/1x1"
  bottom: "inception_4b/3x3"
  bottom: "inception_4b/5x5"
  bottom: "inception_4b/pool_proj"
  top: "inception_4b/output"
}
layer {
  name: "inception_4c/1x1"
  type: "Convolution"
  bottom: "inception_4b/output"
  top: "inception_4c/1x1"
  param {
    lr_mult: 1
    decay_mult: 1
  }
  param {
    lr_mult: 2
    decay_mult: 0
  }
  convolution_param {
    num_output: 128
    kernel_size: 1
    weight_filler {
      type: "xavier"
    }
    bias_filler {
      type: "constant"
      value: 0.2
    }
  }
}
layer {
  name: "inception_4c/relu_1x1"
  type: "ReLU"
  bottom: "inception_4c/1x1"
  top: "inception_4c/1x1"
}
layer {
  name: "inception_4c/3x3_reduce"
  type: "Convolution"
  bottom: "inception_4b/output"
  top: "inception_4c/3x3_reduce"
  param {
    lr_mult: 1
    decay_mult: 1
  }
  param {
    lr_mult: 2
    decay_mult: 0
  }
  convolution_param {
    num_output: 128
    kernel_size: 1
    weight_filler {
      type: "xavier"
    }
    bias_filler {
      type: "constant"
      value: 0.2
    }
  }
}
layer {
  name: "inception_4c/relu_3x3_reduce"
  type: "ReLU"
  bottom: "inception_4c/3x3_reduce"
  top: "inception_4c/3x3_reduce"
}
layer {
  name: "inception_4c/3x3"
  type: "Convolution"
  bottom: "inception_4c/3x3_reduce"
  top: "inception_4c/3x3"
  param {
    lr_mult: 1
    decay_mult: 1
  }
  param {
    lr_mult: 2
    decay_mult: 0
  }
  convolution_param {
    num_output: 256
    pad: 1
    kernel_size: 3
    weight_filler {
      type: "xavier"
    }
    bias_filler {
      type: "constant"
      value: 0.2
    }
  }
}
layer {
  name: "inception_4c/relu_3x3"
  type: "ReLU"
  bottom: "inception_4c/3x3"
  top: "inception_4c/3x3"
}
layer {
  name: "inception_4c/5x5_reduce"
  type: "Convolution"
  bottom: "inception_4b/output"
  top: "inception_4c/5x5_reduce"
  param {
    lr_mult: 1
    decay_mult: 1
  }
  param {
    lr_mult: 2
    decay_mult: 0
  }
  convolution_param {
    num_output: 24
    kernel_size: 1
    weight_filler {
      type: "xavier"
    }
    bias_filler {
      type: "constant"
      value: 0.2
    }
  }
}
layer {
  name: "inception_4c/relu_5x5_reduce"
  type: "ReLU"
  bottom: "inception_4c/5x5_reduce"
  top: "inception_4c/5x5_reduce"
}
layer {
  name: "inception_4c/5x5"
  type: "Convolution"
  bottom: "inception_4c/5x5_reduce"
  top: "inception_4c/5x5"
  param {
    lr_mult: 1
    decay_mult: 1
  }
  param {
    lr_mult: 2
    decay_mult: 0
  }
  convolution_param {
    num_output: 64
    pad: 2
    kernel_size: 5
    weight_filler {
      type: "xavier"
    }
    bias_filler {
      type: "constant"
      value: 0.2
    }
  }
}
layer {
  name: "inception_4c/relu_5x5"
  type: "ReLU"
  bottom: "inception_4c/5x5"
  top: "inception_4c/5x5"
}
layer {
  name: "inception_4c/pool"
  type: "Pooling"
  bottom: "inception_4b/output"
  top: "inception_4c/pool"
  pooling_param {
    pool: MAX
    kernel_size: 3
    stride: 1
    pad: 1
  }
}
layer {
  name: "inception_4c/pool_proj"
  type: "Convolution"
  bottom: "inception_4c/pool"
  top: "inception_4c/pool_proj"
  param {
    lr_mult: 1
    decay_mult: 1
  }
  param {
    lr_mult: 2
    decay_mult: 0
  }
  convolution_param {
    num_output: 64
    kernel_size: 1
    weight_filler {
      type: "xavier"
    }
    bias_filler {
      type: "constant"
      value: 0.2
    }
  }
}
layer {
  name: "inception_4c/relu_pool_proj"
  type: "ReLU"
  bottom: "inception_4c/pool_proj"
  top: "inception_4c/pool_proj"
}
layer {
  name: "inception_4c/output"
  type: "Concat"
  bottom: "inception_4c/1x1"
  bottom: "inception_4c/3x3"
  bottom: "inception_4c/5x5"
  bottom: "inception_4c/pool_proj"
  top: "inception_4c/output"
}
layer {
  name: "inception_4d/1x1"
  type: "Convolution"
  bottom: "inception_4c/output"
  top: "inception_4d/1x1"
  param {
    lr_mult: 1
    decay_mult: 1
  }
  param {
    lr_mult: 2
    decay_mult: 0
  }
  convolution_param {
    num_output: 112
    kernel_size: 1
    weight_filler {
      type: "xavier"
    }
    bias_filler {
      type: "constant"
      value: 0.2
    }
  }
}
layer {
  name: "inception_4d/relu_1x1"
  type: "ReLU"
  bottom: "inception_4d/1x1"
  top: "inception_4d/1x1"
}
layer {
  name: "inception_4d/3x3_reduce"
  type: "Convolution"
  bottom: "inception_4c/output"
  top: "inception_4d/3x3_reduce"
  param {
    lr_mult: 1
    decay_mult: 1
  }
  param {
    lr_mult: 2
    decay_mult: 0
  }
  convolution_param {
    num_output: 144
    kernel_size: 1
    weight_filler {
      type: "xavier"
    }
    bias_filler {
      type: "constant"
      value: 0.2
    }
  }
}
layer {
  name: "inception_4d/relu_3x3_reduce"
  type: "ReLU"
  bottom: "inception_4d/3x3_reduce"
  top: "inception_4d/3x3_reduce"
}
layer {
  name: "inception_4d/3x3"
  type: "Convolution"
  bottom: "inception_4d/3x3_reduce"
  top: "inception_4d/3x3"
  param {
    lr_mult: 1
    decay_mult: 1
  }
  param {
    lr_mult: 2
    decay_mult: 0
  }
  convolution_param {
    num_output: 288
    pad: 1
    kernel_size: 3
    weight_filler {
      type: "xavier"
    }
    bias_filler {
      type: "constant"
      value: 0.2
    }
  }
}
layer {
  name: "inception_4d/relu_3x3"
  type: "ReLU"
  bottom: "inception_4d/3x3"
  top: "inception_4d/3x3"
}
layer {
  name: "inception_4d/5x5_reduce"
  type: "Convolution"
  bottom: "inception_4c/output"
  top: "inception_4d/5x5_reduce"
  param {
    lr_mult: 1
    decay_mult: 1
  }
  param {
    lr_mult: 2
    decay_mult: 0
  }
  convolution_param {
    num_output: 32
    kernel_size: 1
    weight_filler {
      type: "xavier"
    }
    bias_filler {
      type: "constant"
      value: 0.2
    }
  }
}
layer {
  name: "inception_4d/relu_5x5_reduce"
  type: "ReLU"
  bottom: "inception_4d/5x5_reduce"
  top: "inception_4d/5x5_reduce"
}
layer {
  name: "inception_4d/5x5"
  type: "Convolution"
  bottom: "inception_4d/5x5_reduce"
  top: "inception_4d/5x5"
  param {
    lr_mult: 1
    decay_mult: 1
  }
  param {
    lr_mult: 2
    decay_mult: 0
  }
  convolution_param {
    num_output: 64
    pad: 2
    kernel_size: 5
    weight_filler {
      type: "xavier"
    }
    bias_filler {
      type: "constant"
      value: 0.2
    }
  }
}
layer {
  name: "inception_4d/relu_5x5"
  type: "ReLU"
  bottom: "inception_4d/5x5"
  top: "inception_4d/5x5"
}
layer {
  name: "inception_4d/pool"
  type: "Pooling"
  bottom: "inception_4c/output"
  top: "inception_4d/pool"
  pooling_param {
    pool: MAX
    kernel_size: 3
    stride: 1
    pad: 1
  }
}
layer {
  name: "inception_4d/pool_proj"
  type: "Convolution"
  bottom: "inception_4d/pool"
  top: "inception_4d/pool_proj"
  param {
    lr_mult: 1
    decay_mult: 1
  }
  param {
    lr_mult: 2
    decay_mult: 0
  }
  convolution_param {
    num_output: 64
    kernel_size: 1
    weight_filler {
      type: "xavier"
    }
    bias_filler {
      type: "constant"
      value: 0.2
    }
  }
}
layer {
  name: "inception_4d/relu_pool_proj"
  type: "ReLU"
  bottom: "inception_4d/pool_proj"
  top: "inception_4d/pool_proj"
}
layer {
  name: "inception_4d/output"
  type: "Concat"
  bottom: "inception_4d/1x1"
  bottom: "inception_4d/3x3"
  bottom: "inception_4d/5x5"
  bottom: "inception_4d/pool_proj"
  top: "inception_4d/output"
}
layer {
  name: "loss2/ave_pool"
  type: "Pooling"
  bottom: "inception_4d/output"
  top: "loss2/ave_pool"
  pooling_param {
    pool: AVE
    kernel_size: 5
    stride: 3
  }
}
layer {
  name: "loss2/conv"
  type: "Convolution"
  bottom: "loss2/ave_pool"
  top: "loss2/conv"
  param {
    lr_mult: 1
    decay_mult: 1
  }
  param {
    lr_mult: 2
    decay_mult: 0
  }
  convolution_param {
    num_output: 128
    kernel_size: 1
    weight_filler {
      type: "xavier"
    }
    bias_filler {
      type: "constant"
      value: 0.2
    }
  }
}
layer {
  name: "loss2/relu_conv"
  type: "ReLU"
  bottom: "loss2/conv"
  top: "loss2/conv"
}
layer {
  name: "loss2/fc"
  type: "InnerProduct"
  bottom: "loss2/conv"
  top: "loss2/fc"
  param {
    lr_mult: 1
    decay_mult: 1
  }
  param {
    lr_mult: 2
    decay_mult: 0
  }
  inner_product_param {
    num_output: 1024
    weight_filler {
      type: "xavier"
    }
    bias_filler {
      type: "constant"
      value: 0.2
    }
  }
}
layer {
  name: "loss2/relu_fc"
  type: "ReLU"
  bottom: "loss2/fc"
  top: "loss2/fc"
}
layer {
  name: "loss2/drop_fc"
  type: "Dropout"
  bottom: "loss2/fc"
  top: "loss2/fc"
  dropout_param {
    dropout_ratio: 0.7
  }
}
layer {
  name: "loss2/classifier_ft"
  type: "InnerProduct"
  bottom: "loss2/fc"
  top: "loss2/classifier_ft"
  param {
    lr_mult: 100
    decay_mult: 1
  }
  param {
    lr_mult: 200
    decay_mult: 0
  }
  inner_product_param {
    num_output: 10
    weight_filler {
      type: "xavier"
    }
    bias_filler {
      type: "constant"
      value: 0
    }
  }
}
layer {
  name: "loss2/loss"
  type: "SoftmaxWithLoss"
  bottom: "loss2/classifier_ft"
  bottom: "label"
  top: "loss2/loss1"
  loss_weight: 0.3
}
layer {
  name: "inception_4e/1x1"
  type: "Convolution"
  bottom: "inception_4d/output"
  top: "inception_4e/1x1"
  param {
    lr_mult: 1
    decay_mult: 1
  }
  param {
    lr_mult: 2
    decay_mult: 0
  }
  convolution_param {
    num_output: 256
    kernel_size: 1
    weight_filler {
      type: "xavier"
    }
    bias_filler {
      type: "constant"
      value: 0.2
    }
  }
}
layer {
  name: "inception_4e/relu_1x1"
  type: "ReLU"
  bottom: "inception_4e/1x1"
  top: "inception_4e/1x1"
}
layer {
  name: "inception_4e/3x3_reduce"
  type: "Convolution"
  bottom: "inception_4d/output"
  top: "inception_4e/3x3_reduce"
  param {
    lr_mult: 1
    decay_mult: 1
  }
  param {
    lr_mult: 2
    decay_mult: 0
  }
  convolution_param {
    num_output: 160
    kernel_size: 1
    weight_filler {
      type: "xavier"
    }
    bias_filler {
      type: "constant"
      value: 0.2
    }
  }
}
layer {
  name: "inception_4e/relu_3x3_reduce"
  type: "ReLU"
  bottom: "inception_4e/3x3_reduce"
  top: "inception_4e/3x3_reduce"
}
layer {
  name: "inception_4e/3x3"
  type: "Convolution"
  bottom: "inception_4e/3x3_reduce"
  top: "inception_4e/3x3"
  param {
    lr_mult: 1
    decay_mult: 1
  }
  param {
    lr_mult: 2
    decay_mult: 0
  }
  convolution_param {
    num_output: 320
    pad: 1
    kernel_size: 3
    weight_filler {
      type: "xavier"
    }
    bias_filler {
      type: "constant"
      value: 0.2
    }
  }
}
layer {
  name: "inception_4e/relu_3x3"
  type: "ReLU"
  bottom: "inception_4e/3x3"
  top: "inception_4e/3x3"
}
layer {
  name: "inception_4e/5x5_reduce"
  type: "Convolution"
  bottom: "inception_4d/output"
  top: "inception_4e/5x5_reduce"
  param {
    lr_mult: 1
    decay_mult: 1
  }
  param {
    lr_mult: 2
    decay_mult: 0
  }
  convolution_param {
    num_output: 32
    kernel_size: 1
    weight_filler {
      type: "xavier"
    }
    bias_filler {
      type: "constant"
      value: 0.2
    }
  }
}
layer {
  name: "inception_4e/relu_5x5_reduce"
  type: "ReLU"
  bottom: "inception_4e/5x5_reduce"
  top: "inception_4e/5x5_reduce"
}
layer {
  name: "inception_4e/5x5"
  type: "Convolution"
  bottom: "inception_4e/5x5_reduce"
  top: "inception_4e/5x5"
  param {
    lr_mult: 1
    decay_mult: 1
  }
  param {
    lr_mult: 2
    decay_mult: 0
  }
  convolution_param {
    num_output: 128
    pad: 2
    kernel_size: 5
    weight_filler {
      type: "xavier"
    }
    bias_filler {
      type: "constant"
      value: 0.2
    }
  }
}
layer {
  name: "inception_4e/relu_5x5"
  type: "ReLU"
  bottom: "inception_4e/5x5"
  top: "inception_4e/5x5"
}
layer {
  name: "inception_4e/pool"
  type: "Pooling"
  bottom: "inception_4d/output"
  top: "inception_4e/pool"
  pooling_param {
    pool: MAX
    kernel_size: 3
   
I0505 04:28:23.723070  2016 layer_factory.hpp:77] Creating layer data
I0505 04:28:23.723584  2016 net.cpp:106] Creating Layer data
I0505 04:28:23.723639  2016 net.cpp:411] data -> data
I0505 04:28:23.723691  2016 net.cpp:411] data -> label
I0505 04:28:23.746839  2022 db_lmdb.cpp:38] Opened lmdb data/driving/driving_train_lmdb
I0505 04:28:23.911787  2016 data_layer.cpp:41] output data size: 32,3,224,224
I0505 04:28:23.958003  2016 net.cpp:150] Setting up data
I0505 04:28:23.958062  2016 net.cpp:157] Top shape: 32 3 224 224 (4816896)
I0505 04:28:23.958072  2016 net.cpp:157] Top shape: 32 (32)
I0505 04:28:23.958077  2016 net.cpp:165] Memory required for data: 19267712
I0505 04:28:23.958107  2016 layer_factory.hpp:77] Creating layer label_data_1_split
I0505 04:28:23.958133  2016 net.cpp:106] Creating Layer label_data_1_split
I0505 04:28:23.958143  2016 net.cpp:454] label_data_1_split <- label
I0505 04:28:23.958161  2016 net.cpp:411] label_data_1_split -> label_data_1_split_0
I0505 04:28:23.958179  2016 net.cpp:411] label_data_1_split -> label_data_1_split_1
I0505 04:28:23.958187  2016 net.cpp:411] label_data_1_split -> label_data_1_split_2
I0505 04:28:23.958338  2016 net.cpp:150] Setting up label_data_1_split
I0505 04:28:23.958376  2016 net.cpp:157] Top shape: 32 (32)
I0505 04:28:23.958384  2016 net.cpp:157] Top shape: 32 (32)
I0505 04:28:23.958389  2016 net.cpp:157] Top shape: 32 (32)
I0505 04:28:23.958394  2016 net.cpp:165] Memory required for data: 19268096
I0505 04:28:23.958400  2016 layer_factory.hpp:77] Creating layer conv1/7x7_s2
I0505 04:28:23.958430  2016 net.cpp:106] Creating Layer conv1/7x7_s2
I0505 04:28:23.958436  2016 net.cpp:454] conv1/7x7_s2 <- data
I0505 04:28:23.958447  2016 net.cpp:411] conv1/7x7_s2 -> conv1/7x7_s2
I0505 04:28:23.959431  2016 net.cpp:150] Setting up conv1/7x7_s2
I0505 04:28:23.959447  2016 net.cpp:157] Top shape: 32 64 112 112 (25690112)
I0505 04:28:23.959452  2016 net.cpp:165] Memory required for data: 122028544
I0505 04:28:23.959475  2016 layer_factory.hpp:77] Creating layer conv1/relu_7x7
I0505 04:28:23.959488  2016 net.cpp:106] Creating Layer conv1/relu_7x7
I0505 04:28:23.959496  2016 net.cpp:454] conv1/relu_7x7 <- conv1/7x7_s2
I0505 04:28:23.959502  2016 net.cpp:397] conv1/relu_7x7 -> conv1/7x7_s2 (in-place)
I0505 04:28:23.959517  2016 net.cpp:150] Setting up conv1/relu_7x7
I0505 04:28:23.959524  2016 net.cpp:157] Top shape: 32 64 112 112 (25690112)
I0505 04:28:23.959528  2016 net.cpp:165] Memory required for data: 224788992
I0505 04:28:23.959534  2016 layer_factory.hpp:77] Creating layer pool1/3x3_s2
I0505 04:28:23.959547  2016 net.cpp:106] Creating Layer pool1/3x3_s2
I0505 04:28:23.959553  2016 net.cpp:454] pool1/3x3_s2 <- conv1/7x7_s2
I0505 04:28:23.959563  2016 net.cpp:411] pool1/3x3_s2 -> pool1/3x3_s2
I0505 04:28:23.961693  2016 net.cpp:150] Setting up pool1/3x3_s2
I0505 04:28:23.961706  2016 net.cpp:157] Top shape: 32 64 56 56 (6422528)
I0505 04:28:23.961711  2016 net.cpp:165] Memory required for data: 250479104
I0505 04:28:23.961716  2016 layer_factory.hpp:77] Creating layer pool1/norm1
I0505 04:28:23.961730  2016 net.cpp:106] Creating Layer pool1/norm1
I0505 04:28:23.961735  2016 net.cpp:454] pool1/norm1 <- pool1/3x3_s2
I0505 04:28:23.961745  2016 net.cpp:411] pool1/norm1 -> pool1/norm1
I0505 04:28:23.961789  2016 net.cpp:150] Setting up pool1/norm1
I0505 04:28:23.961802  2016 net.cpp:157] Top shape: 32 64 56 56 (6422528)
I0505 04:28:23.961807  2016 net.cpp:165] Memory required for data: 276169216
I0505 04:28:23.961812  2016 layer_factory.hpp:77] Creating layer conv2/3x3_reduce
I0505 04:28:23.961823  2016 net.cpp:106] Creating Layer conv2/3x3_reduce
I0505 04:28:23.961828  2016 net.cpp:454] conv2/3x3_reduce <- pool1/norm1
I0505 04:28:23.961839  2016 net.cpp:411] conv2/3x3_reduce -> conv2/3x3_reduce
I0505 04:28:23.962589  2016 net.cpp:150] Setting up conv2/3x3_reduce
I0505 04:28:23.962604  2016 net.cpp:157] Top shape: 32 64 56 56 (6422528)
I0505 04:28:23.962609  2016 net.cpp:165] Memory required for data: 301859328
I0505 04:28:23.962620  2016 layer_factory.hpp:77] Creating layer conv2/relu_3x3_reduce
I0505 04:28:23.962627  2016 net.cpp:106] Creating Layer conv2/relu_3x3_reduce
I0505 04:28:23.962633  2016 net.cpp:454] conv2/relu_3x3_reduce <- conv2/3x3_reduce
I0505 04:28:23.962643  2016 net.cpp:397] conv2/relu_3x3_reduce -> conv2/3x3_reduce (in-place)
I0505 04:28:23.962652  2016 net.cpp:150] Setting up conv2/relu_3x3_reduce
I0505 04:28:23.962659  2016 net.cpp:157] Top shape: 32 64 56 56 (6422528)
I0505 04:28:23.962664  2016 net.cpp:165] Memory required for data: 327549440
I0505 04:28:23.962668  2016 layer_factory.hpp:77] Creating layer conv2/3x3
I0505 04:28:23.962685  2016 net.cpp:106] Creating Layer conv2/3x3
I0505 04:28:23.962693  2016 net.cpp:454] conv2/3x3 <- conv2/3x3_reduce
I0505 04:28:23.962702  2016 net.cpp:411] conv2/3x3 -> conv2/3x3
I0505 04:28:23.964159  2016 net.cpp:150] Setting up conv2/3x3
I0505 04:28:23.964174  2016 net.cpp:157] Top shape: 32 192 56 56 (19267584)
I0505 04:28:23.964179  2016 net.cpp:165] Memory required for data: 404619776
I0505 04:28:23.964191  2016 layer_factory.hpp:77] Creating layer conv2/relu_3x3
I0505 04:28:23.964201  2016 net.cpp:106] Creating Layer conv2/relu_3x3
I0505 04:28:23.964210  2016 net.cpp:454] conv2/relu_3x3 <- conv2/3x3
I0505 04:28:23.964229  2016 net.cpp:397] conv2/relu_3x3 -> conv2/3x3 (in-place)
I0505 04:28:23.964241  2016 net.cpp:150] Setting up conv2/relu_3x3
I0505 04:28:23.964247  2016 net.cpp:157] Top shape: 32 192 56 56 (19267584)
I0505 04:28:23.964251  2016 net.cpp:165] Memory required for data: 481690112
I0505 04:28:23.964257  2016 layer_factory.hpp:77] Creating layer conv2/norm2
I0505 04:28:23.964264  2016 net.cpp:106] Creating Layer conv2/norm2
I0505 04:28:23.964269  2016 net.cpp:454] conv2/norm2 <- conv2/3x3
I0505 04:28:23.964279  2016 net.cpp:411] conv2/norm2 -> conv2/norm2
I0505 04:28:23.964320  2016 net.cpp:150] Setting up conv2/norm2
I0505 04:28:23.964329  2016 net.cpp:157] Top shape: 32 192 56 56 (19267584)
I0505 04:28:23.964334  2016 net.cpp:165] Memory required for data: 558760448
I0505 04:28:23.964339  2016 layer_factory.hpp:77] Creating layer pool2/3x3_s2
I0505 04:28:23.964349  2016 net.cpp:106] Creating Layer pool2/3x3_s2
I0505 04:28:23.964355  2016 net.cpp:454] pool2/3x3_s2 <- conv2/norm2
I0505 04:28:23.964365  2016 net.cpp:411] pool2/3x3_s2 -> pool2/3x3_s2
I0505 04:28:23.964403  2016 net.cpp:150] Setting up pool2/3x3_s2
I0505 04:28:23.964414  2016 net.cpp:157] Top shape: 32 192 28 28 (4816896)
I0505 04:28:23.964421  2016 net.cpp:165] Memory required for data: 578028032
I0505 04:28:23.964426  2016 layer_factory.hpp:77] Creating layer pool2/3x3_s2_pool2/3x3_s2_0_split
I0505 04:28:23.964437  2016 net.cpp:106] Creating Layer pool2/3x3_s2_pool2/3x3_s2_0_split
I0505 04:28:23.964442  2016 net.cpp:454] pool2/3x3_s2_pool2/3x3_s2_0_split <- pool2/3x3_s2
I0505 04:28:23.964449  2016 net.cpp:411] pool2/3x3_s2_pool2/3x3_s2_0_split -> pool2/3x3_s2_pool2/3x3_s2_0_split_0
I0505 04:28:23.964458  2016 net.cpp:411] pool2/3x3_s2_pool2/3x3_s2_0_split -> pool2/3x3_s2_pool2/3x3_s2_0_split_1
I0505 04:28:23.964467  2016 net.cpp:411] pool2/3x3_s2_pool2/3x3_s2_0_split -> pool2/3x3_s2_pool2/3x3_s2_0_split_2
I0505 04:28:23.964473  2016 net.cpp:411] pool2/3x3_s2_pool2/3x3_s2_0_split -> pool2/3x3_s2_pool2/3x3_s2_0_split_3
I0505 04:28:23.964530  2016 net.cpp:150] Setting up pool2/3x3_s2_pool2/3x3_s2_0_split
I0505 04:28:23.964540  2016 net.cpp:157] Top shape: 32 192 28 28 (4816896)
I0505 04:28:23.964547  2016 net.cpp:157] Top shape: 32 192 28 28 (4816896)
I0505 04:28:23.964552  2016 net.cpp:157] Top shape: 32 192 28 28 (4816896)
I0505 04:28:23.964558  2016 net.cpp:157] Top shape: 32 192 28 28 (4816896)
I0505 04:28:23.964562  2016 net.cpp:165] Memory required for data: 655098368
I0505 04:28:23.964567  2016 layer_factory.hpp:77] Creating layer inception_3a/1x1
I0505 04:28:23.964581  2016 net.cpp:106] Creating Layer inception_3a/1x1
I0505 04:28:23.964586  2016 net.cpp:454] inception_3a/1x1 <- pool2/3x3_s2_pool2/3x3_s2_0_split_0
I0505 04:28:23.964598  2016 net.cpp:411] inception_3a/1x1 -> inception_3a/1x1
I0505 04:28:23.965406  2016 net.cpp:150] Setting up inception_3a/1x1
I0505 04:28:23.965425  2016 net.cpp:157] Top shape: 32 64 28 28 (1605632)
I0505 04:28:23.965431  2016 net.cpp:165] Memory required for data: 661520896
I0505 04:28:23.965440  2016 layer_factory.hpp:77] Creating layer inception_3a/relu_1x1
I0505 04:28:23.965450  2016 net.cpp:106] Creating Layer inception_3a/relu_1x1
I0505 04:28:23.965454  2016 net.cpp:454] inception_3a/relu_1x1 <- inception_3a/1x1
I0505 04:28:23.965461  2016 net.cpp:397] inception_3a/relu_1x1 -> inception_3a/1x1 (in-place)
I0505 04:28:23.965473  2016 net.cpp:150] Setting up inception_3a/relu_1x1
I0505 04:28:23.965481  2016 net.cpp:157] Top shape: 32 64 28 28 (1605632)
I0505 04:28:23.965486  2016 net.cpp:165] Memory required for data: 667943424
I0505 04:28:23.965490  2016 layer_factory.hpp:77] Creating layer inception_3a/3x3_reduce
I0505 04:28:23.965503  2016 net.cpp:106] Creating Layer inception_3a/3x3_reduce
I0505 04:28:23.965509  2016 net.cpp:454] inception_3a/3x3_reduce <- pool2/3x3_s2_pool2/3x3_s2_0_split_1
I0505 04:28:23.965518  2016 net.cpp:411] inception_3a/3x3_reduce -> inception_3a/3x3_reduce
I0505 04:28:23.966403  2016 net.cpp:150] Setting up inception_3a/3x3_reduce
I0505 04:28:23.966423  2016 net.cpp:157] Top shape: 32 96 28 28 (2408448)
I0505 04:28:23.966440  2016 net.cpp:165] Memory required for data: 677577216
I0505 04:28:23.966454  2016 layer_factory.hpp:77] Creating layer inception_3a/relu_3x3_reduce
I0505 04:28:23.966464  2016 net.cpp:106] Creating Layer inception_3a/relu_3x3_reduce
I0505 04:28:23.966470  2016 net.cpp:454] inception_3a/relu_3x3_reduce <- inception_3a/3x3_reduce
I0505 04:28:23.966480  2016 net.cpp:397] inception_3a/relu_3x3_reduce -> inception_3a/3x3_reduce (in-place)
I0505 04:28:23.966491  2016 net.cpp:150] Setting up inception_3a/relu_3x3_reduce
I0505 04:28:23.966498  2016 net.cpp:157] Top shape: 32 96 28 28 (2408448)
I0505 04:28:23.966502  2016 net.cpp:165] Memory required for data: 687211008
I0505 04:28:23.966507  2016 layer_factory.hpp:77] Creating layer inception_3a/3x3
I0505 04:28:23.966519  2016 net.cpp:106] Creating Layer inception_3a/3x3
I0505 04:28:23.966528  2016 net.cpp:454] inception_3a/3x3 <- inception_3a/3x3_reduce
I0505 04:28:23.966536  2016 net.cpp:411] inception_3a/3x3 -> inception_3a/3x3
I0505 04:28:23.967495  2016 net.cpp:150] Setting up inception_3a/3x3
I0505 04:28:23.967509  2016 net.cpp:157] Top shape: 32 128 28 28 (3211264)
I0505 04:28:23.967512  2016 net.cpp:165] Memory required for data: 700056064
I0505 04:28:23.967521  2016 layer_factory.hpp:77] Creating layer inception_3a/relu_3x3
I0505 04:28:23.967530  2016 net.cpp:106] Creating Layer inception_3a/relu_3x3
I0505 04:28:23.967535  2016 net.cpp:454] inception_3a/relu_3x3 <- inception_3a/3x3
I0505 04:28:23.967545  2016 net.cpp:397] inception_3a/relu_3x3 -> inception_3a/3x3 (in-place)
I0505 04:28:23.967555  2016 net.cpp:150] Setting up inception_3a/relu_3x3
I0505 04:28:23.967561  2016 net.cpp:157] Top shape: 32 128 28 28 (3211264)
I0505 04:28:23.967566  2016 net.cpp:165] Memory required for data: 712901120
I0505 04:28:23.967571  2016 layer_factory.hpp:77] Creating layer inception_3a/5x5_reduce
I0505 04:28:23.967584  2016 net.cpp:106] Creating Layer inception_3a/5x5_reduce
I0505 04:28:23.967589  2016 net.cpp:454] inception_3a/5x5_reduce <- pool2/3x3_s2_pool2/3x3_s2_0_split_2
I0505 04:28:23.967599  2016 net.cpp:411] inception_3a/5x5_reduce -> inception_3a/5x5_reduce
I0505 04:28:23.967839  2016 net.cpp:150] Setting up inception_3a/5x5_reduce
I0505 04:28:23.967849  2016 net.cpp:157] Top shape: 32 16 28 28 (401408)
I0505 04:28:23.967854  2016 net.cpp:165] Memory required for data: 714506752
I0505 04:28:23.967862  2016 layer_factory.hpp:77] Creating layer inception_3a/relu_5x5_reduce
I0505 04:28:23.967870  2016 net.cpp:106] Creating Layer inception_3a/relu_5x5_reduce
I0505 04:28:23.967876  2016 net.cpp:454] inception_3a/relu_5x5_reduce <- inception_3a/5x5_reduce
I0505 04:28:23.967885  2016 net.cpp:397] inception_3a/relu_5x5_reduce -> inception_3a/5x5_reduce (in-place)
I0505 04:28:23.967895  2016 net.cpp:150] Setting up inception_3a/relu_5x5_reduce
I0505 04:28:23.967901  2016 net.cpp:157] Top shape: 32 16 28 28 (401408)
I0505 04:28:23.967905  2016 net.cpp:165] Memory required for data: 716112384
I0505 04:28:23.967911  2016 layer_factory.hpp:77] Creating layer inception_3a/5x5
I0505 04:28:23.967921  2016 net.cpp:106] Creating Layer inception_3a/5x5
I0505 04:28:23.967927  2016 net.cpp:454] inception_3a/5x5 <- inception_3a/5x5_reduce
I0505 04:28:23.967934  2016 net.cpp:411] inception_3a/5x5 -> inception_3a/5x5
I0505 04:28:23.968232  2016 net.cpp:150] Setting up inception_3a/5x5
I0505 04:28:23.968245  2016 net.cpp:157] Top shape: 32 32 28 28 (802816)
I0505 04:28:23.968250  2016 net.cpp:165] Memory required for data: 719323648
I0505 04:28:23.968257  2016 layer_factory.hpp:77] Creating layer inception_3a/relu_5x5
I0505 04:28:23.968267  2016 net.cpp:106] Creating Layer inception_3a/relu_5x5
I0505 04:28:23.968273  2016 net.cpp:454] inception_3a/relu_5x5 <- inception_3a/5x5
I0505 04:28:23.968281  2016 net.cpp:397] inception_3a/relu_5x5 -> inception_3a/5x5 (in-place)
I0505 04:28:23.968289  2016 net.cpp:150] Setting up inception_3a/relu_5x5
I0505 04:28:23.968299  2016 net.cpp:157] Top shape: 32 32 28 28 (802816)
I0505 04:28:23.968303  2016 net.cpp:165] Memory required for data: 722534912
I0505 04:28:23.968318  2016 layer_factory.hpp:77] Creating layer inception_3a/pool
I0505 04:28:23.968327  2016 net.cpp:106] Creating Layer inception_3a/pool
I0505 04:28:23.968333  2016 net.cpp:454] inception_3a/pool <- pool2/3x3_s2_pool2/3x3_s2_0_split_3
I0505 04:28:23.968343  2016 net.cpp:411] inception_3a/pool -> inception_3a/pool
I0505 04:28:23.968385  2016 net.cpp:150] Setting up inception_3a/pool
I0505 04:28:23.968395  2016 net.cpp:157] Top shape: 32 192 28 28 (4816896)
I0505 04:28:23.968400  2016 net.cpp:165] Memory required for data: 741802496
I0505 04:28:23.968405  2016 layer_factory.hpp:77] Creating layer inception_3a/pool_proj
I0505 04:28:23.968420  2016 net.cpp:106] Creating Layer inception_3a/pool_proj
I0505 04:28:23.968425  2016 net.cpp:454] inception_3a/pool_proj <- inception_3a/pool
I0505 04:28:23.968433  2016 net.cpp:411] inception_3a/pool_proj -> inception_3a/pool_proj
I0505 04:28:23.968744  2016 net.cpp:150] Setting up inception_3a/pool_proj
I0505 04:28:23.968757  2016 net.cpp:157] Top shape: 32 32 28 28 (802816)
I0505 04:28:23.968761  2016 net.cpp:165] Memory required for data: 745013760
I0505 04:28:23.968776  2016 layer_factory.hpp:77] Creating layer inception_3a/relu_pool_proj
I0505 04:28:23.968786  2016 net.cpp:106] Creating Layer inception_3a/relu_pool_proj
I0505 04:28:23.968791  2016 net.cpp:454] inception_3a/relu_pool_proj <- inception_3a/pool_proj
I0505 04:28:23.968797  2016 net.cpp:397] inception_3a/relu_pool_proj -> inception_3a/pool_proj (in-place)
I0505 04:28:23.968807  2016 net.cpp:150] Setting up inception_3a/relu_pool_proj
I0505 04:28:23.968813  2016 net.cpp:157] Top shape: 32 32 28 28 (802816)
I0505 04:28:23.968818  2016 net.cpp:165] Memory required for data: 748225024
I0505 04:28:23.968822  2016 layer_factory.hpp:77] Creating layer inception_3a/output
I0505 04:28:23.968835  2016 net.cpp:106] Creating Layer inception_3a/output
I0505 04:28:23.968840  2016 net.cpp:454] inception_3a/output <- inception_3a/1x1
I0505 04:28:23.968863  2016 net.cpp:454] inception_3a/output <- inception_3a/3x3
I0505 04:28:23.968871  2016 net.cpp:454] inception_3a/output <- inception_3a/5x5
I0505 04:28:23.968876  2016 net.cpp:454] inception_3a/output <- inception_3a/pool_proj
I0505 04:28:23.968885  2016 net.cpp:411] inception_3a/output -> inception_3a/output
I0505 04:28:23.968924  2016 net.cpp:150] Setting up inception_3a/output
I0505 04:28:23.968933  2016 net.cpp:157] Top shape: 32 256 28 28 (6422528)
I0505 04:28:23.968938  2016 net.cpp:165] Memory required for data: 773915136
I0505 04:28:23.968943  2016 layer_factory.hpp:77] Creating layer inception_3a/output_inception_3a/output_0_split
I0505 04:28:23.968951  2016 net.cpp:106] Creating Layer inception_3a/output_inception_3a/output_0_split
I0505 04:28:23.968957  2016 net.cpp:454] inception_3a/output_inception_3a/output_0_split <- inception_3a/output
I0505 04:28:23.968966  2016 net.cpp:411] inception_3a/output_inception_3a/output_0_split -> inception_3a/output_inception_3a/output_0_split_0
I0505 04:28:23.968976  2016 net.cpp:411] inception_3a/output_inception_3a/output_0_split -> inception_3a/output_inception_3a/output_0_split_1
I0505 04:28:23.968983  2016 net.cpp:411] inception_3a/output_inception_3a/output_0_split -> inception_3a/output_inception_3a/output_0_split_2
I0505 04:28:23.968991  2016 net.cpp:411] inception_3a/output_inception_3a/output_0_split -> inception_3a/output_inception_3a/output_0_split_3
I0505 04:28:23.969050  2016 net.cpp:150] Setting up inception_3a/output_inception_3a/output_0_split
I0505 04:28:23.969060  2016 net.cpp:157] Top shape: 32 256 28 28 (6422528)
I0505 04:28:23.969066  2016 net.cpp:157] Top shape: 32 256 28 28 (6422528)
I0505 04:28:23.969071  2016 net.cpp:157] Top shape: 32 256 28 28 (6422528)
I0505 04:28:23.969077  2016 net.cpp:157] Top shape: 32 256 28 28 (6422528)
I0505 04:28:23.969081  2016 net.cpp:165] Memory required for data: 876675584
I0505 04:28:23.969086  2016 layer_factory.hpp:77] Creating layer inception_3b/1x1
I0505 04:28:23.969105  2016 net.cpp:106] Creating Layer inception_3b/1x1
I0505 04:28:23.969120  2016 net.cpp:454] inception_3b/1x1 <- inception_3a/output_inception_3a/output_0_split_0
I0505 04:28:23.969130  2016 net.cpp:411] inception_3b/1x1 -> inception_3b/1x1
I0505 04:28:23.969557  2016 net.cpp:150] Setting up inception_3b/1x1
I0505 04:28:23.969568  2016 net.cpp:157] Top shape: 32 128 28 28 (3211264)
I0505 04:28:23.969573  2016 net.cpp:165] Memory required for data: 889520640
I0505 04:28:23.969581  2016 layer_factory.hpp:77] Creating layer inception_3b/relu_1x1
I0505 04:28:23.969590  2016 net.cpp:106] Creating Layer inception_3b/relu_1x1
I0505 04:28:23.969595  2016 net.cpp:454] inception_3b/relu_1x1 <- inception_3b/1x1
I0505 04:28:23.969609  2016 net.cpp:397] inception_3b/relu_1x1 -> inception_3b/1x1 (in-place)
I0505 04:28:23.969619  2016 net.cpp:150] Setting up inception_3b/relu_1x1
I0505 04:28:23.969624  2016 net.cpp:157] Top shape: 32 128 28 28 (3211264)
I0505 04:28:23.969630  2016 net.cpp:165] Memory required for data: 902365696
I0505 04:28:23.969633  2016 layer_factory.hpp:77] Creating layer inception_3b/3x3_reduce
I0505 04:28:23.969643  2016 net.cpp:106] Creating Layer inception_3b/3x3_reduce
I0505 04:28:23.969650  2016 net.cpp:454] inception_3b/3x3_reduce <- inception_3a/output_inception_3a/output_0_split_1
I0505 04:28:23.969660  2016 net.cpp:411] inception_3b/3x3_reduce -> inception_3b/3x3_reduce
I0505 04:28:23.970089  2016 net.cpp:150] Setting up inception_3b/3x3_reduce
I0505 04:28:23.970101  2016 net.cpp:157] Top shape: 32 128 28 28 (3211264)
I0505 04:28:23.970106  2016 net.cpp:165] Memory required for data: 915210752
I0505 04:28:23.970115  2016 layer_factory.hpp:77] Creating layer inception_3b/relu_3x3_reduce
I0505 04:28:23.970124  2016 net.cpp:106] Creating Layer inception_3b/relu_3x3_reduce
I0505 04:28:23.970129  2016 net.cpp:454] inception_3b/relu_3x3_reduce <- inception_3b/3x3_reduce
I0505 04:28:23.970136  2016 net.cpp:397] inception_3b/relu_3x3_reduce -> inception_3b/3x3_reduce (in-place)
I0505 04:28:23.970144  2016 net.cpp:150] Setting up inception_3b/relu_3x3_reduce
I0505 04:28:23.970151  2016 net.cpp:157] Top shape: 32 128 28 28 (3211264)
I0505 04:28:23.970156  2016 net.cpp:165] Memory required for data: 928055808
I0505 04:28:23.970160  2016 layer_factory.hpp:77] Creating layer inception_3b/3x3
I0505 04:28:23.970177  2016 net.cpp:106] Creating Layer inception_3b/3x3
I0505 04:28:23.970183  2016 net.cpp:454] inception_3b/3x3 <- inception_3b/3x3_reduce
I0505 04:28:23.970192  2016 net.cpp:411] inception_3b/3x3 -> inception_3b/3x3
I0505 04:28:23.972426  2016 net.cpp:150] Setting up inception_3b/3x3
I0505 04:28:23.972442  2016 net.cpp:157] Top shape: 32 192 28 28 (4816896)
I0505 04:28:23.972447  2016 net.cpp:165] Memory required for data: 947323392
I0505 04:28:23.972456  2016 layer_factory.hpp:77] Creating layer inception_3b/relu_3x3
I0505 04:28:23.972465  2016 net.cpp:106] Creating Layer inception_3b/relu_3x3
I0505 04:28:23.972471  2016 net.cpp:454] inception_3b/relu_3x3 <- inception_3b/3x3
I0505 04:28:23.972484  2016 net.cpp:397] inception_3b/relu_3x3 -> inception_3b/3x3 (in-place)
I0505 04:28:23.972494  2016 net.cpp:150] Setting up inception_3b/relu_3x3
I0505 04:28:23.972501  2016 net.cpp:157] Top shape: 32 192 28 28 (4816896)
I0505 04:28:23.972506  2016 net.cpp:165] Memory required for data: 966590976
I0505 04:28:23.972510  2016 layer_factory.hpp:77] Creating layer inception_3b/5x5_reduce
I0505 04:28:23.972522  2016 net.cpp:106] Creating Layer inception_3b/5x5_reduce
I0505 04:28:23.972528  2016 net.cpp:454] inception_3b/5x5_reduce <- inception_3a/output_inception_3a/output_0_split_2
I0505 04:28:23.972537  2016 net.cpp:411] inception_3b/5x5_reduce -> inception_3b/5x5_reduce
I0505 04:28:23.972813  2016 net.cpp:150] Setting up inception_3b/5x5_reduce
I0505 04:28:23.972826  2016 net.cpp:157] Top shape: 32 32 28 28 (802816)
I0505 04:28:23.972831  2016 net.cpp:165] Memory required for data: 969802240
I0505 04:28:23.972839  2016 layer_factory.hpp:77] Creating layer inception_3b/relu_5x5_reduce
I0505 04:28:23.972869  2016 net.cpp:106] Creating Layer inception_3b/relu_5x5_reduce
I0505 04:28:23.972887  2016 net.cpp:454] inception_3b/relu_5x5_reduce <- inception_3b/5x5_reduce
I0505 04:28:23.972895  2016 net.cpp:397] inception_3b/relu_5x5_reduce -> inception_3b/5x5_reduce (in-place)
I0505 04:28:23.972905  2016 net.cpp:150] Setting up inception_3b/relu_5x5_reduce
I0505 04:28:23.972913  2016 net.cpp:157] Top shape: 32 32 28 28 (802816)
I0505 04:28:23.972918  2016 net.cpp:165] Memory required for data: 973013504
I0505 04:28:23.972923  2016 layer_factory.hpp:77] Creating layer inception_3b/5x5
I0505 04:28:23.972934  2016 net.cpp:106] Creating Layer inception_3b/5x5
I0505 04:28:23.972940  2016 net.cpp:454] inception_3b/5x5 <- inception_3b/5x5_reduce
I0505 04:28:23.972949  2016 net.cpp:411] inception_3b/5x5 -> inception_3b/5x5
I0505 04:28:23.974231  2016 net.cpp:150] Setting up inception_3b/5x5
I0505 04:28:23.974249  2016 net.cpp:157] Top shape: 32 96 28 28 (2408448)
I0505 04:28:23.974254  2016 net.cpp:165] Memory required for data: 982647296
I0505 04:28:23.974263  2016 layer_factory.hpp:77] Creating layer inception_3b/relu_5x5
I0505 04:28:23.974272  2016 net.cpp:106] Creating Layer inception_3b/relu_5x5
I0505 04:28:23.974278  2016 net.cpp:454] inception_3b/relu_5x5 <- inception_3b/5x5
I0505 04:28:23.974287  2016 net.cpp:397] inception_3b/relu_5x5 -> inception_3b/5x5 (in-place)
I0505 04:28:23.974297  2016 net.cpp:150] Setting up inception_3b/relu_5x5
I0505 04:28:23.974303  2016 net.cpp:157] Top shape: 32 96 28 28 (2408448)
I0505 04:28:23.974308  2016 net.cpp:165] Memory required for data: 992281088
I0505 04:28:23.974311  2016 layer_factory.hpp:77] Creating layer inception_3b/pool
I0505 04:28:23.974323  2016 net.cpp:106] Creating Layer inception_3b/pool
I0505 04:28:23.974328  2016 net.cpp:454] inception_3b/pool <- inception_3a/output_inception_3a/output_0_split_3
I0505 04:28:23.974335  2016 net.cpp:411] inception_3b/pool -> inception_3b/pool
I0505 04:28:23.974380  2016 net.cpp:150] Setting up inception_3b/pool
I0505 04:28:23.974390  2016 net.cpp:157] Top shape: 32 256 28 28 (6422528)
I0505 04:28:23.974395  2016 net.cpp:165] Memory required for data: 1017971200
I0505 04:28:23.974400  2016 layer_factory.hpp:77] Creating layer inception_3b/pool_proj
I0505 04:28:23.974412  2016 net.cpp:106] Creating Layer inception_3b/pool_proj
I0505 04:28:23.974418  2016 net.cpp:454] inception_3b/pool_proj <- inception_3b/pool
I0505 04:28:23.974427  2016 net.cpp:411] inception_3b/pool_proj -> inception_3b/pool_proj
I0505 04:28:23.974759  2016 net.cpp:150] Setting up inception_3b/pool_proj
I0505 04:28:23.974776  2016 net.cpp:157] Top shape: 32 64 28 28 (1605632)
I0505 04:28:23.974781  2016 net.cpp:165] Memory required for data: 1024393728
I0505 04:28:23.974789  2016 layer_factory.hpp:77] Creating layer inception_3b/relu_pool_proj
I0505 04:28:23.974797  2016 net.cpp:106] Creating Layer inception_3b/relu_pool_proj
I0505 04:28:23.974802  2016 net.cpp:454] inception_3b/relu_pool_proj <- inception_3b/pool_proj
I0505 04:28:23.974810  2016 net.cpp:397] inception_3b/relu_pool_proj -> inception_3b/pool_proj (in-place)
I0505 04:28:23.974820  2016 net.cpp:150] Setting up inception_3b/relu_pool_proj
I0505 04:28:23.974828  2016 net.cpp:157] Top shape: 32 64 28 28 (1605632)
I0505 04:28:23.974831  2016 net.cpp:165] Memory required for data: 1030816256
I0505 04:28:23.974836  2016 layer_factory.hpp:77] Creating layer inception_3b/output
I0505 04:28:23.974844  2016 net.cpp:106] Creating Layer inception_3b/output
I0505 04:28:23.974849  2016 net.cpp:454] inception_3b/output <- inception_3b/1x1
I0505 04:28:23.974855  2016 net.cpp:454] inception_3b/output <- inception_3b/3x3
I0505 04:28:23.974865  2016 net.cpp:454] inception_3b/output <- inception_3b/5x5
I0505 04:28:23.974871  2016 net.cpp:454] inception_3b/output <- inception_3b/pool_proj
I0505 04:28:23.974880  2016 net.cpp:411] inception_3b/output -> inception_3b/output
I0505 04:28:23.974910  2016 net.cpp:150] Setting up inception_3b/output
I0505 04:28:23.974921  2016 net.cpp:157] Top shape: 32 480 28 28 (12042240)
I0505 04:28:23.974931  2016 net.cpp:165] Memory required for data: 1078985216
I0505 04:28:23.974946  2016 layer_factory.hpp:77] Creating layer pool3/3x3_s2
I0505 04:28:23.974954  2016 net.cpp:106] Creating Layer pool3/3x3_s2
I0505 04:28:23.974959  2016 net.cpp:454] pool3/3x3_s2 <- inception_3b/output
I0505 04:28:23.974970  2016 net.cpp:411] pool3/3x3_s2 -> pool3/3x3_s2
I0505 04:28:23.975011  2016 net.cpp:150] Setting up pool3/3x3_s2
I0505 04:28:23.975021  2016 net.cpp:157] Top shape: 32 480 14 14 (3010560)
I0505 04:28:23.975026  2016 net.cpp:165] Memory required for data: 1091027456
I0505 04:28:23.975031  2016 layer_factory.hpp:77] Creating layer pool3/3x3_s2_pool3/3x3_s2_0_split
I0505 04:28:23.975042  2016 net.cpp:106] Creating Layer pool3/3x3_s2_pool3/3x3_s2_0_split
I0505 04:28:23.975047  2016 net.cpp:454] pool3/3x3_s2_pool3/3x3_s2_0_split <- pool3/3x3_s2
I0505 04:28:23.975054  2016 net.cpp:411] pool3/3x3_s2_pool3/3x3_s2_0_split -> pool3/3x3_s2_pool3/3x3_s2_0_split_0
I0505 04:28:23.975064  2016 net.cpp:411] pool3/3x3_s2_pool3/3x3_s2_0_split -> pool3/3x3_s2_pool3/3x3_s2_0_split_1
I0505 04:28:23.975074  2016 net.cpp:411] pool3/3x3_s2_pool3/3x3_s2_0_split -> pool3/3x3_s2_pool3/3x3_s2_0_split_2
I0505 04:28:23.975081  2016 net.cpp:411] pool3/3x3_s2_pool3/3x3_s2_0_split -> pool3/3x3_s2_pool3/3x3_s2_0_split_3
I0505 04:28:23.975138  2016 net.cpp:150] Setting up pool3/3x3_s2_pool3/3x3_s2_0_split
I0505 04:28:23.975148  2016 net.cpp:157] Top shape: 32 480 14 14 (3010560)
I0505 04:28:23.975154  2016 net.cpp:157] Top shape: 32 480 14 14 (3010560)
I0505 04:28:23.975160  2016 net.cpp:157] Top shape: 32 480 14 14 (3010560)
I0505 04:28:23.975165  2016 net.cpp:157] Top shape: 32 480 14 14 (3010560)
I0505 04:28:23.975170  2016 net.cpp:165] Memory required for data: 1139196416
I0505 04:28:23.975175  2016 layer_factory.hpp:77] Creating layer inception_4a/1x1
I0505 04:28:23.975188  2016 net.cpp:106] Creating Layer inception_4a/1x1
I0505 04:28:23.975193  2016 net.cpp:454] inception_4a/1x1 <- pool3/3x3_s2_pool3/3x3_s2_0_split_0
I0505 04:28:23.975204  2016 net.cpp:411] inception_4a/1x1 -> inception_4a/1x1
I0505 04:28:23.976028  2016 net.cpp:150] Setting up inception_4a/1x1
I0505 04:28:23.976042  2016 net.cpp:157] Top shape: 32 192 14 14 (1204224)
I0505 04:28:23.976047  2016 net.cpp:165] Memory required for data: 1144013312
I0505 04:28:23.976054  2016 layer_factory.hpp:77] Creating layer inception_4a/relu_1x1
I0505 04:28:23.976063  2016 net.cpp:106] Creating Layer inception_4a/relu_1x1
I0505 04:28:23.976068  2016 net.cpp:454] inception_4a/relu_1x1 <- inception_4a/1x1
I0505 04:28:23.976075  2016 net.cpp:397] inception_4a/relu_1x1 -> inception_4a/1x1 (in-place)
I0505 04:28:23.976084  2016 net.cpp:150] Setting up inception_4a/relu_1x1
I0505 04:28:23.976090  2016 net.cpp:157] Top shape: 32 192 14 14 (1204224)
I0505 04:28:23.976095  2016 net.cpp:165] Memory required for data: 1148830208
I0505 04:28:23.976099  2016 layer_factory.hpp:77] Creating layer inception_4a/3x3_reduce
I0505 04:28:23.976114  2016 net.cpp:106] Creating Layer inception_4a/3x3_reduce
I0505 04:28:23.976120  2016 net.cpp:454] inception_4a/3x3_reduce <- pool3/3x3_s2_pool3/3x3_s2_0_split_1
I0505 04:28:23.976130  2016 net.cpp:411] inception_4a/3x3_reduce -> inception_4a/3x3_reduce
I0505 04:28:23.976697  2016 net.cpp:150] Setting up inception_4a/3x3_reduce
I0505 04:28:23.976711  2016 net.cpp:157] Top shape: 32 96 14 14 (602112)
I0505 04:28:23.976716  2016 net.cpp:165] Memory required for data: 1151238656
I0505 04:28:23.976734  2016 layer_factory.hpp:77] Creating layer inception_4a/relu_3x3_reduce
I0505 04:28:23.976743  2016 net.cpp:106] Creating Layer inception_4a/relu_3x3_reduce
I0505 04:28:23.976749  2016 net.cpp:454] inception_4a/relu_3x3_reduce <- inception_4a/3x3_reduce
I0505 04:28:23.976758  2016 net.cpp:397] inception_4a/relu_3x3_reduce -> inception_4a/3x3_reduce (in-place)
I0505 04:28:23.976766  2016 net.cpp:150] Setting up inception_4a/relu_3x3_reduce
I0505 04:28:23.976773  2016 net.cpp:157] Top shape: 32 96 14 14 (602112)
I0505 04:28:23.976779  2016 net.cpp:165] Memory required for data: 1153647104
I0505 04:28:23.976788  2016 layer_factory.hpp:77] Creating layer inception_4a/3x3
I0505 04:28:23.976809  2016 net.cpp:106] Creating Layer inception_4a/3x3
I0505 04:28:23.976814  2016 net.cpp:454] inception_4a/3x3 <- inception_4a/3x3_reduce
I0505 04:28:23.976825  2016 net.cpp:411] inception_4a/3x3 -> inception_4a/3x3
I0505 04:28:23.978787  2016 net.cpp:150] Setting up inception_4a/3x3
I0505 04:28:23.978802  2016 net.cpp:157] Top shape: 32 208 14 14 (1304576)
I0505 04:28:23.978807  2016 net.cpp:165] Memory required for data: 1158865408
I0505 04:28:23.978817  2016 layer_factory.hpp:77] Creating layer inception_4a/relu_3x3
I0505 04:28:23.978826  2016 net.cpp:106] Creating Layer inception_4a/relu_3x3
I0505 04:28:23.978832  2016 net.cpp:454] inception_4a/relu_3x3 <- inception_4a/3x3
I0505 04:28:23.978839  2016 net.cpp:397] inception_4a/relu_3x3 -> inception_4a/3x3 (in-place)
I0505 04:28:23.978848  2016 net.cpp:150] Setting up inception_4a/relu_3x3
I0505 04:28:23.978857  2016 net.cpp:157] Top shape: 32 208 14 14 (1304576)
I0505 04:28:23.978860  2016 net.cpp:165] Memory required for data: 1164083712
I0505 04:28:23.978865  2016 layer_factory.hpp:77] Creating layer inception_4a/5x5_reduce
I0505 04:28:23.978878  2016 net.cpp:106] Creating Layer inception_4a/5x5_reduce
I0505 04:28:23.978884  2016 net.cpp:454] inception_4a/5x5_reduce <- pool3/3x3_s2_pool3/3x3_s2_0_split_2
I0505 04:28:23.978895  2016 net.cpp:411] inception_4a/5x5_reduce -> inception_4a/5x5_reduce
I0505 04:28:23.979176  2016 net.cpp:150] Setting up inception_4a/5x5_reduce
I0505 04:28:23.979188  2016 net.cpp:157] Top shape: 32 16 14 14 (100352)
I0505 04:28:23.979192  2016 net.cpp:165] Memory required for data: 1164485120
I0505 04:28:23.979202  2016 layer_factory.hpp:77] Creating layer inception_4a/relu_5x5_reduce
I0505 04:28:23.979209  2016 net.cpp:106] Creating Layer inception_4a/relu_5x5_reduce
I0505 04:28:23.979214  2016 net.cpp:454] inception_4a/relu_5x5_reduce <- inception_4a/5x5_reduce
I0505 04:28:23.979224  2016 net.cpp:397] inception_4a/relu_5x5_reduce -> inception_4a/5x5_reduce (in-place)
I0505 04:28:23.979233  2016 net.cpp:150] Setting up inception_4a/relu_5x5_reduce
I0505 04:28:23.979240  2016 net.cpp:157] Top shape: 32 16 14 14 (100352)
I0505 04:28:23.979245  2016 net.cpp:165] Memory required for data: 1164886528
I0505 04:28:23.979250  2016 layer_factory.hpp:77] Creating layer inception_4a/5x5
I0505 04:28:23.979260  2016 net.cpp:106] Creating Layer inception_4a/5x5
I0505 04:28:23.979265  2016 net.cpp:454] inception_4a/5x5 <- inception_4a/5x5_reduce
I0505 04:28:23.979276  2016 net.cpp:411] inception_4a/5x5 -> inception_4a/5x5
I0505 04:28:23.979626  2016 net.cpp:150] Setting up inception_4a/5x5
I0505 04:28:23.979638  2016 net.cpp:157] Top shape: 32 48 14 14 (301056)
I0505 04:28:23.979643  2016 net.cpp:165] Memory required for data: 1166090752
I0505 04:28:23.979652  2016 layer_factory.hpp:77] Creating layer inception_4a/relu_5x5
I0505 04:28:23.979660  2016 net.cpp:106] Creating Layer inception_4a/relu_5x5
I0505 04:28:23.979665  2016 net.cpp:454] inception_4a/relu_5x5 <- inception_4a/5x5
I0505 04:28:23.979676  2016 net.cpp:397] inception_4a/relu_5x5 -> inception_4a/5x5 (in-place)
I0505 04:28:23.979684  2016 net.cpp:150] Setting up inception_4a/relu_5x5
I0505 04:28:23.979691  2016 net.cpp:157] Top shape: 32 48 14 14 (301056)
I0505 04:28:23.979696  2016 net.cpp:165] Memory required for data: 1167294976
I0505 04:28:23.979701  2016 layer_factory.hpp:77] Creating layer inception_4a/pool
I0505 04:28:23.979708  2016 net.cpp:106] Creating Layer inception_4a/pool
I0505 04:28:23.979713  2016 net.cpp:454] inception_4a/pool <- pool3/3x3_s2_pool3/3x3_s2_0_split_3
I0505 04:28:23.979722  2016 net.cpp:411] inception_4a/pool -> inception_4a/pool
I0505 04:28:23.979764  2016 net.cpp:150] Setting up inception_4a/pool
I0505 04:28:23.979774  2016 net.cpp:157] Top shape: 32 480 14 14 (3010560)
I0505 04:28:23.979779  2016 net.cpp:165] Memory required for data: 1179337216
I0505 04:28:23.979784  2016 layer_factory.hpp:77] Creating layer inception_4a/pool_proj
I0505 04:28:23.979800  2016 net.cpp:106] Creating Layer inception_4a/pool_proj
I0505 04:28:23.979816  2016 net.cpp:454] inception_4a/pool_proj <- inception_4a/pool
I0505 04:28:23.979828  2016 net.cpp:411] inception_4a/pool_proj -> inception_4a/pool_proj
I0505 04:28:23.980269  2016 net.cpp:150] Setting up inception_4a/pool_proj
I0505 04:28:23.980281  2016 net.cpp:157] Top shape: 32 64 14 14 (401408)
I0505 04:28:23.980286  2016 net.cpp:165] Memory required for data: 1180942848
I0505 04:28:23.980295  2016 layer_factory.hpp:77] Creating layer inception_4a/relu_pool_proj
I0505 04:28:23.980303  2016 net.cpp:106] Creating Layer inception_4a/relu_pool_proj
I0505 04:28:23.980309  2016 net.cpp:454] inception_4a/relu_pool_proj <- inception_4a/pool_proj
I0505 04:28:23.980316  2016 net.cpp:397] inception_4a/relu_pool_proj -> inception_4a/pool_proj (in-place)
I0505 04:28:23.980324  2016 net.cpp:150] Setting up inception_4a/relu_pool_proj
I0505 04:28:23.980331  2016 net.cpp:157] Top shape: 32 64 14 14 (401408)
I0505 04:28:23.980336  2016 net.cpp:165] Memory required for data: 1182548480
I0505 04:28:23.980340  2016 layer_factory.hpp:77] Creating layer inception_4a/output
I0505 04:28:23.980350  2016 net.cpp:106] Creating Layer inception_4a/output
I0505 04:28:23.980356  2016 net.cpp:454] inception_4a/output <- inception_4a/1x1
I0505 04:28:23.980362  2016 net.cpp:454] inception_4a/output <- inception_4a/3x3
I0505 04:28:23.980368  2016 net.cpp:454] inception_4a/output <- inception_4a/5x5
I0505 04:28:23.980375  2016 net.cpp:454] inception_4a/output <- inception_4a/pool_proj
I0505 04:28:23.980381  2016 net.cpp:411] inception_4a/output -> inception_4a/output
I0505 04:28:23.980412  2016 net.cpp:150] Setting up inception_4a/output
I0505 04:28:23.980420  2016 net.cpp:157] Top shape: 32 512 14 14 (3211264)
I0505 04:28:23.980425  2016 net.cpp:165] Memory required for data: 1195393536
I0505 04:28:23.980430  2016 layer_factory.hpp:77] Creating layer inception_4a/output_inception_4a/output_0_split
I0505 04:28:23.980439  2016 net.cpp:106] Creating Layer inception_4a/output_inception_4a/output_0_split
I0505 04:28:23.980444  2016 net.cpp:454] inception_4a/output_inception_4a/output_0_split <- inception_4a/output
I0505 04:28:23.980454  2016 net.cpp:411] inception_4a/output_inception_4a/output_0_split -> inception_4a/output_inception_4a/output_0_split_0
I0505 04:28:23.980473  2016 net.cpp:411] inception_4a/output_inception_4a/output_0_split -> inception_4a/output_inception_4a/output_0_split_1
I0505 04:28:23.980482  2016 net.cpp:411] inception_4a/output_inception_4a/output_0_split -> inception_4a/output_inception_4a/output_0_split_2
I0505 04:28:23.980490  2016 net.cpp:411] inception_4a/output_inception_4a/output_0_split -> inception_4a/output_inception_4a/output_0_split_3
I0505 04:28:23.980497  2016 net.cpp:411] inception_4a/output_inception_4a/output_0_split -> inception_4a/output_inception_4a/output_0_split_4
I0505 04:28:23.980568  2016 net.cpp:150] Setting up inception_4a/output_inception_4a/output_0_split
I0505 04:28:23.980578  2016 net.cpp:157] Top shape: 32 512 14 14 (3211264)
I0505 04:28:23.980584  2016 net.cpp:157] Top shape: 32 512 14 14 (3211264)
I0505 04:28:23.980590  2016 net.cpp:157] Top shape: 32 512 14 14 (3211264)
I0505 04:28:23.980595  2016 net.cpp:157] Top shape: 32 512 14 14 (3211264)
I0505 04:28:23.980600  2016 net.cpp:157] Top shape: 32 512 14 14 (3211264)
I0505 04:28:23.980605  2016 net.cpp:165] Memory required for data: 1259618816
I0505 04:28:23.980610  2016 layer_factory.hpp:77] Creating layer loss1/ave_pool
I0505 04:28:23.980618  2016 net.cpp:106] Creating Layer loss1/ave_pool
I0505 04:28:23.980623  2016 net.cpp:454] loss1/ave_pool <- inception_4a/output_inception_4a/output_0_split_0
I0505 04:28:23.980633  2016 net.cpp:411] loss1/ave_pool -> loss1/ave_pool
I0505 04:28:23.980659  2016 net.cpp:150] Setting up loss1/ave_pool
I0505 04:28:23.980671  2016 net.cpp:157] Top shape: 32 512 4 4 (262144)
I0505 04:28:23.980676  2016 net.cpp:165] Memory required for data: 1260667392
I0505 04:28:23.980681  2016 layer_factory.hpp:77] Creating layer loss1/conv
I0505 04:28:23.980695  2016 net.cpp:106] Creating Layer loss1/conv
I0505 04:28:23.980710  2016 net.cpp:454] loss1/conv <- loss1/ave_pool
I0505 04:28:23.980721  2016 net.cpp:411] loss1/conv -> loss1/conv
I0505 04:28:23.981416  2016 net.cpp:150] Setting up loss1/conv
I0505 04:28:23.981429  2016 net.cpp:157] Top shape: 32 128 4 4 (65536)
I0505 04:28:23.981434  2016 net.cpp:165] Memory required for data: 1260929536
I0505 04:28:23.981442  2016 layer_factory.hpp:77] Creating layer loss1/relu_conv
I0505 04:28:23.981451  2016 net.cpp:106] Creating Layer loss1/relu_conv
I0505 04:28:23.981456  2016 net.cpp:454] loss1/relu_conv <- loss1/conv
I0505 04:28:23.981463  2016 net.cpp:397] loss1/relu_conv -> loss1/conv (in-place)
I0505 04:28:23.981472  2016 net.cpp:150] Setting up loss1/relu_conv
I0505 04:28:23.981479  2016 net.cpp:157] Top shape: 32 128 4 4 (65536)
I0505 04:28:23.981483  2016 net.cpp:165] Memory required for data: 1261191680
I0505 04:28:23.981488  2016 layer_factory.hpp:77] Creating layer loss1/fc
I0505 04:28:23.981509  2016 net.cpp:106] Creating Layer loss1/fc
I0505 04:28:23.981516  2016 net.cpp:454] loss1/fc <- loss1/conv
I0505 04:28:23.981526  2016 net.cpp:411] loss1/fc -> loss1/fc
I0505 04:28:24.002147  2016 net.cpp:150] Setting up loss1/fc
I0505 04:28:24.002200  2016 net.cpp:157] Top shape: 32 1024 (32768)
I0505 04:28:24.002207  2016 net.cpp:165] Memory required for data: 1261322752
I0505 04:28:24.002223  2016 layer_factory.hpp:77] Creating layer loss1/relu_fc
I0505 04:28:24.002238  2016 net.cpp:106] Creating Layer loss1/relu_fc
I0505 04:28:24.002249  2016 net.cpp:454] loss1/relu_fc <- loss1/fc
I0505 04:28:24.002264  2016 net.cpp:397] loss1/relu_fc -> loss1/fc (in-place)
I0505 04:28:24.002284  2016 net.cpp:150] Setting up loss1/relu_fc
I0505 04:28:24.002290  2016 net.cpp:157] Top shape: 32 1024 (32768)
I0505 04:28:24.002295  2016 net.cpp:165] Memory required for data: 1261453824
I0505 04:28:24.002300  2016 layer_factory.hpp:77] Creating layer loss1/drop_fc
I0505 04:28:24.002328  2016 net.cpp:106] Creating Layer loss1/drop_fc
I0505 04:28:24.002336  2016 net.cpp:454] loss1/drop_fc <- loss1/fc
I0505 04:28:24.002346  2016 net.cpp:397] loss1/drop_fc -> loss1/fc (in-place)
I0505 04:28:24.002395  2016 net.cpp:150] Setting up loss1/drop_fc
I0505 04:28:24.002406  2016 net.cpp:157] Top shape: 32 1024 (32768)
I0505 04:28:24.002411  2016 net.cpp:165] Memory required for data: 1261584896
I0505 04:28:24.002418  2016 layer_factory.hpp:77] Creating layer loss1/classifier_ft
I0505 04:28:24.002432  2016 net.cpp:106] Creating Layer loss1/classifier_ft
I0505 04:28:24.002439  2016 net.cpp:454] loss1/classifier_ft <- loss1/fc
I0505 04:28:24.002447  2016 net.cpp:411] loss1/classifier_ft -> loss1/classifier_ft
I0505 04:28:24.002645  2016 net.cpp:150] Setting up loss1/classifier_ft
I0505 04:28:24.002657  2016 net.cpp:157] Top shape: 32 10 (320)
I0505 04:28:24.002662  2016 net.cpp:165] Memory required for data: 1261586176
I0505 04:28:24.002671  2016 layer_factory.hpp:77] Creating layer loss1/loss
I0505 04:28:24.002681  2016 net.cpp:106] Creating Layer loss1/loss
I0505 04:28:24.002686  2016 net.cpp:454] loss1/loss <- loss1/classifier_ft
I0505 04:28:24.002696  2016 net.cpp:454] loss1/loss <- label_data_1_split_0
I0505 04:28:24.002706  2016 net.cpp:411] loss1/loss -> loss1/loss1
I0505 04:28:24.002723  2016 layer_factory.hpp:77] Creating layer loss1/loss
I0505 04:28:24.002823  2016 net.cpp:150] Setting up loss1/loss
I0505 04:28:24.002835  2016 net.cpp:157] Top shape: (1)
I0505 04:28:24.002840  2016 net.cpp:160]     with loss weight 0.3
I0505 04:28:24.002879  2016 net.cpp:165] Memory required for data: 1261586180
I0505 04:28:24.002887  2016 layer_factory.hpp:77] Creating layer inception_4b/1x1
I0505 04:28:24.002905  2016 net.cpp:106] Creating Layer inception_4b/1x1
I0505 04:28:24.002914  2016 net.cpp:454] inception_4b/1x1 <- inception_4a/output_inception_4a/output_0_split_1
I0505 04:28:24.002924  2016 net.cpp:411] inception_4b/1x1 -> inception_4b/1x1
I0505 04:28:24.003743  2016 net.cpp:150] Setting up inception_4b/1x1
I0505 04:28:24.003762  2016 net.cpp:157] Top shape: 32 160 14 14 (1003520)
I0505 04:28:24.003767  2016 net.cpp:165] Memory required for data: 1265600260
I0505 04:28:24.003798  2016 layer_factory.hpp:77] Creating layer inception_4b/relu_1x1
I0505 04:28:24.003805  2016 net.cpp:106] Creating Layer inception_4b/relu_1x1
I0505 04:28:24.003811  2016 net.cpp:454] inception_4b/relu_1x1 <- inception_4b/1x1
I0505 04:28:24.003821  2016 net.cpp:397] inception_4b/relu_1x1 -> inception_4b/1x1 (in-place)
I0505 04:28:24.003831  2016 net.cpp:150] Setting up inception_4b/relu_1x1
I0505 04:28:24.003839  2016 net.cpp:157] Top shape: 32 160 14 14 (1003520)
I0505 04:28:24.003842  2016 net.cpp:165] Memory required for data: 1269614340
I0505 04:28:24.003847  2016 layer_factory.hpp:77] Creating layer inception_4b/3x3_reduce
I0505 04:28:24.003857  2016 net.cpp:106] Creating Layer inception_4b/3x3_reduce
I0505 04:28:24.003862  2016 net.cpp:454] inception_4b/3x3_reduce <- inception_4a/output_inception_4a/output_0_split_2
I0505 04:28:24.003875  2016 net.cpp:411] inception_4b/3x3_reduce -> inception_4b/3x3_reduce
I0505 04:28:24.005127  2016 net.cpp:150] Setting up inception_4b/3x3_reduce
I0505 04:28:24.005143  2016 net.cpp:157] Top shape: 32 112 14 14 (702464)
I0505 04:28:24.005148  2016 net.cpp:165] Memory required for data: 1272424196
I0505 04:28:24.005157  2016 layer_factory.hpp:77] Creating layer inception_4b/relu_3x3_reduce
I0505 04:28:24.005167  2016 net.cpp:106] Creating Layer inception_4b/relu_3x3_reduce
I0505 04:28:24.005174  2016 net.cpp:454] inception_4b/relu_3x3_reduce <- inception_4b/3x3_reduce
I0505 04:28:24.005182  2016 net.cpp:397] inception_4b/relu_3x3_reduce -> inception_4b/3x3_reduce (in-place)
I0505 04:28:24.005192  2016 net.cpp:150] Setting up inception_4b/relu_3x3_reduce
I0505 04:28:24.005199  2016 net.cpp:157] Top shape: 32 112 14 14 (702464)
I0505 04:28:24.005203  2016 net.cpp:165] Memory required for data: 1275234052
I0505 04:28:24.005208  2016 layer_factory.hpp:77] Creating layer inception_4b/3x3
I0505 04:28:24.005221  2016 net.cpp:106] Creating Layer inception_4b/3x3
I0505 04:28:24.005228  2016 net.cpp:454] inception_4b/3x3 <- inception_4b/3x3_reduce
I0505 04:28:24.005237  2016 net.cpp:411] inception_4b/3x3 -> inception_4b/3x3
I0505 04:28:24.005409  2023 blocking_queue.cpp:50] Waiting for data
I0505 04:28:24.007504  2016 net.cpp:150] Setting up inception_4b/3x3
I0505 04:28:24.007520  2016 net.cpp:157] Top shape: 32 224 14 14 (1404928)
I0505 04:28:24.007525  2016 net.cpp:165] Memory required for data: 1280853764
I0505 04:28:24.007534  2016 layer_factory.hpp:77] Creating layer inception_4b/relu_3x3
I0505 04:28:24.007544  2016 net.cpp:106] Creating Layer inception_4b/relu_3x3
I0505 04:28:24.007551  2016 net.cpp:454] inception_4b/relu_3x3 <- inception_4b/3x3
I0505 04:28:24.007560  2016 net.cpp:397] inception_4b/relu_3x3 -> inception_4b/3x3 (in-place)
I0505 04:28:24.007571  2016 net.cpp:150] Setting up inception_4b/relu_3x3
I0505 04:28:24.007578  2016 net.cpp:157] Top shape: 32 224 14 14 (1404928)
I0505 04:28:24.007582  2016 net.cpp:165] Memory required for data: 1286473476
I0505 04:28:24.007587  2016 layer_factory.hpp:77] Creating layer inception_4b/5x5_reduce
I0505 04:28:24.007597  2016 net.cpp:106] Creating Layer inception_4b/5x5_reduce
I0505 04:28:24.007603  2016 net.cpp:454] inception_4b/5x5_reduce <- inception_4a/output_inception_4a/output_0_split_3
I0505 04:28:24.007614  2016 net.cpp:411] inception_4b/5x5_reduce -> inception_4b/5x5_reduce
I0505 04:28:24.007939  2016 net.cpp:150] Setting up inception_4b/5x5_reduce
I0505 04:28:24.007952  2016 net.cpp:157] Top shape: 32 24 14 14 (150528)
I0505 04:28:24.007957  2016 net.cpp:165] Memory required for data: 1287075588
I0505 04:28:24.007966  2016 layer_factory.hpp:77] Creating layer inception_4b/relu_5x5_reduce
I0505 04:28:24.007974  2016 net.cpp:106] Creating Layer inception_4b/relu_5x5_reduce
I0505 04:28:24.007980  2016 net.cpp:454] inception_4b/relu_5x5_reduce <- inception_4b/5x5_reduce
I0505 04:28:24.007987  2016 net.cpp:397] inception_4b/relu_5x5_reduce -> inception_4b/5x5_reduce (in-place)
I0505 04:28:24.008000  2016 net.cpp:150] Setting up inception_4b/relu_5x5_reduce
I0505 04:28:24.008018  2016 net.cpp:157] Top shape: 32 24 14 14 (150528)
I0505 04:28:24.008023  2016 net.cpp:165] Memory required for data: 1287677700
I0505 04:28:24.008028  2016 layer_factory.hpp:77] Creating layer inception_4b/5x5
I0505 04:28:24.008039  2016 net.cpp:106] Creating Layer inception_4b/5x5
I0505 04:28:24.008046  2016 net.cpp:454] inception_4b/5x5 <- inception_4b/5x5_reduce
I0505 04:28:24.008056  2016 net.cpp:411] inception_4b/5x5 -> inception_4b/5x5
I0505 04:28:24.008553  2016 net.cpp:150] Setting up inception_4b/5x5
I0505 04:28:24.008565  2016 net.cpp:157] Top shape: 32 64 14 14 (401408)
I0505 04:28:24.008569  2016 net.cpp:165] Memory required for data: 1289283332
I0505 04:28:24.008579  2016 layer_factory.hpp:77] Creating layer inception_4b/relu_5x5
I0505 04:28:24.008585  2016 net.cpp:106] Creating Layer inception_4b/relu_5x5
I0505 04:28:24.008591  2016 net.cpp:454] inception_4b/relu_5x5 <- inception_4b/5x5
I0505 04:28:24.008601  2016 net.cpp:397] inception_4b/relu_5x5 -> inception_4b/5x5 (in-place)
I0505 04:28:24.008610  2016 net.cpp:150] Setting up inception_4b/relu_5x5
I0505 04:28:24.008617  2016 net.cpp:157] Top shape: 32 64 14 14 (401408)
I0505 04:28:24.008621  2016 net.cpp:165] Memory required for data: 1290888964
I0505 04:28:24.008626  2016 layer_factory.hpp:77] Creating layer inception_4b/pool
I0505 04:28:24.008636  2016 net.cpp:106] Creating Layer inception_4b/pool
I0505 04:28:24.008641  2016 net.cpp:454] inception_4b/pool <- inception_4a/output_inception_4a/output_0_split_4
I0505 04:28:24.008649  2016 net.cpp:411] inception_4b/pool -> inception_4b/pool
I0505 04:28:24.008709  2016 net.cpp:150] Setting up inception_4b/pool
I0505 04:28:24.008721  2016 net.cpp:157] Top shape: 32 512 14 14 (3211264)
I0505 04:28:24.008726  2016 net.cpp:165] Memory required for data: 1303734020
I0505 04:28:24.008731  2016 layer_factory.hpp:77] Creating layer inception_4b/pool_proj
I0505 04:28:24.008744  2016 net.cpp:106] Creating Layer inception_4b/pool_proj
I0505 04:28:24.008750  2016 net.cpp:454] inception_4b/pool_proj <- inception_4b/pool
I0505 04:28:24.008760  2016 net.cpp:411] inception_4b/pool_proj -> inception_4b/pool_proj
I0505 04:28:24.009210  2016 net.cpp:150] Setting up inception_4b/pool_proj
I0505 04:28:24.009223  2016 net.cpp:157] Top shape: 32 64 14 14 (401408)
I0505 04:28:24.009228  2016 net.cpp:165] Memory required for data: 1305339652
I0505 04:28:24.009237  2016 layer_factory.hpp:77] Creating layer inception_4b/relu_pool_proj
I0505 04:28:24.009248  2016 net.cpp:106] Creating Layer inception_4b/relu_pool_proj
I0505 04:28:24.009253  2016 net.cpp:454] inception_4b/relu_pool_proj <- inception_4b/pool_proj
I0505 04:28:24.009261  2016 net.cpp:397] inception_4b/relu_pool_proj -> inception_4b/pool_proj (in-place)
I0505 04:28:24.009270  2016 net.cpp:150] Setting up inception_4b/relu_pool_proj
I0505 04:28:24.009276  2016 net.cpp:157] Top shape: 32 64 14 14 (401408)
I0505 04:28:24.009281  2016 net.cpp:165] Memory required for data: 1306945284
I0505 04:28:24.009286  2016 layer_factory.hpp:77] Creating layer inception_4b/output
I0505 04:28:24.009294  2016 net.cpp:106] Creating Layer inception_4b/output
I0505 04:28:24.009300  2016 net.cpp:454] inception_4b/output <- inception_4b/1x1
I0505 04:28:24.009310  2016 net.cpp:454] inception_4b/output <- inception_4b/3x3
I0505 04:28:24.009317  2016 net.cpp:454] inception_4b/output <- inception_4b/5x5
I0505 04:28:24.009323  2016 net.cpp:454] inception_4b/output <- inception_4b/pool_proj
I0505 04:28:24.009330  2016 net.cpp:411] inception_4b/output -> inception_4b/output
I0505 04:28:24.009362  2016 net.cpp:150] Setting up inception_4b/output
I0505 04:28:24.009372  2016 net.cpp:157] Top shape: 32 512 14 14 (3211264)
I0505 04:28:24.009377  2016 net.cpp:165] Memory required for data: 1319790340
I0505 04:28:24.009382  2016 layer_factory.hpp:77] Creating layer inception_4b/output_inception_4b/output_0_split
I0505 04:28:24.009392  2016 net.cpp:106] Creating Layer inception_4b/output_inception_4b/output_0_split
I0505 04:28:24.009400  2016 net.cpp:454] inception_4b/output_inception_4b/output_0_split <- inception_4b/output
I0505 04:28:24.009419  2016 net.cpp:411] inception_4b/output_inception_4b/output_0_split -> inception_4b/output_inception_4b/output_0_split_0
I0505 04:28:24.009430  2016 net.cpp:411] inception_4b/output_inception_4b/output_0_split -> inception_4b/output_inception_4b/output_0_split_1
I0505 04:28:24.009438  2016 net.cpp:411] inception_4b/output_inception_4b/output_0_split -> inception_4b/output_inception_4b/output_0_split_2
I0505 04:28:24.009456  2016 net.cpp:411] inception_4b/output_inception_4b/output_0_split -> inception_4b/output_inception_4b/output_0_split_3
I0505 04:28:24.009524  2016 net.cpp:150] Setting up inception_4b/output_inception_4b/output_0_split
I0505 04:28:24.009536  2016 net.cpp:157] Top shape: 32 512 14 14 (3211264)
I0505 04:28:24.009541  2016 net.cpp:157] Top shape: 32 512 14 14 (3211264)
I0505 04:28:24.009547  2016 net.cpp:157] Top shape: 32 512 14 14 (3211264)
I0505 04:28:24.009552  2016 net.cpp:157] Top shape: 32 512 14 14 (3211264)
I0505 04:28:24.009557  2016 net.cpp:165] Memory required for data: 1371170564
I0505 04:28:24.009565  2016 layer_factory.hpp:77] Creating layer inception_4c/1x1
I0505 04:28:24.009580  2016 net.cpp:106] Creating Layer inception_4c/1x1
I0505 04:28:24.009587  2016 net.cpp:454] inception_4c/1x1 <- inception_4b/output_inception_4b/output_0_split_0
I0505 04:28:24.009595  2016 net.cpp:411] inception_4c/1x1 -> inception_4c/1x1
I0505 04:28:24.010246  2016 net.cpp:150] Setting up inception_4c/1x1
I0505 04:28:24.010258  2016 net.cpp:157] Top shape: 32 128 14 14 (802816)
I0505 04:28:24.010262  2016 net.cpp:165] Memory required for data: 1374381828
I0505 04:28:24.010272  2016 layer_factory.hpp:77] Creating layer inception_4c/relu_1x1
I0505 04:28:24.010279  2016 net.cpp:106] Creating Layer inception_4c/relu_1x1
I0505 04:28:24.010285  2016 net.cpp:454] inception_4c/relu_1x1 <- inception_4c/1x1
I0505 04:28:24.010296  2016 net.cpp:397] inception_4c/relu_1x1 -> inception_4c/1x1 (in-place)
I0505 04:28:24.010306  2016 net.cpp:150] Setting up inception_4c/relu_1x1
I0505 04:28:24.010313  2016 net.cpp:157] Top shape: 32 128 14 14 (802816)
I0505 04:28:24.010318  2016 net.cpp:165] Memory required for data: 1377593092
I0505 04:28:24.010323  2016 layer_factory.hpp:77] Creating layer inception_4c/3x3_reduce
I0505 04:28:24.010332  2016 net.cpp:106] Creating Layer inception_4c/3x3_reduce
I0505 04:28:24.010339  2016 net.cpp:454] inception_4c/3x3_reduce <- inception_4b/output_inception_4b/output_0_split_1
I0505 04:28:24.010349  2016 net.cpp:411] inception_4c/3x3_reduce -> inception_4c/3x3_reduce
I0505 04:28:24.011005  2016 net.cpp:150] Setting up inception_4c/3x3_reduce
I0505 04:28:24.011018  2016 net.cpp:157] Top shape: 32 128 14 14 (802816)
I0505 04:28:24.011023  2016 net.cpp:165] Memory required for data: 1380804356
I0505 04:28:24.011031  2016 layer_factory.hpp:77] Creating layer inception_4c/relu_3x3_reduce
I0505 04:28:24.011039  2016 net.cpp:106] Creating Layer inception_4c/relu_3x3_reduce
I0505 04:28:24.011045  2016 net.cpp:454] inception_4c/relu_3x3_reduce <- inception_4c/3x3_reduce
I0505 04:28:24.011052  2016 net.cpp:397] inception_4c/relu_3x3_reduce -> inception_4c/3x3_reduce (in-place)
I0505 04:28:24.011061  2016 net.cpp:150] Setting up inception_4c/relu_3x3_reduce
I0505 04:28:24.011068  2016 net.cpp:157] Top shape: 32 128 14 14 (802816)
I0505 04:28:24.011072  2016 net.cpp:165] Memory required for data: 1384015620
I0505 04:28:24.011077  2016 layer_factory.hpp:77] Creating layer inception_4c/3x3
I0505 04:28:24.011090  2016 net.cpp:106] Creating Layer inception_4c/3x3
I0505 04:28:24.011096  2016 net.cpp:454] inception_4c/3x3 <- inception_4c/3x3_reduce
I0505 04:28:24.011104  2016 net.cpp:411] inception_4c/3x3 -> inception_4c/3x3
I0505 04:28:24.013903  2016 net.cpp:150] Setting up inception_4c/3x3
I0505 04:28:24.013922  2016 net.cpp:157] Top shape: 32 256 14 14 (1605632)
I0505 04:28:24.013927  2016 net.cpp:165] Memory required for data: 1390438148
I0505 04:28:24.013955  2016 layer_factory.hpp:77] Creating layer inception_4c/relu_3x3
I0505 04:28:24.013970  2016 net.cpp:106] Creating Layer inception_4c/relu_3x3
I0505 04:28:24.013988  2016 net.cpp:454] inception_4c/relu_3x3 <- inception_4c/3x3
I0505 04:28:24.013995  2016 net.cpp:397] inception_4c/relu_3x3 -> inception_4c/3x3 (in-place)
I0505 04:28:24.014006  2016 net.cpp:150] Setting up inception_4c/relu_3x3
I0505 04:28:24.014014  2016 net.cpp:157] Top shape: 32 256 14 14 (1605632)
I0505 04:28:24.014017  2016 net.cpp:165] Memory required for data: 1396860676
I0505 04:28:24.014022  2016 layer_factory.hpp:77] Creating layer inception_4c/5x5_reduce
I0505 04:28:24.014035  2016 net.cpp:106] Creating Layer inception_4c/5x5_reduce
I0505 04:28:24.014041  2016 net.cpp:454] inception_4c/5x5_reduce <- inception_4b/output_inception_4b/output_0_split_2
I0505 04:28:24.014050  2016 net.cpp:411] inception_4c/5x5_reduce -> inception_4c/5x5_reduce
I0505 04:28:24.014364  2016 net.cpp:150] Setting up inception_4c/5x5_reduce
I0505 04:28:24.014377  2016 net.cpp:157] Top shape: 32 24 14 14 (150528)
I0505 04:28:24.014382  2016 net.cpp:165] Memory required for data: 1397462788
I0505 04:28:24.014390  2016 layer_factory.hpp:77] Creating layer inception_4c/relu_5x5_reduce
I0505 04:28:24.014399  2016 net.cpp:106] Creating Layer inception_4c/relu_5x5_reduce
I0505 04:28:24.014405  2016 net.cpp:454] inception_4c/relu_5x5_reduce <- inception_4c/5x5_reduce
I0505 04:28:24.014415  2016 net.cpp:397] inception_4c/relu_5x5_reduce -> inception_4c/5x5_reduce (in-place)
I0505 04:28:24.014423  2016 net.cpp:150] Setting up inception_4c/relu_5x5_reduce
I0505 04:28:24.014430  2016 net.cpp:157] Top shape: 32 24 14 14 (150528)
I0505 04:28:24.014435  2016 net.cpp:165] Memory required for data: 1398064900
I0505 04:28:24.014439  2016 layer_factory.hpp:77] Creating layer inception_4c/5x5
I0505 04:28:24.014453  2016 net.cpp:106] Creating Layer inception_4c/5x5
I0505 04:28:24.014459  2016 net.cpp:454] inception_4c/5x5 <- inception_4c/5x5_reduce
I0505 04:28:24.014467  2016 net.cpp:411] inception_4c/5x5 -> inception_4c/5x5
I0505 04:28:24.015488  2016 net.cpp:150] Setting up inception_4c/5x5
I0505 04:28:24.015504  2016 net.cpp:157] Top shape: 32 64 14 14 (401408)
I0505 04:28:24.015509  2016 net.cpp:165] Memory required for data: 1399670532
I0505 04:28:24.015518  2016 layer_factory.hpp:77] Creating layer inception_4c/relu_5x5
I0505 04:28:24.015527  2016 net.cpp:106] Creating Layer inception_4c/relu_5x5
I0505 04:28:24.015533  2016 net.cpp:454] inception_4c/relu_5x5 <- inception_4c/5x5
I0505 04:28:24.015543  2016 net.cpp:397] inception_4c/relu_5x5 -> inception_4c/5x5 (in-place)
I0505 04:28:24.015553  2016 net.cpp:150] Setting up inception_4c/relu_5x5
I0505 04:28:24.015563  2016 net.cpp:157] Top shape: 32 64 14 14 (401408)
I0505 04:28:24.015568  2016 net.cpp:165] Memory required for data: 1401276164
I0505 04:28:24.015573  2016 layer_factory.hpp:77] Creating layer inception_4c/pool
I0505 04:28:24.015581  2016 net.cpp:106] Creating Layer inception_4c/pool
I0505 04:28:24.015588  2016 net.cpp:454] inception_4c/pool <- inception_4b/output_inception_4b/output_0_split_3
I0505 04:28:24.015597  2016 net.cpp:411] inception_4c/pool -> inception_4c/pool
I0505 04:28:24.015642  2016 net.cpp:150] Setting up inception_4c/pool
I0505 04:28:24.015652  2016 net.cpp:157] Top shape: 32 512 14 14 (3211264)
I0505 04:28:24.015657  2016 net.cpp:165] Memory required for data: 1414121220
I0505 04:28:24.015662  2016 layer_factory.hpp:77] Creating layer inception_4c/pool_proj
I0505 04:28:24.015676  2016 net.cpp:106] Creating Layer inception_4c/pool_proj
I0505 04:28:24.015682  2016 net.cpp:454] inception_4c/pool_proj <- inception_4c/pool
I0505 04:28:24.015693  2016 net.cpp:411] inception_4c/pool_proj -> inception_4c/pool_proj
I0505 04:28:24.016134  2016 net.cpp:150] Setting up inception_4c/pool_proj
I0505 04:28:24.016146  2016 net.cpp:157] Top shape: 32 64 14 14 (401408)
I0505 04:28:24.016151  2016 net.cpp:165] Memory required for data: 1415726852
I0505 04:28:24.016160  2016 layer_factory.hpp:77] Creating layer inception_4c/relu_pool_proj
I0505 04:28:24.016172  2016 net.cpp:106] Creating Layer inception_4c/relu_pool_proj
I0505 04:28:24.016188  2016 net.cpp:454] inception_4c/relu_pool_proj <- inception_4c/pool_proj
I0505 04:28:24.016197  2016 net.cpp:397] inception_4c/relu_pool_proj -> inception_4c/pool_proj (in-place)
I0505 04:28:24.016206  2016 net.cpp:150] Setting up inception_4c/relu_pool_proj
I0505 04:28:24.016213  2016 net.cpp:157] Top shape: 32 64 14 14 (401408)
I0505 04:28:24.016218  2016 net.cpp:165] Memory required for data: 1417332484
I0505 04:28:24.016223  2016 layer_factory.hpp:77] Creating layer inception_4c/output
I0505 04:28:24.016234  2016 net.cpp:106] Creating Layer inception_4c/output
I0505 04:28:24.016240  2016 net.cpp:454] inception_4c/output <- inception_4c/1x1
I0505 04:28:24.016247  2016 net.cpp:454] inception_4c/output <- inception_4c/3x3
I0505 04:28:24.016253  2016 net.cpp:454] inception_4c/output <- inception_4c/5x5
I0505 04:28:24.016259  2016 net.cpp:454] inception_4c/output <- inception_4c/pool_proj
I0505 04:28:24.016265  2016 net.cpp:411] inception_4c/output -> inception_4c/output
I0505 04:28:24.016297  2016 net.cpp:150] Setting up inception_4c/output
I0505 04:28:24.016307  2016 net.cpp:157] Top shape: 32 512 14 14 (3211264)
I0505 04:28:24.016311  2016 net.cpp:165] Memory required for data: 1430177540
I0505 04:28:24.016316  2016 layer_factory.hpp:77] Creating layer inception_4c/output_inception_4c/output_0_split
I0505 04:28:24.016324  2016 net.cpp:106] Creating Layer inception_4c/output_inception_4c/output_0_split
I0505 04:28:24.016330  2016 net.cpp:454] inception_4c/output_inception_4c/output_0_split <- inception_4c/output
I0505 04:28:24.016340  2016 net.cpp:411] inception_4c/output_inception_4c/output_0_split -> inception_4c/output_inception_4c/output_0_split_0
I0505 04:28:24.016350  2016 net.cpp:411] inception_4c/output_inception_4c/output_0_split -> inception_4c/output_inception_4c/output_0_split_1
I0505 04:28:24.016357  2016 net.cpp:411] inception_4c/output_inception_4c/output_0_split -> inception_4c/output_inception_4c/output_0_split_2
I0505 04:28:24.016366  2016 net.cpp:411] inception_4c/output_inception_4c/output_0_split -> inception_4c/output_inception_4c/output_0_split_3
I0505 04:28:24.016427  2016 net.cpp:150] Setting up inception_4c/output_inception_4c/output_0_split
I0505 04:28:24.016436  2016 net.cpp:157] Top shape: 32 512 14 14 (3211264)
I0505 04:28:24.016443  2016 net.cpp:157] Top shape: 32 512 14 14 (3211264)
I0505 04:28:24.016448  2016 net.cpp:157] Top shape: 32 512 14 14 (3211264)
I0505 04:28:24.016453  2016 net.cpp:157] Top shape: 32 512 14 14 (3211264)
I0505 04:28:24.016458  2016 net.cpp:165] Memory required for data: 1481557764
I0505 04:28:24.016463  2016 layer_factory.hpp:77] Creating layer inception_4d/1x1
I0505 04:28:24.016476  2016 net.cpp:106] Creating Layer inception_4d/1x1
I0505 04:28:24.016484  2016 net.cpp:454] inception_4d/1x1 <- inception_4c/output_inception_4c/output_0_split_0
I0505 04:28:24.016492  2016 net.cpp:411] inception_4d/1x1 -> inception_4d/1x1
I0505 04:28:24.017123  2016 net.cpp:150] Setting up inception_4d/1x1
I0505 04:28:24.017138  2016 net.cpp:157] Top shape: 32 112 14 14 (702464)
I0505 04:28:24.017141  2016 net.cpp:165] Memory required for data: 1484367620
I0505 04:28:24.017150  2016 layer_factory.hpp:77] Creating layer inception_4d/relu_1x1
I0505 04:28:24.017161  2016 net.cpp:106] Creating Layer inception_4d/relu_1x1
I0505 04:28:24.017168  2016 net.cpp:454] inception_4d/relu_1x1 <- inception_4d/1x1
I0505 04:28:24.017175  2016 net.cpp:397] inception_4d/relu_1x1 -> inception_4d/1x1 (in-place)
I0505 04:28:24.017184  2016 net.cpp:150] Setting up inception_4d/relu_1x1
I0505 04:28:24.017190  2016 net.cpp:157] Top shape: 32 112 14 14 (702464)
I0505 04:28:24.017195  2016 net.cpp:165] Memory required for data: 1487177476
I0505 04:28:24.017200  2016 layer_factory.hpp:77] Creating layer inception_4d/3x3_reduce
I0505 04:28:24.017212  2016 net.cpp:106] Creating Layer inception_4d/3x3_reduce
I0505 04:28:24.017218  2016 net.cpp:454] inception_4d/3x3_reduce <- inception_4c/output_inception_4c/output_0_split_1
I0505 04:28:24.017233  2016 net.cpp:411] inception_4d/3x3_reduce -> inception_4d/3x3_reduce
I0505 04:28:24.018010  2016 net.cpp:150] Setting up inception_4d/3x3_reduce
I0505 04:28:24.018024  2016 net.cpp:157] Top shape: 32 144 14 14 (903168)
I0505 04:28:24.018029  2016 net.cpp:165] Memory required for data: 1490790148
I0505 04:28:24.018038  2016 layer_factory.hpp:77] Creating layer inception_4d/relu_3x3_reduce
I0505 04:28:24.018048  2016 net.cpp:106] Creating Layer inception_4d/relu_3x3_reduce
I0505 04:28:24.018054  2016 net.cpp:454] inception_4d/relu_3x3_reduce <- inception_4d/3x3_reduce
I0505 04:28:24.018061  2016 net.cpp:397] inception_4d/relu_3x3_reduce -> inception_4d/3x3_reduce (in-place)
I0505 04:28:24.018070  2016 net.cpp:150] Setting up inception_4d/relu_3x3_reduce
I0505 04:28:24.018077  2016 net.cpp:157] Top shape: 32 144 14 14 (903168)
I0505 04:28:24.018081  2016 net.cpp:165] Memory required for data: 1494402820
I0505 04:28:24.018086  2016 layer_factory.hpp:77] Creating layer inception_4d/3x3
I0505 04:28:24.018098  2016 net.cpp:106] Creating Layer inception_4d/3x3
I0505 04:28:24.018105  2016 net.cpp:454] inception_4d/3x3 <- inception_4d/3x3_reduce
I0505 04:28:24.018115  2016 net.cpp:411] inception_4d/3x3 -> inception_4d/3x3
I0505 04:28:24.021549  2016 net.cpp:150] Setting up inception_4d/3x3
I0505 04:28:24.021565  2016 net.cpp:157] Top shape: 32 288 14 14 (1806336)
I0505 04:28:24.021570  2016 net.cpp:165] Memory required for data: 1501628164
I0505 04:28:24.021579  2016 layer_factory.hpp:77] Creating layer inception_4d/relu_3x3
I0505 04:28:24.021590  2016 net.cpp:106] Creating Layer inception_4d/relu_3x3
I0505 04:28:24.021596  2016 net.cpp:454] inception_4d/relu_3x3 <- inception_4d/3x3
I0505 04:28:24.021605  2016 net.cpp:397] inception_4d/relu_3x3 -> inception_4d/3x3 (in-place)
I0505 04:28:24.021615  2016 net.cpp:150] Setting up inception_4d/relu_3x3
I0505 04:28:24.021621  2016 net.cpp:157] Top shape: 32 288 14 14 (1806336)
I0505 04:28:24.021626  2016 net.cpp:165] Memory required for data: 1508853508
I0505 04:28:24.021631  2016 layer_factory.hpp:77] Creating layer inception_4d/5x5_reduce
I0505 04:28:24.021643  2016 net.cpp:106] Creating Layer inception_4d/5x5_reduce
I0505 04:28:24.021649  2016 net.cpp:454] inception_4d/5x5_reduce <- inception_4c/output_inception_4c/output_0_split_2
I0505 04:28:24.021659  2016 net.cpp:411] inception_4d/5x5_reduce -> inception_4d/5x5_reduce
I0505 04:28:24.022011  2016 net.cpp:150] Setting up inception_4d/5x5_reduce
I0505 04:28:24.022024  2016 net.cpp:157] Top shape: 32 32 14 14 (200704)
I0505 04:28:24.022028  2016 net.cpp:165] Memory required for data: 1509656324
I0505 04:28:24.022037  2016 layer_factory.hpp:77] Creating layer inception_4d/relu_5x5_reduce
I0505 04:28:24.022044  2016 net.cpp:106] Creating Layer inception_4d/relu_5x5_reduce
I0505 04:28:24.022050  2016 net.cpp:454] inception_4d/relu_5x5_reduce <- inception_4d/5x5_reduce
I0505 04:28:24.022058  2016 net.cpp:397] inception_4d/relu_5x5_reduce -> inception_4d/5x5_reduce (in-place)
I0505 04:28:24.022068  2016 net.cpp:150] Setting up inception_4d/relu_5x5_reduce
I0505 04:28:24.022074  2016 net.cpp:157] Top shape: 32 32 14 14 (200704)
I0505 04:28:24.022078  2016 net.cpp:165] Memory required for data: 1510459140
I0505 04:28:24.022083  2016 layer_factory.hpp:77] Creating layer inception_4d/5x5
I0505 04:28:24.022095  2016 net.cpp:106] Creating Layer inception_4d/5x5
I0505 04:28:24.022101  2016 net.cpp:454] inception_4d/5x5 <- inception_4d/5x5_reduce
I0505 04:28:24.022112  2016 net.cpp:411] inception_4d/5x5 -> inception_4d/5x5
I0505 04:28:24.022685  2016 net.cpp:150] Setting up inception_4d/5x5
I0505 04:28:24.022697  2016 net.cpp:157] Top shape: 32 64 14 14 (401408)
I0505 04:28:24.022702  2016 net.cpp:165] Memory required for data: 1512064772
I0505 04:28:24.022711  2016 layer_factory.hpp:77] Creating layer inception_4d/relu_5x5
I0505 04:28:24.022719  2016 net.cpp:106] Creating Layer inception_4d/relu_5x5
I0505 04:28:24.022727  2016 net.cpp:454] inception_4d/relu_5x5 <- inception_4d/5x5
I0505 04:28:24.022737  2016 net.cpp:397] inception_4d/relu_5x5 -> inception_4d/5x5 (in-place)
I0505 04:28:24.022748  2016 net.cpp:150] Setting up inception_4d/relu_5x5
I0505 04:28:24.022768  2016 net.cpp:157] Top shape: 32 64 14 14 (401408)
I0505 04:28:24.022773  2016 net.cpp:165] Memory required for data: 1513670404
I0505 04:28:24.022778  2016 layer_factory.hpp:77] Creating layer inception_4d/pool
I0505 04:28:24.022785  2016 net.cpp:106] Creating Layer inception_4d/pool
I0505 04:28:24.022791  2016 net.cpp:454] inception_4d/pool <- inception_4c/output_inception_4c/output_0_split_3
I0505 04:28:24.022799  2016 net.cpp:411] inception_4d/pool -> inception_4d/pool
I0505 04:28:24.022845  2016 net.cpp:150] Setting up inception_4d/pool
I0505 04:28:24.022856  2016 net.cpp:157] Top shape: 32 512 14 14 (3211264)
I0505 04:28:24.022861  2016 net.cpp:165] Memory required for data: 1526515460
I0505 04:28:24.022867  2016 layer_factory.hpp:77] Creating layer inception_4d/pool_proj
I0505 04:28:24.022879  2016 net.cpp:106] Creating Layer inception_4d/pool_proj
I0505 04:28:24.022886  2016 net.cpp:454] inception_4d/pool_proj <- inception_4d/pool
I0505 04:28:24.022897  2016 net.cpp:411] inception_4d/pool_proj -> inception_4d/pool_proj
I0505 04:28:24.023339  2016 net.cpp:150] Setting up inception_4d/pool_proj
I0505 04:28:24.023351  2016 net.cpp:157] Top shape: 32 64 14 14 (401408)
I0505 04:28:24.023356  2016 net.cpp:165] Memory required for data: 1528121092
I0505 04:28:24.023365  2016 layer_factory.hpp:77] Creating layer inception_4d/relu_pool_proj
I0505 04:28:24.023375  2016 net.cpp:106] Creating Layer inception_4d/relu_pool_proj
I0505 04:28:24.023381  2016 net.cpp:454] inception_4d/relu_pool_proj <- inception_4d/pool_proj
I0505 04:28:24.023389  2016 net.cpp:397] inception_4d/relu_pool_proj -> inception_4d/pool_proj (in-place)
I0505 04:28:24.023398  2016 net.cpp:150] Setting up inception_4d/relu_pool_proj
I0505 04:28:24.023406  2016 net.cpp:157] Top shape: 32 64 14 14 (401408)
I0505 04:28:24.023409  2016 net.cpp:165] Memory required for data: 1529726724
I0505 04:28:24.023414  2016 layer_factory.hpp:77] Creating layer inception_4d/output
I0505 04:28:24.023424  2016 net.cpp:106] Creating Layer inception_4d/output
I0505 04:28:24.023429  2016 net.cpp:454] inception_4d/output <- inception_4d/1x1
I0505 04:28:24.023437  2016 net.cpp:454] inception_4d/output <- inception_4d/3x3
I0505 04:28:24.023442  2016 net.cpp:454] inception_4d/output <- inception_4d/5x5
I0505 04:28:24.023448  2016 net.cpp:454] inception_4d/output <- inception_4d/pool_proj
I0505 04:28:24.023454  2016 net.cpp:411] inception_4d/output -> inception_4d/output
I0505 04:28:24.023483  2016 net.cpp:150] Setting up inception_4d/output
I0505 04:28:24.023493  2016 net.cpp:157] Top shape: 32 528 14 14 (3311616)
I0505 04:28:24.023497  2016 net.cpp:165] Memory required for data: 1542973188
I0505 04:28:24.023502  2016 layer_factory.hpp:77] Creating layer inception_4d/output_inception_4d/output_0_split
I0505 04:28:24.023514  2016 net.cpp:106] Creating Layer inception_4d/output_inception_4d/output_0_split
I0505 04:28:24.023520  2016 net.cpp:454] inception_4d/output_inception_4d/output_0_split <- inception_4d/output
I0505 04:28:24.023530  2016 net.cpp:411] inception_4d/output_inception_4d/output_0_split -> inception_4d/output_inception_4d/output_0_split_0
I0505 04:28:24.023538  2016 net.cpp:411] inception_4d/output_inception_4d/output_0_split -> inception_4d/output_inception_4d/output_0_split_1
I0505 04:28:24.023547  2016 net.cpp:411] inception_4d/output_inception_4d/output_0_split -> inception_4d/output_inception_4d/output_0_split_2
I0505 04:28:24.023555  2016 net.cpp:411] inception_4d/output_inception_4d/output_0_split -> inception_4d/output_inception_4d/output_0_split_3
I0505 04:28:24.023562  2016 net.cpp:411] inception_4d/output_inception_4d/output_0_split -> inception_4d/output_inception_4d/output_0_split_4
I0505 04:28:24.023634  2016 net.cpp:150] Setting up inception_4d/output_inception_4d/output_0_split
I0505 04:28:24.023644  2016 net.cpp:157] Top shape: 32 528 14 14 (3311616)
I0505 04:28:24.023650  2016 net.cpp:157] Top shape: 32 528 14 14 (3311616)
I0505 04:28:24.023659  2016 net.cpp:157] Top shape: 32 528 14 14 (3311616)
I0505 04:28:24.023674  2016 net.cpp:157] Top shape: 32 528 14 14 (3311616)
I0505 04:28:24.023680  2016 net.cpp:157] Top shape: 32 528 14 14 (3311616)
I0505 04:28:24.023684  2016 net.cpp:165] Memory required for data: 1609205508
I0505 04:28:24.023689  2016 layer_factory.hpp:77] Creating layer loss2/ave_pool
I0505 04:28:24.023700  2016 net.cpp:106] Creating Layer loss2/ave_pool
I0505 04:28:24.023706  2016 net.cpp:454] loss2/ave_pool <- inception_4d/output_inception_4d/output_0_split_0
I0505 04:28:24.023716  2016 net.cpp:411] loss2/ave_pool -> loss2/ave_pool
I0505 04:28:24.023746  2016 net.cpp:150] Setting up loss2/ave_pool
I0505 04:28:24.023756  2016 net.cpp:157] Top shape: 32 528 4 4 (270336)
I0505 04:28:24.023761  2016 net.cpp:165] Memory required for data: 1610286852
I0505 04:28:24.023766  2016 layer_factory.hpp:77] Creating layer loss2/conv
I0505 04:28:24.023780  2016 net.cpp:106] Creating Layer loss2/conv
I0505 04:28:24.023787  2016 net.cpp:454] loss2/conv <- loss2/ave_pool
I0505 04:28:24.023798  2016 net.cpp:411] loss2/conv -> loss2/conv
I0505 04:28:24.024999  2016 net.cpp:150] Setting up loss2/conv
I0505 04:28:24.025017  2016 net.cpp:157] Top shape: 32 128 4 4 (65536)
I0505 04:28:24.025027  2016 net.cpp:165] Memory required for data: 1610548996
I0505 04:28:24.025037  2016 layer_factory.hpp:77] Creating layer loss2/relu_conv
I0505 04:28:24.025044  2016 net.cpp:106] Creating Layer loss2/relu_conv
I0505 04:28:24.025050  2016 net.cpp:454] loss2/relu_conv <- loss2/conv
I0505 04:28:24.025059  2016 net.cpp:397] loss2/relu_conv -> loss2/conv (in-place)
I0505 04:28:24.025075  2016 net.cpp:150] Setting up loss2/relu_conv
I0505 04:28:24.025084  2016 net.cpp:157] Top shape: 32 128 4 4 (65536)
I0505 04:28:24.025089  2016 net.cpp:165] Memory required for data: 1610811140
I0505 04:28:24.025094  2016 layer_factory.hpp:77] Creating layer loss2/fc
I0505 04:28:24.025105  2016 net.cpp:106] Creating Layer loss2/fc
I0505 04:28:24.025110  2016 net.cpp:454] loss2/fc <- loss2/conv
I0505 04:28:24.025121  2016 net.cpp:411] loss2/fc -> loss2/fc
I0505 04:28:24.045500  2016 net.cpp:150] Setting up loss2/fc
I0505 04:28:24.045533  2016 net.cpp:157] Top shape: 32 1024 (32768)
I0505 04:28:24.045539  2016 net.cpp:165] Memory required for data: 1610942212
I0505 04:28:24.045552  2016 layer_factory.hpp:77] Creating layer loss2/relu_fc
I0505 04:28:24.045567  2016 net.cpp:106] Creating Layer loss2/relu_fc
I0505 04:28:24.045575  2016 net.cpp:454] loss2/relu_fc <- loss2/fc
I0505 04:28:24.045586  2016 net.cpp:397] loss2/relu_fc -> loss2/fc (in-place)
I0505 04:28:24.045601  2016 net.cpp:150] Setting up loss2/relu_fc
I0505 04:28:24.045608  2016 net.cpp:157] Top shape: 32 1024 (32768)
I0505 04:28:24.045614  2016 net.cpp:165] Memory required for data: 1611073284
I0505 04:28:24.045619  2016 layer_factory.hpp:77] Creating layer loss2/drop_fc
I0505 04:28:24.045629  2016 net.cpp:106] Creating Layer loss2/drop_fc
I0505 04:28:24.045634  2016 net.cpp:454] loss2/drop_fc <- loss2/fc
I0505 04:28:24.045644  2016 net.cpp:397] loss2/drop_fc -> loss2/fc (in-place)
I0505 04:28:24.045676  2016 net.cpp:150] Setting up loss2/drop_fc
I0505 04:28:24.045689  2016 net.cpp:157] Top shape: 32 1024 (32768)
I0505 04:28:24.045694  2016 net.cpp:165] Memory required for data: 1611204356
I0505 04:28:24.045699  2016 layer_factory.hpp:77] Creating layer loss2/classifier_ft
I0505 04:28:24.045711  2016 net.cpp:106] Creating Layer loss2/classifier_ft
I0505 04:28:24.045717  2016 net.cpp:454] loss2/classifier_ft <- loss2/fc
I0505 04:28:24.045727  2016 net.cpp:411] loss2/classifier_ft -> loss2/classifier_ft
I0505 04:28:24.045925  2016 net.cpp:150] Setting up loss2/classifier_ft
I0505 04:28:24.045938  2016 net.cpp:157] Top shape: 32 10 (320)
I0505 04:28:24.045941  2016 net.cpp:165] Memory required for data: 1611205636
I0505 04:28:24.045950  2016 layer_factory.hpp:77] Creating layer loss2/loss
I0505 04:28:24.045963  2016 net.cpp:106] Creating Layer loss2/loss
I0505 04:28:24.045969  2016 net.cpp:454] loss2/loss <- loss2/classifier_ft
I0505 04:28:24.045981  2016 net.cpp:454] loss2/loss <- label_data_1_split_1
I0505 04:28:24.046008  2016 net.cpp:411] loss2/loss -> loss2/loss1
I0505 04:28:24.046021  2016 layer_factory.hpp:77] Creating layer loss2/loss
I0505 04:28:24.046123  2016 net.cpp:150] Setting up loss2/loss
I0505 04:28:24.046134  2016 net.cpp:157] Top shape: (1)
I0505 04:28:24.046139  2016 net.cpp:160]     with loss weight 0.3
I0505 04:28:24.046159  2016 net.cpp:165] Memory required for data: 1611205640
I0505 04:28:24.046164  2016 layer_factory.hpp:77] Creating layer inception_4e/1x1
I0505 04:28:24.046182  2016 net.cpp:106] Creating Layer inception_4e/1x1
I0505 04:28:24.046190  2016 net.cpp:454] inception_4e/1x1 <- inception_4d/output_inception_4d/output_0_split_1
I0505 04:28:24.046200  2016 net.cpp:411] inception_4e/1x1 -> inception_4e/1x1
I0505 04:28:24.047384  2016 net.cpp:150] Setting up inception_4e/1x1
I0505 04:28:24.047397  2016 net.cpp:157] Top shape: 32 256 14 14 (1605632)
I0505 04:28:24.047402  2016 net.cpp:165] Memory required for data: 1617628168
I0505 04:28:24.047410  2016 layer_factory.hpp:77] Creating layer inception_4e/relu_1x1
I0505 04:28:24.047422  2016 net.cpp:106] Creating Layer inception_4e/relu_1x1
I0505 04:28:24.047430  2016 net.cpp:454] inception_4e/relu_1x1 <- inception_4e/1x1
I0505 04:28:24.047440  2016 net.cpp:397] inception_4e/relu_1x1 -> inception_4e/1x1 (in-place)
I0505 04:28:24.047448  2016 net.cpp:150] Setting up inception_4e/relu_1x1
I0505 04:28:24.047456  2016 net.cpp:157] Top shape: 32 256 14 14 (1605632)
I0505 04:28:24.047461  2016 net.cpp:165] Memory required for data: 1624050696
I0505 04:28:24.047464  2016 layer_factory.hpp:77] Creating layer inception_4e/3x3_reduce
I0505 04:28:24.047477  2016 net.cpp:106] Creating Layer inception_4e/3x3_reduce
I0505 04:28:24.047482  2016 net.cpp:454] inception_4e/3x3_reduce <- inception_4d/output_inception_4d/output_0_split_2
I0505 04:28:24.047490  2016 net.cpp:411] inception_4e/3x3_reduce -> inception_4e/3x3_reduce
I0505 04:28:24.048832  2016 net.cpp:150] Setting up inception_4e/3x3_reduce
I0505 04:28:24.048861  2016 net.cpp:157] Top shape: 32 160 14 14 (1003520)
I0505 04:28:24.048866  2016 net.cpp:165] Memory required for data: 1628064776
I0505 04:28:24.048877  2016 layer_factory.hpp:77] Creating layer inception_4e/relu_3x3_reduce
I0505 04:28:24.048884  2016 net.cpp:106] Creating Layer inception_4e/relu_3x3_reduce
I0505 04:28:24.048892  2016 net.cpp:454] inception_4e/relu_3x3_reduce <- inception_4e/3x3_reduce
I0505 04:28:24.048902  2016 net.cpp:397] inception_4e/relu_3x3_reduce -> inception_4e/3x3_reduce (in-place)
I0505 04:28:24.048912  2016 net.cpp:150] Setting up inception_4e/relu_3x3_reduce
I0505 04:28:24.048918  2016 net.cpp:157] Top shape: 32 160 14 14 (1003520)
I0505 04:28:24.048923  2016 net.cpp:165] Memory required for data: 1632078856
I0505 04:28:24.048928  2016 layer_factory.hpp:77] Creating layer inception_4e/3x3
I0505 04:28:24.048938  2016 net.cpp:106] Creating Layer inception_4e/3x3
I0505 04:28:24.048944  2016 net.cpp:454] inception_4e/3x3 <- inception_4e/3x3_reduce
I0505 04:28:24.048954  2016 net.cpp:411] inception_4e/3x3 -> inception_4e/3x3
I0505 04:28:24.053117  2016 net.cpp:150] Setting up inception_4e/3x3
I0505 04:28:24.053133  2016 net.cpp:157] Top shape: 32 320 14 14 (2007040)
I0505 04:28:24.053138  2016 net.cpp:165] Memory required for data: 1640107016
I0505 04:28:24.053146  2016 layer_factory.hpp:77] Creating layer inception_4e/relu_3x3
I0505 04:28:24.053154  2016 net.cpp:106] Creating Layer inception_4e/relu_3x3
I0505 04:28:24.053160  2016 net.cpp:454] inception_4e/relu_3x3 <- inception_4e/3x3
I0505 04:28:24.053170  2016 net.cpp:397] inception_4e/relu_3x3 -> inception_4e/3x3 (in-place)
I0505 04:28:24.053180  2016 net.cpp:150] Setting up inception_4e/relu_3x3
I0505 04:28:24.053189  2016 net.cpp:157] Top shape: 32 320 14 14 (2007040)
I0505 04:28:24.053192  2016 net.cpp:165] Memory required for data: 1648135176
I0505 04:28:24.053197  2016 layer_factory.hpp:77] Creating layer inception_4e/5x5_reduce
I0505 04:28:24.053210  2016 net.cpp:106] Creating Layer inception_4e/5x5_reduce
I0505 04:28:24.053217  2016 net.cpp:454] inception_4e/5x5_reduce <- inception_4d/output_inception_4d/output_0_split_3
I0505 04:28:24.053237  2016 net.cpp:411] inception_4e/5x5_reduce -> inception_4e/5x5_reduce
I0505 04:28:24.053601  2016 net.cpp:150] Setting up inception_4e/5x5_reduce
I0505 04:28:24.053613  2016 net.cpp:157] Top shape: 32 32 14 14 (200704)
I0505 04:28:24.053617  2016 net.cpp:165] Memory required for data: 1648937992
I0505 04:28:24.053627  2016 layer_factory.hpp:77] Creating layer inception_4e/relu_5x5_reduce
I0505 04:28:24.053634  2016 net.cpp:106] Creating Layer inception_4e/relu_5x5_reduce
I0505 04:28:24.053639  2016 net.cpp:454] inception_4e/relu_5x5_reduce <- inception_4e/5x5_reduce
I0505 04:28:24.053650  2016 net.cpp:397] inception_4e/relu_5x5_reduce -> inception_4e/5x5_reduce (in-place)
I0505 04:28:24.053660  2016 net.cpp:150] Setting up inception_4e/relu_5x5_reduce
I0505 04:28:24.053666  2016 net.cpp:157] Top shape: 32 32 14 14 (200704)
I0505 04:28:24.053671  2016 net.cpp:165] Memory required for data: 1649740808
I0505 04:28:24.053675  2016 layer_factory.hpp:77] Creating layer inception_4e/5x5
I0505 04:28:24.053714  2016 net.cpp:106] Creating Layer inception_4e/5x5
I0505 04:28:24.053724  2016 net.cpp:454] inception_4e/5x5 <- inception_4e/5x5_reduce
I0505 04:28:24.053736  2016 net.cpp:411] inception_4e/5x5 -> inception_4e/5x5
I0505 04:28:24.054656  2016 net.cpp:150] Setting up inception_4e/5x5
I0505 04:28:24.054668  2016 net.cpp:157] Top shape: 32 128 14 14 (802816)
I0505 04:28:24.054672  2016 net.cpp:165] Memory required for data: 1652952072
I0505 04:28:24.054682  2016 layer_factory.hpp:77] Creating layer inception_4e/relu_5x5
I0505 04:28:24.054690  2016 net.cpp:106] Creating Layer inception_4e/relu_5x5
I0505 04:28:24.054697  2016 net.cpp:454] inception_4e/relu_5x5 <- inception_4e/5x5
I0505 04:28:24.054705  2016 net.cpp:397] inception_4e/relu_5x5 -> inception_4e/5x5 (in-place)
I0505 04:28:24.054715  2016 net.cpp:150] Setting up inception_4e/relu_5x5
I0505 04:28:24.054723  2016 net.cpp:157] Top shape: 32 128 14 14 (802816)
I0505 04:28:24.054726  2016 net.cpp:165] Memory required for data: 1656163336
I0505 04:28:24.054731  2016 layer_factory.hpp:77] Creating layer inception_4e/pool
I0505 04:28:24.054743  2016 net.cpp:106] Creating Layer inception_4e/pool
I0505 04:28:24.054749  2016 net.cpp:454] inception_4e/pool <- inception_4d/output_inception_4d/output_0_split_4
I0505 04:28:24.054756  2016 net.cpp:411] inception_4e/pool -> inception_4e/pool
I0505 04:28:24.054808  2016 net.cpp:150] Setting up inception_4e/pool
I0505 04:28:24.054821  2016 net.cpp:157] Top shape: 32 528 14 14 (3311616)
I0505 04:28:24.054826  2016 net.cpp:165] Memory required for data: 1669409800
I0505 04:28:24.054831  2016 layer_factory.hpp:77] Creating layer inception_4e/pool_proj
I0505 04:28:24.054842  2016 net.cpp:106] Creating Layer inception_4e/pool_proj
I0505 04:28:24.054848  2016 net.cpp:454] inception_4e/pool_proj <- inception_4e/pool
I0505 04:28:24.054858  2016 net.cpp:411] inception_4e/pool_proj -> inception_4e/pool_proj
I0505 04:28:24.055541  2016 net.cpp:150] Setting up inception_4e/pool_proj
I0505 04:28:24.055553  2016 net.cpp:157] Top shape: 32 128 14 14 (802816)
I0505 04:28:24.055558  2016 net.cpp:165] Memory required for data: 1672621064
I0505 04:28:24.055567  2016 layer_factory.hpp:77] Creating layer inception_4e/relu_pool_proj
I0505 04:28:24.055574  2016 net.cpp:106] Creating Layer inception_4e/relu_pool_proj
I0505 04:28:24.055580  2016 net.cpp:454] inception_4e/relu_pool_proj <- inception_4e/pool_proj
I0505 04:28:24.055588  2016 net.cpp:397] inception_4e/relu_pool_proj -> inception_4e/pool_proj (in-place)
I0505 04:28:24.055596  2016 net.cpp:150] Setting up inception_4e/relu_pool_proj
I0505 04:28:24.055603  2016 net.cpp:157] Top shape: 32 128 14 14 (802816)
I0505 04:28:24.055608  2016 net.cpp:165] Memory required for data: 1675832328
I0505 04:28:24.055613  2016 layer_factory.hpp:77] Creating layer inception_4e/output
I0505 04:28:24.055622  2016 net.cpp:106] Creating Layer inception_4e/output
I0505 04:28:24.055632  2016 net.cpp:454] inception_4e/output <- inception_4e/1x1
I0505 04:28:24.055649  2016 net.cpp:454] inception_4e/output <- inception_4e/3x3
I0505 04:28:24.055655  2016 net.cpp:454] inception_4e/output <- inception_4e/5x5
I0505 04:28:24.055660  2016 net.cpp:454] inception_4e/output <- inception_4e/pool_proj
I0505 04:28:24.055668  2016 net.cpp:411] inception_4e/output -> inception_4e/output
I0505 04:28:24.055702  2016 net.cpp:150] Setting up inception_4e/output
I0505 04:28:24.055713  2016 net.cpp:157] Top shape: 32 832 14 14 (5218304)
I0505 04:28:24.055718  2016 net.cpp:165] Memory required for data: 1696705544
I0505 04:28:24.055723  2016 layer_factory.hpp:77] Creating layer pool4/3x3_s2
I0505 04:28:24.055732  2016 net.cpp:106] Creating Layer pool4/3x3_s2
I0505 04:28:24.055737  2016 net.cpp:454] pool4/3x3_s2 <- inception_4e/output
I0505 04:28:24.055747  2016 net.cpp:411] pool4/3x3_s2 -> pool4/3x3_s2
I0505 04:28:24.055790  2016 net.cpp:150] Setting up pool4/3x3_s2
I0505 04:28:24.055801  2016 net.cpp:157] Top shape: 32 832 7 7 (1304576)
I0505 04:28:24.055805  2016 net.cpp:165] Memory required for data: 1701923848
I0505 04:28:24.055810  2016 layer_factory.hpp:77] Creating layer pool4/3x3_s2_pool4/3x3_s2_0_split
I0505 04:28:24.055821  2016 net.cpp:106] Creating Layer pool4/3x3_s2_pool4/3x3_s2_0_split
I0505 04:28:24.055827  2016 net.cpp:454] pool4/3x3_s2_pool4/3x3_s2_0_split <- pool4/3x3_s2
I0505 04:28:24.055840  2016 net.cpp:411] pool4/3x3_s2_pool4/3x3_s2_0_split -> pool4/3x3_s2_pool4/3x3_s2_0_split_0
I0505 04:28:24.055850  2016 net.cpp:411] pool4/3x3_s2_pool4/3x3_s2_0_split -> pool4/3x3_s2_pool4/3x3_s2_0_split_1
I0505 04:28:24.055858  2016 net.cpp:411] pool4/3x3_s2_pool4/3x3_s2_0_split -> pool4/3x3_s2_pool4/3x3_s2_0_split_2
I0505 04:28:24.055866  2016 net.cpp:411] pool4/3x3_s2_pool4/3x3_s2_0_split -> pool4/3x3_s2_pool4/3x3_s2_0_split_3
I0505 04:28:24.055928  2016 net.cpp:150] Setting up pool4/3x3_s2_pool4/3x3_s2_0_split
I0505 04:28:24.055938  2016 net.cpp:157] Top shape: 32 832 7 7 (1304576)
I0505 04:28:24.055944  2016 net.cpp:157] Top shape: 32 832 7 7 (1304576)
I0505 04:28:24.055950  2016 net.cpp:157] Top shape: 32 832 7 7 (1304576)
I0505 04:28:24.055955  2016 net.cpp:157] Top shape: 32 832 7 7 (1304576)
I0505 04:28:24.055960  2016 net.cpp:165] Memory required for data: 1722797064
I0505 04:28:24.055965  2016 layer_factory.hpp:77] Creating layer inception_5a/1x1
I0505 04:28:24.055979  2016 net.cpp:106] Creating Layer inception_5a/1x1
I0505 04:28:24.055984  2016 net.cpp:454] inception_5a/1x1 <- pool4/3x3_s2_pool4/3x3_s2_0_split_0
I0505 04:28:24.055995  2016 net.cpp:411] inception_5a/1x1 -> inception_5a/1x1
I0505 04:28:24.058172  2016 net.cpp:150] Setting up inception_5a/1x1
I0505 04:28:24.058188  2016 net.cpp:157] Top shape: 32 256 7 7 (401408)
I0505 04:28:24.058193  2016 net.cpp:165] Memory required for data: 1724402696
I0505 04:28:24.058202  2016 layer_factory.hpp:77] Creating layer inception_5a/relu_1x1
I0505 04:28:24.058212  2016 net.cpp:106] Creating Layer inception_5a/relu_1x1
I0505 04:28:24.058219  2016 net.cpp:454] inception_5a/relu_1x1 <- inception_5a/1x1
I0505 04:28:24.058226  2016 net.cpp:397] inception_5a/relu_1x1 -> inception_5a/1x1 (in-place)
I0505 04:28:24.058236  2016 net.cpp:150] Setting up inception_5a/relu_1x1
I0505 04:28:24.058243  2016 net.cpp:157] Top shape: 32 256 7 7 (401408)
I0505 04:28:24.058248  2016 net.cpp:165] Memory required for data: 1726008328
I0505 04:28:24.058253  2016 layer_factory.hpp:77] Creating layer inception_5a/3x3_reduce
I0505 04:28:24.058265  2016 net.cpp:106] Creating Layer inception_5a/3x3_reduce
I0505 04:28:24.058271  2016 net.cpp:454] inception_5a/3x3_reduce <- pool4/3x3_s2_pool4/3x3_s2_0_split_1
I0505 04:28:24.058282  2016 net.cpp:411] inception_5a/3x3_reduce -> inception_5a/3x3_reduce
I0505 04:28:24.059919  2016 net.cpp:150] Setting up inception_5a/3x3_reduce
I0505 04:28:24.059934  2016 net.cpp:157] Top shape: 32 160 7 7 (250880)
I0505 04:28:24.059939  2016 net.cpp:165] Memory required for data: 1727011848
I0505 04:28:24.059952  2016 layer_factory.hpp:77] Creating layer inception_5a/relu_3x3_reduce
I0505 04:28:24.059972  2016 net.cpp:106] Creating Layer inception_5a/relu_3x3_reduce
I0505 04:28:24.059979  2016 net.cpp:454] inception_5a/relu_3x3_reduce <- inception_5a/3x3_reduce
I0505 04:28:24.059988  2016 net.cpp:397] inception_5a/relu_3x3_reduce -> inception_5a/3x3_reduce (in-place)
I0505 04:28:24.059996  2016 net.cpp:150] Setting up inception_5a/relu_3x3_reduce
I0505 04:28:24.060008  2016 net.cpp:157] Top shape: 32 160 7 7 (250880)
I0505 04:28:24.060012  2016 net.cpp:165] Memory required for data: 1728015368
I0505 04:28:24.060017  2016 layer_factory.hpp:77] Creating layer inception_5a/3x3
I0505 04:28:24.060030  2016 net.cpp:106] Creating Layer inception_5a/3x3
I0505 04:28:24.060036  2016 net.cpp:454] inception_5a/3x3 <- inception_5a/3x3_reduce
I0505 04:28:24.060045  2016 net.cpp:411] inception_5a/3x3 -> inception_5a/3x3
I0505 04:28:24.064218  2016 net.cpp:150] Setting up inception_5a/3x3
I0505 04:28:24.064234  2016 net.cpp:157] Top shape: 32 320 7 7 (501760)
I0505 04:28:24.064239  2016 net.cpp:165] Memory required for data: 1730022408
I0505 04:28:24.064247  2016 layer_factory.hpp:77] Creating layer inception_5a/relu_3x3
I0505 04:28:24.064257  2016 net.cpp:106] Creating Layer inception_5a/relu_3x3
I0505 04:28:24.064265  2016 net.cpp:454] inception_5a/relu_3x3 <- inception_5a/3x3
I0505 04:28:24.064272  2016 net.cpp:397] inception_5a/relu_3x3 -> inception_5a/3x3 (in-place)
I0505 04:28:24.064282  2016 net.cpp:150] Setting up inception_5a/relu_3x3
I0505 04:28:24.064288  2016 net.cpp:157] Top shape: 32 320 7 7 (501760)
I0505 04:28:24.064293  2016 net.cpp:165] Memory required for data: 1732029448
I0505 04:28:24.064297  2016 layer_factory.hpp:77] Creating layer inception_5a/5x5_reduce
I0505 04:28:24.064311  2016 net.cpp:106] Creating Layer inception_5a/5x5_reduce
I0505 04:28:24.064317  2016 net.cpp:454] inception_5a/5x5_reduce <- pool4/3x3_s2_pool4/3x3_s2_0_split_2
I0505 04:28:24.064329  2016 net.cpp:411] inception_5a/5x5_reduce -> inception_5a/5x5_reduce
I0505 04:28:24.064759  2016 net.cpp:150] Setting up inception_5a/5x5_reduce
I0505 04:28:24.064772  2016 net.cpp:157] Top shape: 32 32 7 7 (50176)
I0505 04:28:24.064777  2016 net.cpp:165] Memory required for data: 1732230152
I0505 04:28:24.064785  2016 layer_factory.hpp:77] Creating layer inception_5a/relu_5x5_reduce
I0505 04:28:24.064793  2016 net.cpp:106] Creating Layer inception_5a/relu_5x5_reduce
I0505 04:28:24.064800  2016 net.cpp:454] inception_5a/relu_5x5_reduce <- inception_5a/5x5_reduce
I0505 04:28:24.064807  2016 net.cpp:397] inception_5a/relu_5x5_reduce -> inception_5a/5x5_reduce (in-place)
I0505 04:28:24.064816  2016 net.cpp:150] Setting up inception_5a/relu_5x5_reduce
I0505 04:28:24.064823  2016 net.cpp:157] Top shape: 32 32 7 7 (50176)
I0505 04:28:24.064827  2016 net.cpp:165] Memory required for data: 1732430856
I0505 04:28:24.064832  2016 layer_factory.hpp:77] Creating layer inception_5a/5x5
I0505 04:28:24.064844  2016 net.cpp:106] Creating Layer inception_5a/5x5
I0505 04:28:24.064865  2016 net.cpp:454] inception_5a/5x5 <- inception_5a/5x5_reduce
I0505 04:28:24.064877  2016 net.cpp:411] inception_5a/5x5 -> inception_5a/5x5
I0505 04:28:24.065804  2016 net.cpp:150] Setting up inception_5a/5x5
I0505 04:28:24.065816  2016 net.cpp:157] Top shape: 32 128 7 7 (200704)
I0505 04:28:24.065821  2016 net.cpp:165] Memory required for data: 1733233672
I0505 04:28:24.065829  2016 layer_factory.hpp:77] Creating layer inception_5a/relu_5x5
I0505 04:28:24.065840  2016 net.cpp:106] Creating Layer inception_5a/relu_5x5
I0505 04:28:24.065845  2016 net.cpp:454] inception_5a/relu_5x5 <- inception_5a/5x5
I0505 04:28:24.065853  2016 net.cpp:397] inception_5a/relu_5x5 -> inception_5a/5x5 (in-place)
I0505 04:28:24.065862  2016 net.cpp:150] Setting up inception_5a/relu_5x5
I0505 04:28:24.065868  2016 net.cpp:157] Top shape: 32 128 7 7 (200704)
I0505 04:28:24.065873  2016 net.cpp:165] Memory required for data: 1734036488
I0505 04:28:24.065877  2016 layer_factory.hpp:77] Creating layer inception_5a/pool
I0505 04:28:24.065891  2016 net.cpp:106] Creating Layer inception_5a/pool
I0505 04:28:24.065907  2016 net.cpp:454] inception_5a/pool <- pool4/3x3_s2_pool4/3x3_s2_0_split_3
I0505 04:28:24.065917  2016 net.cpp:411] inception_5a/pool -> inception_5a/pool
I0505 04:28:24.065966  2016 net.cpp:150] Setting up inception_5a/pool
I0505 04:28:24.065978  2016 net.cpp:157] Top shape: 32 832 7 7 (1304576)
I0505 04:28:24.065981  2016 net.cpp:165] Memory required for data: 1739254792
I0505 04:28:24.065987  2016 layer_factory.hpp:77] Creating layer inception_5a/pool_proj
I0505 04:28:24.065999  2016 net.cpp:106] Creating Layer inception_5a/pool_proj
I0505 04:28:24.066006  2016 net.cpp:454] inception_5a/pool_proj <- inception_5a/pool
I0505 04:28:24.066017  2016 net.cpp:411] inception_5a/pool_proj -> inception_5a/pool_proj
I0505 04:28:24.067721  2016 net.cpp:150] Setting up inception_5a/pool_proj
I0505 04:28:24.067739  2016 net.cpp:157] Top shape: 32 128 7 7 (200704)
I0505 04:28:24.067744  2016 net.cpp:165] Memory required for data: 1740057608
I0505 04:28:24.067754  2016 layer_factory.hpp:77] Creating layer inception_5a/relu_pool_proj
I0505 04:28:24.067762  2016 net.cpp:106] Creating Layer inception_5a/relu_pool_proj
I0505 04:28:24.067770  2016 net.cpp:454] inception_5a/relu_pool_proj <- inception_5a/pool_proj
I0505 04:28:24.067780  2016 net.cpp:397] inception_5a/relu_pool_proj -> inception_5a/pool_proj (in-place)
I0505 04:28:24.067791  2016 net.cpp:150] Setting up inception_5a/relu_pool_proj
I0505 04:28:24.067800  2016 net.cpp:157] Top shape: 32 128 7 7 (200704)
I0505 04:28:24.067803  2016 net.cpp:165] Memory required for data: 1740860424
I0505 04:28:24.067816  2016 layer_factory.hpp:77] Creating layer inception_5a/output
I0505 04:28:24.067831  2016 net.cpp:106] Creating Layer inception_5a/output
I0505 04:28:24.067843  2016 net.cpp:454] inception_5a/output <- inception_5a/1x1
I0505 04:28:24.067857  2016 net.cpp:454] inception_5a/output <- inception_5a/3x3
I0505 04:28:24.067873  2016 net.cpp:454] inception_5a/output <- inception_5a/5x5
I0505 04:28:24.067884  2016 net.cpp:454] inception_5a/output <- inception_5a/pool_proj
I0505 04:28:24.067899  2016 net.cpp:411] inception_5a/output -> inception_5a/output
I0505 04:28:24.067957  2016 net.cpp:150] Setting up inception_5a/output
I0505 04:28:24.067977  2016 net.cpp:157] Top shape: 32 832 7 7 (1304576)
I0505 04:28:24.067988  2016 net.cpp:165] Memory required for data: 1746078728
I0505 04:28:24.068002  2016 layer_factory.hpp:77] Creating layer inception_5a/output_inception_5a/output_0_split
I0505 04:28:24.068016  2016 net.cpp:106] Creating Layer inception_5a/output_inception_5a/output_0_split
I0505 04:28:24.068022  2016 net.cpp:454] inception_5a/output_inception_5a/output_0_split <- inception_5a/output
I0505 04:28:24.068030  2016 net.cpp:411] inception_5a/output_inception_5a/output_0_split -> inception_5a/output_inception_5a/output_0_split_0
I0505 04:28:24.068039  2016 net.cpp:411] inception_5a/output_inception_5a/output_0_split -> inception_5a/output_inception_5a/output_0_split_1
I0505 04:28:24.068049  2016 net.cpp:411] inception_5a/output_inception_5a/output_0_split -> inception_5a/output_inception_5a/output_0_split_2
I0505 04:28:24.068058  2016 net.cpp:411] inception_5a/output_inception_5a/output_0_split -> inception_5a/output_inception_5a/output_0_split_3
I0505 04:28:24.068147  2016 net.cpp:150] Setting up inception_5a/output_inception_5a/output_0_split
I0505 04:28:24.068161  2016 net.cpp:157] Top shape: 32 832 7 7 (1304576)
I0505 04:28:24.068167  2016 net.cpp:157] Top shape: 32 832 7 7 (1304576)
I0505 04:28:24.068172  2016 net.cpp:157] Top shape: 32 832 7 7 (1304576)
I0505 04:28:24.068178  2016 net.cpp:157] Top shape: 32 832 7 7 (1304576)
I0505 04:28:24.068189  2016 net.cpp:165] Memory required for data: 1766951944
I0505 04:28:24.068197  2016 layer_factory.hpp:77] Creating layer inception_5b/1x1
I0505 04:28:24.068210  2016 net.cpp:106] Creating Layer inception_5b/1x1
I0505 04:28:24.068217  2016 net.cpp:454] inception_5b/1x1 <- inception_5a/output_inception_5a/output_0_split_0
I0505 04:28:24.068239  2016 net.cpp:411] inception_5b/1x1 -> inception_5b/1x1
I0505 04:28:24.071712  2016 net.cpp:150] Setting up inception_5b/1x1
I0505 04:28:24.071753  2016 net.cpp:157] Top shape: 32 384 7 7 (602112)
I0505 04:28:24.071758  2016 net.cpp:165] Memory required for data: 1769360392
I0505 04:28:24.071768  2016 layer_factory.hpp:77] Creating layer inception_5b/relu_1x1
I0505 04:28:24.071777  2016 net.cpp:106] Creating Layer inception_5b/relu_1x1
I0505 04:28:24.071784  2016 net.cpp:454] inception_5b/relu_1x1 <- inception_5b/1x1
I0505 04:28:24.071792  2016 net.cpp:397] inception_5b/relu_1x1 -> inception_5b/1x1 (in-place)
I0505 04:28:24.071802  2016 net.cpp:150] Setting up inception_5b/relu_1x1
I0505 04:28:24.071810  2016 net.cpp:157] Top shape: 32 384 7 7 (602112)
I0505 04:28:24.071813  2016 net.cpp:165] Memory required for data: 1771768840
I0505 04:28:24.071818  2016 layer_factory.hpp:77] Creating layer inception_5b/3x3_reduce
I0505 04:28:24.071831  2016 net.cpp:106] Creating Layer inception_5b/3x3_reduce
I0505 04:28:24.071838  2016 net.cpp:454] inception_5b/3x3_reduce <- inception_5a/output_inception_5a/output_0_split_1
I0505 04:28:24.071848  2016 net.cpp:411] inception_5b/3x3_reduce -> inception_5b/3x3_reduce
I0505 04:28:24.073716  2016 net.cpp:150] Setting up inception_5b/3x3_reduce
I0505 04:28:24.073734  2016 net.cpp:157] Top shape: 32 192 7 7 (301056)
I0505 04:28:24.073740  2016 net.cpp:165] Memory required for data: 1772973064
I0505 04:28:24.073750  2016 layer_factory.hpp:77] Creating layer inception_5b/relu_3x3_reduce
I0505 04:28:24.073758  2016 net.cpp:106] Creating Layer inception_5b/relu_3x3_reduce
I0505 04:28:24.073765  2016 net.cpp:454] inception_5b/relu_3x3_reduce <- inception_5b/3x3_reduce
I0505 04:28:24.073772  2016 net.cpp:397] inception_5b/relu_3x3_reduce -> inception_5b/3x3_reduce (in-place)
I0505 04:28:24.073783  2016 net.cpp:150] Setting up inception_5b/relu_3x3_reduce
I0505 04:28:24.073789  2016 net.cpp:157] Top shape: 32 192 7 7 (301056)
I0505 04:28:24.073794  2016 net.cpp:165] Memory required for data: 1774177288
I0505 04:28:24.073799  2016 layer_factory.hpp:77] Creating layer inception_5b/3x3
I0505 04:28:24.073812  2016 net.cpp:106] Creating Layer inception_5b/3x3
I0505 04:28:24.073817  2016 net.cpp:454] inception_5b/3x3 <- inception_5b/3x3_reduce
I0505 04:28:24.073828  2016 net.cpp:411] inception_5b/3x3 -> inception_5b/3x3
I0505 04:28:24.080591  2016 net.cpp:150] Setting up inception_5b/3x3
I0505 04:28:24.080618  2016 net.cpp:157] Top shape: 32 384 7 7 (602112)
I0505 04:28:24.080624  2016 net.cpp:165] Memory required for data: 1776585736
I0505 04:28:24.080634  2016 layer_factory.hpp:77] Creating layer inception_5b/relu_3x3
I0505 04:28:24.080646  2016 net.cpp:106] Creating Layer inception_5b/relu_3x3
I0505 04:28:24.080656  2016 net.cpp:454] inception_5b/relu_3x3 <- inception_5b/3x3
I0505 04:28:24.080665  2016 net.cpp:397] inception_5b/relu_3x3 -> inception_5b/3x3 (in-place)
I0505 04:28:24.080678  2016 net.cpp:150] Setting up inception_5b/relu_3x3
I0505 04:28:24.080685  2016 net.cpp:157] Top shape: 32 384 7 7 (602112)
I0505 04:28:24.080690  2016 net.cpp:165] Memory required for data: 1778994184
I0505 04:28:24.080695  2016 layer_factory.hpp:77] Creating layer inception_5b/5x5_reduce
I0505 04:28:24.080706  2016 net.cpp:106] Creating Layer inception_5b/5x5_reduce
I0505 04:28:24.080713  2016 net.cpp:454] inception_5b/5x5_reduce <- inception_5a/output_inception_5a/output_0_split_2
I0505 04:28:24.080724  2016 net.cpp:411] inception_5b/5x5_reduce -> inception_5b/5x5_reduce
I0505 04:28:24.081818  2016 net.cpp:150] Setting up inception_5b/5x5_reduce
I0505 04:28:24.081833  2016 net.cpp:157] Top shape: 32 48 7 7 (75264)
I0505 04:28:24.081838  2016 net.cpp:165] Memory required for data: 1779295240
I0505 04:28:24.081848  2016 layer_factory.hpp:77] Creating layer inception_5b/relu_5x5_reduce
I0505 04:28:24.081856  2016 net.cpp:106] Creating Layer inception_5b/relu_5x5_reduce
I0505 04:28:24.081863  2016 net.cpp:454] inception_5b/relu_5x5_reduce <- inception_5b/5x5_reduce
I0505 04:28:24.081873  2016 net.cpp:397] inception_5b/relu_5x5_reduce -> inception_5b/5x5_reduce (in-place)
I0505 04:28:24.081889  2016 net.cpp:150] Setting up inception_5b/relu_5x5_reduce
I0505 04:28:24.081917  2016 net.cpp:157] Top shape: 32 48 7 7 (75264)
I0505 04:28:24.081921  2016 net.cpp:165] Memory required for data: 1779596296
I0505 04:28:24.081926  2016 layer_factory.hpp:77] Creating layer inception_5b/5x5
I0505 04:28:24.081938  2016 net.cpp:106] Creating Layer inception_5b/5x5
I0505 04:28:24.081943  2016 net.cpp:454] inception_5b/5x5 <- inception_5b/5x5_reduce
I0505 04:28:24.081954  2016 net.cpp:411] inception_5b/5x5 -> inception_5b/5x5
I0505 04:28:24.083297  2016 net.cpp:150] Setting up inception_5b/5x5
I0505 04:28:24.083310  2016 net.cpp:157] Top shape: 32 128 7 7 (200704)
I0505 04:28:24.083315  2016 net.cpp:165] Memory required for data: 1780399112
I0505 04:28:24.083324  2016 layer_factory.hpp:77] Creating layer inception_5b/relu_5x5
I0505 04:28:24.083333  2016 net.cpp:106] Creating Layer inception_5b/relu_5x5
I0505 04:28:24.083338  2016 net.cpp:454] inception_5b/relu_5x5 <- inception_5b/5x5
I0505 04:28:24.083346  2016 net.cpp:397] inception_5b/relu_5x5 -> inception_5b/5x5 (in-place)
I0505 04:28:24.083355  2016 net.cpp:150] Setting up inception_5b/relu_5x5
I0505 04:28:24.083362  2016 net.cpp:157] Top shape: 32 128 7 7 (200704)
I0505 04:28:24.083366  2016 net.cpp:165] Memory required for data: 1781201928
I0505 04:28:24.083371  2016 layer_factory.hpp:77] Creating layer inception_5b/pool
I0505 04:28:24.083384  2016 net.cpp:106] Creating Layer inception_5b/pool
I0505 04:28:24.083389  2016 net.cpp:454] inception_5b/pool <- inception_5a/output_inception_5a/output_0_split_3
I0505 04:28:24.083397  2016 net.cpp:411] inception_5b/pool -> inception_5b/pool
I0505 04:28:24.083451  2016 net.cpp:150] Setting up inception_5b/pool
I0505 04:28:24.083461  2016 net.cpp:157] Top shape: 32 832 7 7 (1304576)
I0505 04:28:24.083467  2016 net.cpp:165] Memory required for data: 1786420232
I0505 04:28:24.083472  2016 layer_factory.hpp:77] Creating layer inception_5b/pool_proj
I0505 04:28:24.083484  2016 net.cpp:106] Creating Layer inception_5b/pool_proj
I0505 04:28:24.083490  2016 net.cpp:454] inception_5b/pool_proj <- inception_5b/pool
I0505 04:28:24.083501  2016 net.cpp:411] inception_5b/pool_proj -> inception_5b/pool_proj
I0505 04:28:24.085000  2016 net.cpp:150] Setting up inception_5b/pool_proj
I0505 04:28:24.085016  2016 net.cpp:157] Top shape: 32 128 7 7 (200704)
I0505 04:28:24.085021  2016 net.cpp:165] Memory required for data: 1787223048
I0505 04:28:24.085029  2016 layer_factory.hpp:77] Creating layer inception_5b/relu_pool_proj
I0505 04:28:24.085038  2016 net.cpp:106] Creating Layer inception_5b/relu_pool_proj
I0505 04:28:24.085044  2016 net.cpp:454] inception_5b/relu_pool_proj <- inception_5b/pool_proj
I0505 04:28:24.085054  2016 net.cpp:397] inception_5b/relu_pool_proj -> inception_5b/pool_proj (in-place)
I0505 04:28:24.085064  2016 net.cpp:150] Setting up inception_5b/relu_pool_proj
I0505 04:28:24.085072  2016 net.cpp:157] Top shape: 32 128 7 7 (200704)
I0505 04:28:24.085077  2016 net.cpp:165] Memory required for data: 1788025864
I0505 04:28:24.085081  2016 layer_factory.hpp:77] Creating layer inception_5b/output
I0505 04:28:24.085089  2016 net.cpp:106] Creating Layer inception_5b/output
I0505 04:28:24.085098  2016 net.cpp:454] inception_5b/output <- inception_5b/1x1
I0505 04:28:24.085104  2016 net.cpp:454] inception_5b/output <- inception_5b/3x3
I0505 04:28:24.085110  2016 net.cpp:454] inception_5b/output <- inception_5b/5x5
I0505 04:28:24.085116  2016 net.cpp:454] inception_5b/output <- inception_5b/pool_proj
I0505 04:28:24.085124  2016 net.cpp:411] inception_5b/output -> inception_5b/output
I0505 04:28:24.085157  2016 net.cpp:150] Setting up inception_5b/output
I0505 04:28:24.085167  2016 net.cpp:157] Top shape: 32 1024 7 7 (1605632)
I0505 04:28:24.085172  2016 net.cpp:165] Memory required for data: 1794448392
I0505 04:28:24.085177  2016 layer_factory.hpp:77] Creating layer pool5/7x7_s1
I0505 04:28:24.085187  2016 net.cpp:106] Creating Layer pool5/7x7_s1
I0505 04:28:24.085197  2016 net.cpp:454] pool5/7x7_s1 <- inception_5b/output
I0505 04:28:24.085208  2016 net.cpp:411] pool5/7x7_s1 -> pool5/7x7_s1
I0505 04:28:24.085255  2016 net.cpp:150] Setting up pool5/7x7_s1
I0505 04:28:24.085266  2016 net.cpp:157] Top shape: 32 1024 1 1 (32768)
I0505 04:28:24.085271  2016 net.cpp:165] Memory required for data: 1794579464
I0505 04:28:24.085276  2016 layer_factory.hpp:77] Creating layer pool5/drop_7x7_s1
I0505 04:28:24.085289  2016 net.cpp:106] Creating Layer pool5/drop_7x7_s1
I0505 04:28:24.085295  2016 net.cpp:454] pool5/drop_7x7_s1 <- pool5/7x7_s1
I0505 04:28:24.085302  2016 net.cpp:397] pool5/drop_7x7_s1 -> pool5/7x7_s1 (in-place)
I0505 04:28:24.085337  2016 net.cpp:150] Setting up pool5/drop_7x7_s1
I0505 04:28:24.085348  2016 net.cpp:157] Top shape: 32 1024 1 1 (32768)
I0505 04:28:24.085352  2016 net.cpp:165] Memory required for data: 1794710536
I0505 04:28:24.085358  2016 layer_factory.hpp:77] Creating layer loss3/classifier_ft
I0505 04:28:24.085369  2016 net.cpp:106] Creating Layer loss3/classifier_ft
I0505 04:28:24.085374  2016 net.cpp:454] loss3/classifier_ft <- pool5/7x7_s1
I0505 04:28:24.085386  2016 net.cpp:411] loss3/classifier_ft -> loss3/classifier_ft
I0505 04:28:24.085594  2016 net.cpp:150] Setting up loss3/classifier_ft
I0505 04:28:24.085607  2016 net.cpp:157] Top shape: 32 10 (320)
I0505 04:28:24.085610  2016 net.cpp:165] Memory required for data: 1794711816
I0505 04:28:24.085619  2016 layer_factory.hpp:77] Creating layer loss3/loss3
I0505 04:28:24.085630  2016 net.cpp:106] Creating Layer loss3/loss3
I0505 04:28:24.085638  2016 net.cpp:454] loss3/loss3 <- loss3/classifier_ft
I0505 04:28:24.085645  2016 net.cpp:454] loss3/loss3 <- label_data_1_split_2
I0505 04:28:24.085652  2016 net.cpp:411] loss3/loss3 -> loss3/loss3
…
