…
I0504 00:41:34.812099  3080 net.cpp:322] The NetState phase (0) differed from the phase (1) specified by a rule in layer loss3/top-5
I0504 00:41:34.813093  3080 net.cpp:49] Initializing net from parameters: 
name: "GoogleNet"
state {
  phase: TRAIN
}
layer {
  name: "data"
  type: "Data"
  top: "data"
  top: "label"
  include {
    phase: TRAIN
  }
  transform_param {
    mirror: true
    crop_size: 224
    mean_value: 104
    mean_value: 117
    mean_value: 123
  }
  data_param {
    source: "data/driving/driving_train_lmdb"
    batch_size: 32
    backend: LMDB
  }
}
layer {
  name: "conv1/7x7_s2"
  type: "Convolution"
  bottom: "data"
  top: "conv1/7x7_s2"
  param {
    lr_mult: 1
    decay_mult: 1
  }
  param {
    lr_mult: 2
    decay_mult: 0
  }
  convolution_param {
    num_output: 64
    pad: 3
    kernel_size: 7
    stride: 2
    weight_filler {
      type: "xavier"
    }
    bias_filler {
      type: "constant"
      value: 0.2
    }
  }
}
layer {
  name: "conv1/relu_7x7"
  type: "ReLU"
  bottom: "conv1/7x7_s2"
  top: "conv1/7x7_s2"
}
layer {
  name: "pool1/3x3_s2"
  type: "Pooling"
  bottom: "conv1/7x7_s2"
  top: "pool1/3x3_s2"
  pooling_param {
    pool: MAX
    kernel_size: 3
    stride: 2
  }
}
layer {
  name: "pool1/norm1"
  type: "LRN"
  bottom: "pool1/3x3_s2"
  top: "pool1/norm1"
  lrn_param {
    local_size: 5
    alpha: 0.0001
    beta: 0.75
  }
}
layer {
  name: "conv2/3x3_reduce"
  type: "Convolution"
  bottom: "pool1/norm1"
  top: "conv2/3x3_reduce"
  param {
    lr_mult: 1
    decay_mult: 1
  }
  param {
    lr_mult: 2
    decay_mult: 0
  }
  convolution_param {
    num_output: 64
    kernel_size: 1
    weight_filler {
      type: "xavier"
    }
    bias_filler {
      type: "constant"
      value: 0.2
    }
  }
}
layer {
  name: "conv2/relu_3x3_reduce"
  type: "ReLU"
  bottom: "conv2/3x3_reduce"
  top: "conv2/3x3_reduce"
}
layer {
  name: "conv2/3x3"
  type: "Convolution"
  bottom: "conv2/3x3_reduce"
  top: "conv2/3x3"
  param {
    lr_mult: 1
    decay_mult: 1
  }
  param {
    lr_mult: 2
    decay_mult: 0
  }
  convolution_param {
    num_output: 192
    pad: 1
    kernel_size: 3
    weight_filler {
      type: "xavier"
    }
    bias_filler {
      type: "constant"
      value: 0.2
    }
  }
}
layer {
  name: "conv2/relu_3x3"
  type: "ReLU"
  bottom: "conv2/3x3"
  top: "conv2/3x3"
}
layer {
  name: "conv2/norm2"
  type: "LRN"
  bottom: "conv2/3x3"
  top: "conv2/norm2"
  lrn_param {
    local_size: 5
    alpha: 0.0001
    beta: 0.75
  }
}
layer {
  name: "pool2/3x3_s2"
  type: "Pooling"
  bottom: "conv2/norm2"
  top: "pool2/3x3_s2"
  pooling_param {
    pool: MAX
    kernel_size: 3
    stride: 2
  }
}
layer {
  name: "inception_3a/1x1"
  type: "Convolution"
  bottom: "pool2/3x3_s2"
  top: "inception_3a/1x1"
  param {
    lr_mult: 1
    decay_mult: 1
  }
  param {
    lr_mult: 2
    decay_mult: 0
  }
  convolution_param {
    num_output: 64
    kernel_size: 1
    weight_filler {
      type: "xavier"
    }
    bias_filler {
      type: "constant"
      value: 0.2
    }
  }
}
layer {
  name: "inception_3a/relu_1x1"
  type: "ReLU"
  bottom: "inception_3a/1x1"
  top: "inception_3a/1x1"
}
layer {
  name: "inception_3a/3x3_reduce"
  type: "Convolution"
  bottom: "pool2/3x3_s2"
  top: "inception_3a/3x3_reduce"
  param {
    lr_mult: 1
    decay_mult: 1
  }
  param {
    lr_mult: 2
    decay_mult: 0
  }
  convolution_param {
    num_output: 96
    kernel_size: 1
    weight_filler {
      type: "xavier"
    }
    bias_filler {
      type: "constant"
      value: 0.2
    }
  }
}
layer {
  name: "inception_3a/relu_3x3_reduce"
  type: "ReLU"
  bottom: "inception_3a/3x3_reduce"
  top: "inception_3a/3x3_reduce"
}
layer {
  name: "inception_3a/3x3"
  type: "Convolution"
  bottom: "inception_3a/3x3_reduce"
  top: "inception_3a/3x3"
  param {
    lr_mult: 1
    decay_mult: 1
  }
  param {
    lr_mult: 2
    decay_mult: 0
  }
  convolution_param {
    num_output: 128
    pad: 1
    kernel_size: 3
    weight_filler {
      type: "xavier"
    }
    bias_filler {
      type: "constant"
      value: 0.2
    }
  }
}
layer {
  name: "inception_3a/relu_3x3"
  type: "ReLU"
  bottom: "inception_3a/3x3"
  top: "inception_3a/3x3"
}
layer {
  name: "inception_3a/5x5_reduce"
  type: "Convolution"
  bottom: "pool2/3x3_s2"
  top: "inception_3a/5x5_reduce"
  param {
    lr_mult: 1
    decay_mult: 1
  }
  param {
    lr_mult: 2
    decay_mult: 0
  }
  convolution_param {
    num_output: 16
    kernel_size: 1
    weight_filler {
      type: "xavier"
    }
    bias_filler {
      type: "constant"
      value: 0.2
    }
  }
}
layer {
  name: "inception_3a/relu_5x5_reduce"
  type: "ReLU"
  bottom: "inception_3a/5x5_reduce"
  top: "inception_3a/5x5_reduce"
}
layer {
  name: "inception_3a/5x5"
  type: "Convolution"
  bottom: "inception_3a/5x5_reduce"
  top: "inception_3a/5x5"
  param {
    lr_mult: 1
    decay_mult: 1
  }
  param {
    lr_mult: 2
    decay_mult: 0
  }
  convolution_param {
    num_output: 32
    pad: 2
    kernel_size: 5
    weight_filler {
      type: "xavier"
    }
    bias_filler {
      type: "constant"
      value: 0.2
    }
  }
}
layer {
  name: "inception_3a/relu_5x5"
  type: "ReLU"
  bottom: "inception_3a/5x5"
  top: "inception_3a/5x5"
}
layer {
  name: "inception_3a/pool"
  type: "Pooling"
  bottom: "pool2/3x3_s2"
  top: "inception_3a/pool"
  pooling_param {
    pool: MAX
    kernel_size: 3
    stride: 1
    pad: 1
  }
}
layer {
  name: "inception_3a/pool_proj"
  type: "Convolution"
  bottom: "inception_3a/pool"
  top: "inception_3a/pool_proj"
  param {
    lr_mult: 1
    decay_mult: 1
  }
  param {
    lr_mult: 2
    decay_mult: 0
  }
  convolution_param {
    num_output: 32
    kernel_size: 1
    weight_filler {
      type: "xavier"
    }
    bias_filler {
      type: "constant"
      value: 0.2
    }
  }
}
layer {
  name: "inception_3a/relu_pool_proj"
  type: "ReLU"
  bottom: "inception_3a/pool_proj"
  top: "inception_3a/pool_proj"
}
layer {
  name: "inception_3a/output"
  type: "Concat"
  bottom: "inception_3a/1x1"
  bottom: "inception_3a/3x3"
  bottom: "inception_3a/5x5"
  bottom: "inception_3a/pool_proj"
  top: "inception_3a/output"
}
layer {
  name: "inception_3b/1x1"
  type: "Convolution"
  bottom: "inception_3a/output"
  top: "inception_3b/1x1"
  param {
    lr_mult: 1
    decay_mult: 1
  }
  param {
    lr_mult: 2
    decay_mult: 0
  }
  convolution_param {
    num_output: 128
    kernel_size: 1
    weight_filler {
      type: "xavier"
    }
    bias_filler {
      type: "constant"
      value: 0.2
    }
  }
}
layer {
  name: "inception_3b/relu_1x1"
  type: "ReLU"
  bottom: "inception_3b/1x1"
  top: "inception_3b/1x1"
}
layer {
  name: "inception_3b/3x3_reduce"
  type: "Convolution"
  bottom: "inception_3a/output"
  top: "inception_3b/3x3_reduce"
  param {
    lr_mult: 1
    decay_mult: 1
  }
  param {
    lr_mult: 2
    decay_mult: 0
  }
  convolution_param {
    num_output: 128
    kernel_size: 1
    weight_filler {
      type: "xavier"
    }
    bias_filler {
      type: "constant"
      value: 0.2
    }
  }
}
layer {
  name: "inception_3b/relu_3x3_reduce"
  type: "ReLU"
  bottom: "inception_3b/3x3_reduce"
  top: "inception_3b/3x3_reduce"
}
layer {
  name: "inception_3b/3x3"
  type: "Convolution"
  bottom: "inception_3b/3x3_reduce"
  top: "inception_3b/3x3"
  param {
    lr_mult: 1
    decay_mult: 1
  }
  param {
    lr_mult: 2
    decay_mult: 0
  }
  convolution_param {
    num_output: 192
    pad: 1
    kernel_size: 3
    weight_filler {
      type: "xavier"
    }
    bias_filler {
      type: "constant"
      value: 0.2
    }
  }
}
layer {
  name: "inception_3b/relu_3x3"
  type: "ReLU"
  bottom: "inception_3b/3x3"
  top: "inception_3b/3x3"
}
layer {
  name: "inception_3b/5x5_reduce"
  type: "Convolution"
  bottom: "inception_3a/output"
  top: "inception_3b/5x5_reduce"
  param {
    lr_mult: 1
    decay_mult: 1
  }
  param {
    lr_mult: 2
    decay_mult: 0
  }
  convolution_param {
    num_output: 32
    kernel_size: 1
    weight_filler {
      type: "xavier"
    }
    bias_filler {
      type: "constant"
      value: 0.2
    }
  }
}
layer {
  name: "inception_3b/relu_5x5_reduce"
  type: "ReLU"
  bottom: "inception_3b/5x5_reduce"
  top: "inception_3b/5x5_reduce"
}
layer {
  name: "inception_3b/5x5"
  type: "Convolution"
  bottom: "inception_3b/5x5_reduce"
  top: "inception_3b/5x5"
  param {
    lr_mult: 1
    decay_mult: 1
  }
  param {
    lr_mult: 2
    decay_mult: 0
  }
  convolution_param {
    num_output: 96
    pad: 2
    kernel_size: 5
    weight_filler {
      type: "xavier"
    }
    bias_filler {
      type: "constant"
      value: 0.2
    }
  }
}
layer {
  name: "inception_3b/relu_5x5"
  type: "ReLU"
  bottom: "inception_3b/5x5"
  top: "inception_3b/5x5"
}
layer {
  name: "inception_3b/pool"
  type: "Pooling"
  bottom: "inception_3a/output"
  top: "inception_3b/pool"
  pooling_param {
    pool: MAX
    kernel_size: 3
    stride: 1
    pad: 1
  }
}
layer {
  name: "inception_3b/pool_proj"
  type: "Convolution"
  bottom: "inception_3b/pool"
  top: "inception_3b/pool_proj"
  param {
    lr_mult: 1
    decay_mult: 1
  }
  param {
    lr_mult: 2
    decay_mult: 0
  }
  convolution_param {
    num_output: 64
    kernel_size: 1
    weight_filler {
      type: "xavier"
    }
    bias_filler {
      type: "constant"
      value: 0.2
    }
  }
}
layer {
  name: "inception_3b/relu_pool_proj"
  type: "ReLU"
  bottom: "inception_3b/pool_proj"
  top: "inception_3b/pool_proj"
}
layer {
  name: "inception_3b/output"
  type: "Concat"
  bottom: "inception_3b/1x1"
  bottom: "inception_3b/3x3"
  bottom: "inception_3b/5x5"
  bottom: "inception_3b/pool_proj"
  top: "inception_3b/output"
}
layer {
  name: "pool3/3x3_s2"
  type: "Pooling"
  bottom: "inception_3b/output"
  top: "pool3/3x3_s2"
  pooling_param {
    pool: MAX
    kernel_size: 3
    stride: 2
  }
}
layer {
  name: "inception_4a/1x1"
  type: "Convolution"
  bottom: "pool3/3x3_s2"
  top: "inception_4a/1x1"
  param {
    lr_mult: 1
    decay_mult: 1
  }
  param {
    lr_mult: 2
    decay_mult: 0
  }
  convolution_param {
    num_output: 192
    kernel_size: 1
    weight_filler {
      type: "xavier"
    }
    bias_filler {
      type: "constant"
      value: 0.2
    }
  }
}
layer {
  name: "inception_4a/relu_1x1"
  type: "ReLU"
  bottom: "inception_4a/1x1"
  top: "inception_4a/1x1"
}
layer {
  name: "inception_4a/3x3_reduce"
  type: "Convolution"
  bottom: "pool3/3x3_s2"
  top: "inception_4a/3x3_reduce"
  param {
    lr_mult: 1
    decay_mult: 1
  }
  param {
    lr_mult: 2
    decay_mult: 0
  }
  convolution_param {
    num_output: 96
    kernel_size: 1
    weight_filler {
      type: "xavier"
    }
    bias_filler {
      type: "constant"
      value: 0.2
    }
  }
}
layer {
  name: "inception_4a/relu_3x3_reduce"
  type: "ReLU"
  bottom: "inception_4a/3x3_reduce"
  top: "inception_4a/3x3_reduce"
}
layer {
  name: "inception_4a/3x3"
  type: "Convolution"
  bottom: "inception_4a/3x3_reduce"
  top: "inception_4a/3x3"
  param {
    lr_mult: 1
    decay_mult: 1
  }
  param {
    lr_mult: 2
    decay_mult: 0
  }
  convolution_param {
    num_output: 208
    pad: 1
    kernel_size: 3
    weight_filler {
      type: "xavier"
    }
    bias_filler {
      type: "constant"
      value: 0.2
    }
  }
}
layer {
  name: "inception_4a/relu_3x3"
  type: "ReLU"
  bottom: "inception_4a/3x3"
  top: "inception_4a/3x3"
}
layer {
  name: "inception_4a/5x5_reduce"
  type: "Convolution"
  bottom: "pool3/3x3_s2"
  top: "inception_4a/5x5_reduce"
  param {
    lr_mult: 1
    decay_mult: 1
  }
  param {
    lr_mult: 2
    decay_mult: 0
  }
  convolution_param {
    num_output: 16
    kernel_size: 1
    weight_filler {
      type: "xavier"
    }
    bias_filler {
      type: "constant"
      value: 0.2
    }
  }
}
layer {
  name: "inception_4a/relu_5x5_reduce"
  type: "ReLU"
  bottom: "inception_4a/5x5_reduce"
  top: "inception_4a/5x5_reduce"
}
layer {
  name: "inception_4a/5x5"
  type: "Convolution"
  bottom: "inception_4a/5x5_reduce"
  top: "inception_4a/5x5"
  param {
    lr_mult: 1
    decay_mult: 1
  }
  param {
    lr_mult: 2
    decay_mult: 0
  }
  convolution_param {
    num_output: 48
    pad: 2
    kernel_size: 5
    weight_filler {
      type: "xavier"
    }
    bias_filler {
      type: "constant"
      value: 0.2
    }
  }
}
layer {
  name: "inception_4a/relu_5x5"
  type: "ReLU"
  bottom: "inception_4a/5x5"
  top: "inception_4a/5x5"
}
layer {
  name: "inception_4a/pool"
  type: "Pooling"
  bottom: "pool3/3x3_s2"
  top: "inception_4a/pool"
  pooling_param {
    pool: MAX
    kernel_size: 3
    stride: 1
    pad: 1
  }
}
layer {
  name: "inception_4a/pool_proj"
  type: "Convolution"
  bottom: "inception_4a/pool"
  top: "inception_4a/pool_proj"
  param {
    lr_mult: 1
    decay_mult: 1
  }
  param {
    lr_mult: 2
    decay_mult: 0
  }
  convolution_param {
    num_output: 64
    kernel_size: 1
    weight_filler {
      type: "xavier"
    }
    bias_filler {
      type: "constant"
      value: 0.2
    }
  }
}
layer {
  name: "inception_4a/relu_pool_proj"
  type: "ReLU"
  bottom: "inception_4a/pool_proj"
  top: "inception_4a/pool_proj"
}
layer {
  name: "inception_4a/output"
  type: "Concat"
  bottom: "inception_4a/1x1"
  bottom: "inception_4a/3x3"
  bottom: "inception_4a/5x5"
  bottom: "inception_4a/pool_proj"
  top: "inception_4a/output"
}
layer {
  name: "loss1/ave_pool"
  type: "Pooling"
  bottom: "inception_4a/output"
  top: "loss1/ave_pool"
  pooling_param {
    pool: AVE
    kernel_size: 5
    stride: 3
  }
}
layer {
  name: "loss1/conv"
  type: "Convolution"
  bottom: "loss1/ave_pool"
  top: "loss1/conv"
  param {
    lr_mult: 1
    decay_mult: 1
  }
  param {
    lr_mult: 2
    decay_mult: 0
  }
  convolution_param {
    num_output: 128
    kernel_size: 1
    weight_filler {
      type: "xavier"
    }
    bias_filler {
      type: "constant"
      value: 0.2
    }
  }
}
layer {
  name: "loss1/relu_conv"
  type: "ReLU"
  bottom: "loss1/conv"
  top: "loss1/conv"
}
layer {
  name: "loss1/fc"
  type: "InnerProduct"
  bottom: "loss1/conv"
  top: "loss1/fc"
  param {
    lr_mult: 1
    decay_mult: 1
  }
  param {
    lr_mult: 2
    decay_mult: 0
  }
  inner_product_param {
    num_output: 1024
    weight_filler {
      type: "xavier"
    }
    bias_filler {
      type: "constant"
      value: 0.2
    }
  }
}
layer {
  name: "loss1/relu_fc"
  type: "ReLU"
  bottom: "loss1/fc"
  top: "loss1/fc"
}
layer {
  name: "loss1/drop_fc"
  type: "Dropout"
  bottom: "loss1/fc"
  top: "loss1/fc"
  dropout_param {
    dropout_ratio: 0.7
  }
}
layer {
  name: "loss1/classifier"
  type: "InnerProduct"
  bottom: "loss1/fc"
  top: "loss1/classifier"
  param {
    lr_mult: 1
    decay_mult: 1
  }
  param {
    lr_mult: 2
    decay_mult: 0
  }
  inner_product_param {
    num_output: 1000
    weight_filler {
      type: "xavier"
    }
    bias_filler {
      type: "constant"
      value: 0
    }
  }
}
layer {
  name: "loss1/loss"
  type: "SoftmaxWithLoss"
  bottom: "loss1/classifier"
  bottom: "label"
  top: "loss1/loss1"
  loss_weight: 0.3
}
layer {
  name: "inception_4b/1x1"
  type: "Convolution"
  bottom: "inception_4a/output"
  top: "inception_4b/1x1"
  param {
    lr_mult: 1
    decay_mult: 1
  }
  param {
    lr_mult: 2
    decay_mult: 0
  }
  convolution_param {
    num_output: 160
    kernel_size: 1
    weight_filler {
      type: "xavier"
    }
    bias_filler {
      type: "constant"
      value: 0.2
    }
  }
}
layer {
  name: "inception_4b/relu_1x1"
  type: "ReLU"
  bottom: "inception_4b/1x1"
  top: "inception_4b/1x1"
}
layer {
  name: "inception_4b/3x3_reduce"
  type: "Convolution"
  bottom: "inception_4a/output"
  top: "inception_4b/3x3_reduce"
  param {
    lr_mult: 1
    decay_mult: 1
  }
  param {
    lr_mult: 2
    decay_mult: 0
  }
  convolution_param {
    num_output: 112
    kernel_size: 1
    weight_filler {
      type: "xavier"
    }
    bias_filler {
      type: "constant"
      value: 0.2
    }
  }
}
layer {
  name: "inception_4b/relu_3x3_reduce"
  type: "ReLU"
  bottom: "inception_4b/3x3_reduce"
  top: "inception_4b/3x3_reduce"
}
layer {
  name: "inception_4b/3x3"
  type: "Convolution"
  bottom: "inception_4b/3x3_reduce"
  top: "inception_4b/3x3"
  param {
    lr_mult: 1
    decay_mult: 1
  }
  param {
    lr_mult: 2
    decay_mult: 0
  }
  convolution_param {
    num_output: 224
    pad: 1
    kernel_size: 3
    weight_filler {
      type: "xavier"
    }
    bias_filler {
      type: "constant"
      value: 0.2
    }
  }
}
layer {
  name: "inception_4b/relu_3x3"
  type: "ReLU"
  bottom: "inception_4b/3x3"
  top: "inception_4b/3x3"
}
layer {
  name: "inception_4b/5x5_reduce"
  type: "Convolution"
  bottom: "inception_4a/output"
  top: "inception_4b/5x5_reduce"
  param {
    lr_mult: 1
    decay_mult: 1
  }
  param {
    lr_mult: 2
    decay_mult: 0
  }
  convolution_param {
    num_output: 24
    kernel_size: 1
    weight_filler {
      type: "xavier"
    }
    bias_filler {
      type: "constant"
      value: 0.2
    }
  }
}
layer {
  name: "inception_4b/relu_5x5_reduce"
  type: "ReLU"
  bottom: "inception_4b/5x5_reduce"
  top: "inception_4b/5x5_reduce"
}
layer {
  name: "inception_4b/5x5"
  type: "Convolution"
  bottom: "inception_4b/5x5_reduce"
  top: "inception_4b/5x5"
  param {
    lr_mult: 1
    decay_mult: 1
  }
  param {
    lr_mult: 2
    decay_mult: 0
  }
  convolution_param {
    num_output: 64
    pad: 2
    kernel_size: 5
    weight_filler {
      type: "xavier"
    }
    bias_filler {
      type: "constant"
      value: 0.2
    }
  }
}
layer {
  name: "inception_4b/relu_5x5"
  type: "ReLU"
  bottom: "inception_4b/5x5"
  top: "inception_4b/5x5"
}
layer {
  name: "inception_4b/pool"
  type: "Pooling"
  bottom: "inception_4a/output"
  top: "inception_4b/pool"
  pooling_param {
    pool: MAX
    kernel_size: 3
    stride: 1
    pad: 1
  }
}
layer {
  name: "inception_4b/pool_proj"
  type: "Convolution"
  bottom: "inception_4b/pool"
  top: "inception_4b/pool_proj"
  param {
    lr_mult: 1
    decay_mult: 1
  }
  param {
    lr_mult: 2
    decay_mult: 0
  }
  convolution_param {
    num_output: 64
    kernel_size: 1
    weight_filler {
      type: "xavier"
    }
    bias_filler {
      type: "constant"
      value: 0.2
    }
  }
}
layer {
  name: "inception_4b/relu_pool_proj"
  type: "ReLU"
  bottom: "inception_4b/pool_proj"
  top: "inception_4b/pool_proj"
}
layer {
  name: "inception_4b/output"
  type: "Concat"
  bottom: "inception_4b/1x1"
  bottom: "inception_4b/3x3"
  bottom: "inception_4b/5x5"
  bottom: "inception_4b/pool_proj"
  top: "inception_4b/output"
}
layer {
  name: "inception_4c/1x1"
  type: "Convolution"
  bottom: "inception_4b/output"
  top: "inception_4c/1x1"
  param {
    lr_mult: 1
    decay_mult: 1
  }
  param {
    lr_mult: 2
    decay_mult: 0
  }
  convolution_param {
    num_output: 128
    kernel_size: 1
    weight_filler {
      type: "xavier"
    }
    bias_filler {
      type: "constant"
      value: 0.2
    }
  }
}
layer {
  name: "inception_4c/relu_1x1"
  type: "ReLU"
  bottom: "inception_4c/1x1"
  top: "inception_4c/1x1"
}
layer {
  name: "inception_4c/3x3_reduce"
  type: "Convolution"
  bottom: "inception_4b/output"
  top: "inception_4c/3x3_reduce"
  param {
    lr_mult: 1
    decay_mult: 1
  }
  param {
    lr_mult: 2
    decay_mult: 0
  }
  convolution_param {
    num_output: 128
    kernel_size: 1
    weight_filler {
      type: "xavier"
    }
    bias_filler {
      type: "constant"
      value: 0.2
    }
  }
}
layer {
  name: "inception_4c/relu_3x3_reduce"
  type: "ReLU"
  bottom: "inception_4c/3x3_reduce"
  top: "inception_4c/3x3_reduce"
}
layer {
  name: "inception_4c/3x3"
  type: "Convolution"
  bottom: "inception_4c/3x3_reduce"
  top: "inception_4c/3x3"
  param {
    lr_mult: 1
    decay_mult: 1
  }
  param {
    lr_mult: 2
    decay_mult: 0
  }
  convolution_param {
    num_output: 256
    pad: 1
    kernel_size: 3
    weight_filler {
      type: "xavier"
    }
    bias_filler {
      type: "constant"
      value: 0.2
    }
  }
}
layer {
  name: "inception_4c/relu_3x3"
  type: "ReLU"
  bottom: "inception_4c/3x3"
  top: "inception_4c/3x3"
}
layer {
  name: "inception_4c/5x5_reduce"
  type: "Convolution"
  bottom: "inception_4b/output"
  top: "inception_4c/5x5_reduce"
  param {
    lr_mult: 1
    decay_mult: 1
  }
  param {
    lr_mult: 2
    decay_mult: 0
  }
  convolution_param {
    num_output: 24
    kernel_size: 1
    weight_filler {
      type: "xavier"
    }
    bias_filler {
      type: "constant"
      value: 0.2
    }
  }
}
layer {
  name: "inception_4c/relu_5x5_reduce"
  type: "ReLU"
  bottom: "inception_4c/5x5_reduce"
  top: "inception_4c/5x5_reduce"
}
layer {
  name: "inception_4c/5x5"
  type: "Convolution"
  bottom: "inception_4c/5x5_reduce"
  top: "inception_4c/5x5"
  param {
    lr_mult: 1
    decay_mult: 1
  }
  param {
    lr_mult: 2
    decay_mult: 0
  }
  convolution_param {
    num_output: 64
    pad: 2
    kernel_size: 5
    weight_filler {
      type: "xavier"
    }
    bias_filler {
      type: "constant"
      value: 0.2
    }
  }
}
layer {
  name: "inception_4c/relu_5x5"
  type: "ReLU"
  bottom: "inception_4c/5x5"
  top: "inception_4c/5x5"
}
layer {
  name: "inception_4c/pool"
  type: "Pooling"
  bottom: "inception_4b/output"
  top: "inception_4c/pool"
  pooling_param {
    pool: MAX
    kernel_size: 3
    stride: 1
    pad: 1
  }
}
layer {
  name: "inception_4c/pool_proj"
  type: "Convolution"
  bottom: "inception_4c/pool"
  top: "inception_4c/pool_proj"
  param {
    lr_mult: 1
    decay_mult: 1
  }
  param {
    lr_mult: 2
    decay_mult: 0
  }
  convolution_param {
    num_output: 64
    kernel_size: 1
    weight_filler {
      type: "xavier"
    }
    bias_filler {
      type: "constant"
      value: 0.2
    }
  }
}
layer {
  name: "inception_4c/relu_pool_proj"
  type: "ReLU"
  bottom: "inception_4c/pool_proj"
  top: "inception_4c/pool_proj"
}
layer {
  name: "inception_4c/output"
  type: "Concat"
  bottom: "inception_4c/1x1"
  bottom: "inception_4c/3x3"
  bottom: "inception_4c/5x5"
  bottom: "inception_4c/pool_proj"
  top: "inception_4c/output"
}
layer {
  name: "inception_4d/1x1"
  type: "Convolution"
  bottom: "inception_4c/output"
  top: "inception_4d/1x1"
  param {
    lr_mult: 1
    decay_mult: 1
  }
  param {
    lr_mult: 2
    decay_mult: 0
  }
  convolution_param {
    num_output: 112
    kernel_size: 1
    weight_filler {
      type: "xavier"
    }
    bias_filler {
      type: "constant"
      value: 0.2
    }
  }
}
layer {
  name: "inception_4d/relu_1x1"
  type: "ReLU"
  bottom: "inception_4d/1x1"
  top: "inception_4d/1x1"
}
layer {
  name: "inception_4d/3x3_reduce"
  type: "Convolution"
  bottom: "inception_4c/output"
  top: "inception_4d/3x3_reduce"
  param {
    lr_mult: 1
    decay_mult: 1
  }
  param {
    lr_mult: 2
    decay_mult: 0
  }
  convolution_param {
    num_output: 144
    kernel_size: 1
    weight_filler {
      type: "xavier"
    }
    bias_filler {
      type: "constant"
      value: 0.2
    }
  }
}
layer {
  name: "inception_4d/relu_3x3_reduce"
  type: "ReLU"
  bottom: "inception_4d/3x3_reduce"
  top: "inception_4d/3x3_reduce"
}
layer {
  name: "inception_4d/3x3"
  type: "Convolution"
  bottom: "inception_4d/3x3_reduce"
  top: "inception_4d/3x3"
  param {
    lr_mult: 1
    decay_mult: 1
  }
  param {
    lr_mult: 2
    decay_mult: 0
  }
  convolution_param {
    num_output: 288
    pad: 1
    kernel_size: 3
    weight_filler {
      type: "xavier"
    }
    bias_filler {
      type: "constant"
      value: 0.2
    }
  }
}
layer {
  name: "inception_4d/relu_3x3"
  type: "ReLU"
  bottom: "inception_4d/3x3"
  top: "inception_4d/3x3"
}
layer {
  name: "inception_4d/5x5_reduce"
  type: "Convolution"
  bottom: "inception_4c/output"
  top: "inception_4d/5x5_reduce"
  param {
    lr_mult: 1
    decay_mult: 1
  }
  param {
    lr_mult: 2
    decay_mult: 0
  }
  convolution_param {
    num_output: 32
    kernel_size: 1
    weight_filler {
      type: "xavier"
    }
    bias_filler {
      type: "constant"
      value: 0.2
    }
  }
}
layer {
  name: "inception_4d/relu_5x5_reduce"
  type: "ReLU"
  bottom: "inception_4d/5x5_reduce"
  top: "inception_4d/5x5_reduce"
}
layer {
  name: "inception_4d/5x5"
  type: "Convolution"
  bottom: "inception_4d/5x5_reduce"
  top: "inception_4d/5x5"
  param {
    lr_mult: 1
    decay_mult: 1
  }
  param {
    lr_mult: 2
    decay_mult: 0
  }
  convolution_param {
    num_output: 64
    pad: 2
    kernel_size: 5
    weight_filler {
      type: "xavier"
    }
    bias_filler {
      type: "constant"
      value: 0.2
    }
  }
}
layer {
  name: "inception_4d/relu_5x5"
  type: "ReLU"
  bottom: "inception_4d/5x5"
  top: "inception_4d/5x5"
}
layer {
  name: "inception_4d/pool"
  type: "Pooling"
  bottom: "inception_4c/output"
  top: "inception_4d/pool"
  pooling_param {
    pool: MAX
    kernel_size: 3
    stride: 1
    pad: 1
  }
}
layer {
  name: "inception_4d/pool_proj"
  type: "Convolution"
  bottom: "inception_4d/pool"
  top: "inception_4d/pool_proj"
  param {
    lr_mult: 1
    decay_mult: 1
  }
  param {
    lr_mult: 2
    decay_mult: 0
  }
  convolution_param {
    num_output: 64
    kernel_size: 1
    weight_filler {
      type: "xavier"
    }
    bias_filler {
      type: "constant"
      value: 0.2
    }
  }
}
layer {
  name: "inception_4d/relu_pool_proj"
  type: "ReLU"
  bottom: "inception_4d/pool_proj"
  top: "inception_4d/pool_proj"
}
layer {
  name: "inception_4d/output"
  type: "Concat"
  bottom: "inception_4d/1x1"
  bottom: "inception_4d/3x3"
  bottom: "inception_4d/5x5"
  bottom: "inception_4d/pool_proj"
  top: "inception_4d/output"
}
layer {
  name: "loss2/ave_pool"
  type: "Pooling"
  bottom: "inception_4d/output"
  top: "loss2/ave_pool"
  pooling_param {
    pool: AVE
    kernel_size: 5
    stride: 3
  }
}
layer {
  name: "loss2/conv"
  type: "Convolution"
  bottom: "loss2/ave_pool"
  top: "loss2/conv"
  param {
    lr_mult: 1
    decay_mult: 1
  }
  param {
    lr_mult: 2
    decay_mult: 0
  }
  convolution_param {
    num_output: 128
    kernel_size: 1
    weight_filler {
      type: "xavier"
    }
    bias_filler {
      type: "constant"
      value: 0.2
    }
  }
}
layer {
  name: "loss2/relu_conv"
  type: "ReLU"
  bottom: "loss2/conv"
  top: "loss2/conv"
}
layer {
  name: "loss2/fc"
  type: "InnerProduct"
  bottom: "loss2/conv"
  top: "loss2/fc"
  param {
    lr_mult: 1
    decay_mult: 1
  }
  param {
    lr_mult: 2
    decay_mult: 0
  }
  inner_product_param {
    num_output: 1024
    weight_filler {
      type: "xavier"
    }
    bias_filler {
      type: "constant"
      value: 0.2
    }
  }
}
layer {
  name: "loss2/relu_fc"
  type: "ReLU"
  bottom: "loss2/fc"
  top: "loss2/fc"
}
layer {
  name: "loss2/drop_fc"
  type: "Dropout"
  bottom: "loss2/fc"
  top: "loss2/fc"
  dropout_param {
    dropout_ratio: 0.7
  }
}
layer {
  name: "loss2/classifier"
  type: "InnerProduct"
  bottom: "loss2/fc"
  top: "loss2/classifier"
  param {
    lr_mult: 1
    decay_mult: 1
  }
  param {
    lr_mult: 2
    decay_mult: 0
  }
  inner_product_param {
    num_output: 1000
    weight_filler {
      type: "xavier"
    }
    bias_filler {
      type: "constant"
      value: 0
    }
  }
}
layer {
  name: "loss2/loss"
  type: "SoftmaxWithLoss"
  bottom: "loss2/classifier"
  bottom: "label"
  top: "loss2/loss1"
  loss_weight: 0.3
}
layer {
  name: "inception_4e/1x1"
  type: "Convolution"
  bottom: "inception_4d/output"
  top: "inception_4e/1x1"
  param {
    lr_mult: 1
    decay_mult: 1
  }
  param {
    lr_mult: 2
    decay_mult: 0
  }
  convolution_param {
    num_output: 256
    kernel_size: 1
    weight_filler {
      type: "xavier"
    }
    bias_filler {
      type: "constant"
      value: 0.2
    }
  }
}
layer {
  name: "inception_4e/relu_1x1"
  type: "ReLU"
  bottom: "inception_4e/1x1"
  top: "inception_4e/1x1"
}
layer {
  name: "inception_4e/3x3_reduce"
  type: "Convolution"
  bottom: "inception_4d/output"
  top: "inception_4e/3x3_reduce"
  param {
    lr_mult: 1
    decay_mult: 1
  }
  param {
    lr_mult: 2
    decay_mult: 0
  }
  convolution_param {
    num_output: 160
    kernel_size: 1
    weight_filler {
      type: "xavier"
    }
    bias_filler {
      type: "constant"
      value: 0.2
    }
  }
}
layer {
  name: "inception_4e/relu_3x3_reduce"
  type: "ReLU"
  bottom: "inception_4e/3x3_reduce"
  top: "inception_4e/3x3_reduce"
}
layer {
  name: "inception_4e/3x3"
  type: "Convolution"
  bottom: "inception_4e/3x3_reduce"
  top: "inception_4e/3x3"
  param {
    lr_mult: 1
    decay_mult: 1
  }
  param {
    lr_mult: 2
    decay_mult: 0
  }
  convolution_param {
    num_output: 320
    pad: 1
    kernel_size: 3
    weight_filler {
      type: "xavier"
    }
    bias_filler {
      type: "constant"
      value: 0.2
    }
  }
}
layer {
  name: "inception_4e/relu_3x3"
  type: "ReLU"
  bottom: "inception_4e/3x3"
  top: "inception_4e/3x3"
}
layer {
  name: "inception_4e/5x5_reduce"
  type: "Convolution"
  bottom: "inception_4d/output"
  top: "inception_4e/5x5_reduce"
  param {
    lr_mult: 1
    decay_mult: 1
  }
  param {
    lr_mult: 2
    decay_mult: 0
  }
  convolution_param {
    num_output: 32
    kernel_size: 1
    weight_filler {
      type: "xavier"
    }
    bias_filler {
      type: "constant"
      value: 0.2
    }
  }
}
layer {
  name: "inception_4e/relu_5x5_reduce"
  type: "ReLU"
  bottom: "inception_4e/5x5_reduce"
  top: "inception_4e/5x5_reduce"
}
layer {
  name: "inception_4e/5x5"
  type: "Convolution"
  bottom: "inception_4e/5x5_reduce"
  top: "inception_4e/5x5"
  param {
    lr_mult: 1
    decay_mult: 1
  }
  param {
    lr_mult: 2
    decay_mult: 0
  }
  convolution_param {
    num_output: 128
    pad: 2
    kernel_size: 5
    weight_filler {
      type: "xavier"
    }
    bias_filler {
      type: "constant"
      value: 0.2
    }
  }
}
layer {
  name: "inception_4e/relu_5x5"
  type: "ReLU"
  bottom: "inception_4e/5x5"
  top: "inception_4e/5x5"
}
layer {
  name: "inception_4e/pool"
  type: "Pooling"
  bottom: "inception_4d/output"
  top: "inception_4e/pool"
  pooling_param {
    pool: MAX
    kernel_size: 3
    stride: 1
    pa
I0504 00:41:34.813901  3080 layer_factory.hpp:77] Creating layer data
I0504 00:41:34.814426  3080 net.cpp:106] Creating Layer data
I0504 00:41:34.814512  3080 net.cpp:411] data -> data
I0504 00:41:34.814560  3080 net.cpp:411] data -> label
I0504 00:41:34.832636  3082 db_lmdb.cpp:38] Opened lmdb data/driving/driving_train_lmdb
I0504 00:41:34.843907  3080 data_layer.cpp:41] output data size: 32,3,224,224
I0504 00:41:34.888180  3080 net.cpp:150] Setting up data
I0504 00:41:34.888243  3080 net.cpp:157] Top shape: 32 3 224 224 (4816896)
I0504 00:41:34.888253  3080 net.cpp:157] Top shape: 32 (32)
I0504 00:41:34.888258  3080 net.cpp:165] Memory required for data: 19267712
I0504 00:41:34.888278  3080 layer_factory.hpp:77] Creating layer label_data_1_split
I0504 00:41:34.888299  3080 net.cpp:106] Creating Layer label_data_1_split
I0504 00:41:34.888309  3080 net.cpp:454] label_data_1_split <- label
I0504 00:41:34.888324  3080 net.cpp:411] label_data_1_split -> label_data_1_split_0
I0504 00:41:34.888342  3080 net.cpp:411] label_data_1_split -> label_data_1_split_1
I0504 00:41:34.888350  3080 net.cpp:411] label_data_1_split -> label_data_1_split_2
I0504 00:41:34.888422  3080 net.cpp:150] Setting up label_data_1_split
I0504 00:41:34.888432  3080 net.cpp:157] Top shape: 32 (32)
I0504 00:41:34.888461  3080 net.cpp:157] Top shape: 32 (32)
I0504 00:41:34.888468  3080 net.cpp:157] Top shape: 32 (32)
I0504 00:41:34.888473  3080 net.cpp:165] Memory required for data: 19268096
I0504 00:41:34.888478  3080 layer_factory.hpp:77] Creating layer conv1/7x7_s2
I0504 00:41:34.888505  3080 net.cpp:106] Creating Layer conv1/7x7_s2
I0504 00:41:34.888511  3080 net.cpp:454] conv1/7x7_s2 <- data
I0504 00:41:34.888522  3080 net.cpp:411] conv1/7x7_s2 -> conv1/7x7_s2
I0504 00:41:34.889469  3080 net.cpp:150] Setting up conv1/7x7_s2
I0504 00:41:34.889484  3080 net.cpp:157] Top shape: 32 64 112 112 (25690112)
I0504 00:41:34.889490  3080 net.cpp:165] Memory required for data: 122028544
I0504 00:41:34.889511  3080 layer_factory.hpp:77] Creating layer conv1/relu_7x7
I0504 00:41:34.889525  3080 net.cpp:106] Creating Layer conv1/relu_7x7
I0504 00:41:34.889531  3080 net.cpp:454] conv1/relu_7x7 <- conv1/7x7_s2
I0504 00:41:34.889539  3080 net.cpp:397] conv1/relu_7x7 -> conv1/7x7_s2 (in-place)
I0504 00:41:34.889551  3080 net.cpp:150] Setting up conv1/relu_7x7
I0504 00:41:34.889559  3080 net.cpp:157] Top shape: 32 64 112 112 (25690112)
I0504 00:41:34.889564  3080 net.cpp:165] Memory required for data: 224788992
I0504 00:41:34.889569  3080 layer_factory.hpp:77] Creating layer pool1/3x3_s2
I0504 00:41:34.889582  3080 net.cpp:106] Creating Layer pool1/3x3_s2
I0504 00:41:34.889588  3080 net.cpp:454] pool1/3x3_s2 <- conv1/7x7_s2
I0504 00:41:34.889595  3080 net.cpp:411] pool1/3x3_s2 -> pool1/3x3_s2
I0504 00:41:34.891919  3080 net.cpp:150] Setting up pool1/3x3_s2
I0504 00:41:34.891932  3080 net.cpp:157] Top shape: 32 64 56 56 (6422528)
I0504 00:41:34.891937  3080 net.cpp:165] Memory required for data: 250479104
I0504 00:41:34.891945  3080 layer_factory.hpp:77] Creating layer pool1/norm1
I0504 00:41:34.891955  3080 net.cpp:106] Creating Layer pool1/norm1
I0504 00:41:34.891960  3080 net.cpp:454] pool1/norm1 <- pool1/3x3_s2
I0504 00:41:34.891970  3080 net.cpp:411] pool1/norm1 -> pool1/norm1
I0504 00:41:34.892015  3080 net.cpp:150] Setting up pool1/norm1
I0504 00:41:34.892025  3080 net.cpp:157] Top shape: 32 64 56 56 (6422528)
I0504 00:41:34.892030  3080 net.cpp:165] Memory required for data: 276169216
I0504 00:41:34.892035  3080 layer_factory.hpp:77] Creating layer conv2/3x3_reduce
I0504 00:41:34.892047  3080 net.cpp:106] Creating Layer conv2/3x3_reduce
I0504 00:41:34.892053  3080 net.cpp:454] conv2/3x3_reduce <- pool1/norm1
I0504 00:41:34.892062  3080 net.cpp:411] conv2/3x3_reduce -> conv2/3x3_reduce
I0504 00:41:34.892789  3080 net.cpp:150] Setting up conv2/3x3_reduce
I0504 00:41:34.892804  3080 net.cpp:157] Top shape: 32 64 56 56 (6422528)
I0504 00:41:34.892809  3080 net.cpp:165] Memory required for data: 301859328
I0504 00:41:34.892820  3080 layer_factory.hpp:77] Creating layer conv2/relu_3x3_reduce
I0504 00:41:34.892828  3080 net.cpp:106] Creating Layer conv2/relu_3x3_reduce
I0504 00:41:34.892833  3080 net.cpp:454] conv2/relu_3x3_reduce <- conv2/3x3_reduce
I0504 00:41:34.892843  3080 net.cpp:397] conv2/relu_3x3_reduce -> conv2/3x3_reduce (in-place)
I0504 00:41:34.892853  3080 net.cpp:150] Setting up conv2/relu_3x3_reduce
I0504 00:41:34.892859  3080 net.cpp:157] Top shape: 32 64 56 56 (6422528)
I0504 00:41:34.892864  3080 net.cpp:165] Memory required for data: 327549440
I0504 00:41:34.892869  3080 layer_factory.hpp:77] Creating layer conv2/3x3
I0504 00:41:34.892882  3080 net.cpp:106] Creating Layer conv2/3x3
I0504 00:41:34.892887  3080 net.cpp:454] conv2/3x3 <- conv2/3x3_reduce
I0504 00:41:34.892895  3080 net.cpp:411] conv2/3x3 -> conv2/3x3
I0504 00:41:34.894351  3080 net.cpp:150] Setting up conv2/3x3
I0504 00:41:34.894368  3080 net.cpp:157] Top shape: 32 192 56 56 (19267584)
I0504 00:41:34.894372  3080 net.cpp:165] Memory required for data: 404619776
I0504 00:41:34.894384  3080 layer_factory.hpp:77] Creating layer conv2/relu_3x3
I0504 00:41:34.894394  3080 net.cpp:106] Creating Layer conv2/relu_3x3
I0504 00:41:34.894403  3080 net.cpp:454] conv2/relu_3x3 <- conv2/3x3
I0504 00:41:34.894412  3080 net.cpp:397] conv2/relu_3x3 -> conv2/3x3 (in-place)
I0504 00:41:34.894434  3080 net.cpp:150] Setting up conv2/relu_3x3
I0504 00:41:34.894443  3080 net.cpp:157] Top shape: 32 192 56 56 (19267584)
I0504 00:41:34.894448  3080 net.cpp:165] Memory required for data: 481690112
I0504 00:41:34.894453  3080 layer_factory.hpp:77] Creating layer conv2/norm2
I0504 00:41:34.894462  3080 net.cpp:106] Creating Layer conv2/norm2
I0504 00:41:34.894467  3080 net.cpp:454] conv2/norm2 <- conv2/3x3
I0504 00:41:34.894475  3080 net.cpp:411] conv2/norm2 -> conv2/norm2
I0504 00:41:34.894516  3080 net.cpp:150] Setting up conv2/norm2
I0504 00:41:34.894526  3080 net.cpp:157] Top shape: 32 192 56 56 (19267584)
I0504 00:41:34.894531  3080 net.cpp:165] Memory required for data: 558760448
I0504 00:41:34.894536  3080 layer_factory.hpp:77] Creating layer pool2/3x3_s2
I0504 00:41:34.894543  3080 net.cpp:106] Creating Layer pool2/3x3_s2
I0504 00:41:34.894548  3080 net.cpp:454] pool2/3x3_s2 <- conv2/norm2
I0504 00:41:34.894558  3080 net.cpp:411] pool2/3x3_s2 -> pool2/3x3_s2
I0504 00:41:34.894595  3080 net.cpp:150] Setting up pool2/3x3_s2
I0504 00:41:34.894604  3080 net.cpp:157] Top shape: 32 192 28 28 (4816896)
I0504 00:41:34.894608  3080 net.cpp:165] Memory required for data: 578028032
I0504 00:41:34.894613  3080 layer_factory.hpp:77] Creating layer pool2/3x3_s2_pool2/3x3_s2_0_split
I0504 00:41:34.894623  3080 net.cpp:106] Creating Layer pool2/3x3_s2_pool2/3x3_s2_0_split
I0504 00:41:34.894629  3080 net.cpp:454] pool2/3x3_s2_pool2/3x3_s2_0_split <- pool2/3x3_s2
I0504 00:41:34.894637  3080 net.cpp:411] pool2/3x3_s2_pool2/3x3_s2_0_split -> pool2/3x3_s2_pool2/3x3_s2_0_split_0
I0504 00:41:34.894646  3080 net.cpp:411] pool2/3x3_s2_pool2/3x3_s2_0_split -> pool2/3x3_s2_pool2/3x3_s2_0_split_1
I0504 00:41:34.894654  3080 net.cpp:411] pool2/3x3_s2_pool2/3x3_s2_0_split -> pool2/3x3_s2_pool2/3x3_s2_0_split_2
I0504 00:41:34.894661  3080 net.cpp:411] pool2/3x3_s2_pool2/3x3_s2_0_split -> pool2/3x3_s2_pool2/3x3_s2_0_split_3
I0504 00:41:34.894712  3080 net.cpp:150] Setting up pool2/3x3_s2_pool2/3x3_s2_0_split
I0504 00:41:34.894722  3080 net.cpp:157] Top shape: 32 192 28 28 (4816896)
I0504 00:41:34.894728  3080 net.cpp:157] Top shape: 32 192 28 28 (4816896)
I0504 00:41:34.894734  3080 net.cpp:157] Top shape: 32 192 28 28 (4816896)
I0504 00:41:34.894739  3080 net.cpp:157] Top shape: 32 192 28 28 (4816896)
I0504 00:41:34.894744  3080 net.cpp:165] Memory required for data: 655098368
I0504 00:41:34.894748  3080 layer_factory.hpp:77] Creating layer inception_3a/1x1
I0504 00:41:34.894762  3080 net.cpp:106] Creating Layer inception_3a/1x1
I0504 00:41:34.894768  3080 net.cpp:454] inception_3a/1x1 <- pool2/3x3_s2_pool2/3x3_s2_0_split_0
I0504 00:41:34.894779  3080 net.cpp:411] inception_3a/1x1 -> inception_3a/1x1
I0504 00:41:34.895545  3080 net.cpp:150] Setting up inception_3a/1x1
I0504 00:41:34.895565  3080 net.cpp:157] Top shape: 32 64 28 28 (1605632)
I0504 00:41:34.895570  3080 net.cpp:165] Memory required for data: 661520896
I0504 00:41:34.895578  3080 layer_factory.hpp:77] Creating layer inception_3a/relu_1x1
I0504 00:41:34.895586  3080 net.cpp:106] Creating Layer inception_3a/relu_1x1
I0504 00:41:34.895592  3080 net.cpp:454] inception_3a/relu_1x1 <- inception_3a/1x1
I0504 00:41:34.895602  3080 net.cpp:397] inception_3a/relu_1x1 -> inception_3a/1x1 (in-place)
I0504 00:41:34.895612  3080 net.cpp:150] Setting up inception_3a/relu_1x1
I0504 00:41:34.895619  3080 net.cpp:157] Top shape: 32 64 28 28 (1605632)
I0504 00:41:34.895623  3080 net.cpp:165] Memory required for data: 667943424
I0504 00:41:34.895628  3080 layer_factory.hpp:77] Creating layer inception_3a/3x3_reduce
I0504 00:41:34.895638  3080 net.cpp:106] Creating Layer inception_3a/3x3_reduce
I0504 00:41:34.895643  3080 net.cpp:454] inception_3a/3x3_reduce <- pool2/3x3_s2_pool2/3x3_s2_0_split_1
I0504 00:41:34.895654  3080 net.cpp:411] inception_3a/3x3_reduce -> inception_3a/3x3_reduce
I0504 00:41:34.896494  3080 net.cpp:150] Setting up inception_3a/3x3_reduce
I0504 00:41:34.896515  3080 net.cpp:157] Top shape: 32 96 28 28 (2408448)
I0504 00:41:34.896535  3080 net.cpp:165] Memory required for data: 677577216
I0504 00:41:34.896549  3080 layer_factory.hpp:77] Creating layer inception_3a/relu_3x3_reduce
I0504 00:41:34.896564  3080 net.cpp:106] Creating Layer inception_3a/relu_3x3_reduce
I0504 00:41:34.896569  3080 net.cpp:454] inception_3a/relu_3x3_reduce <- inception_3a/3x3_reduce
I0504 00:41:34.896577  3080 net.cpp:397] inception_3a/relu_3x3_reduce -> inception_3a/3x3_reduce (in-place)
I0504 00:41:34.896586  3080 net.cpp:150] Setting up inception_3a/relu_3x3_reduce
I0504 00:41:34.896594  3080 net.cpp:157] Top shape: 32 96 28 28 (2408448)
I0504 00:41:34.896597  3080 net.cpp:165] Memory required for data: 687211008
I0504 00:41:34.896602  3080 layer_factory.hpp:77] Creating layer inception_3a/3x3
I0504 00:41:34.896615  3080 net.cpp:106] Creating Layer inception_3a/3x3
I0504 00:41:34.896620  3080 net.cpp:454] inception_3a/3x3 <- inception_3a/3x3_reduce
I0504 00:41:34.896630  3080 net.cpp:411] inception_3a/3x3 -> inception_3a/3x3
I0504 00:41:34.897588  3080 net.cpp:150] Setting up inception_3a/3x3
I0504 00:41:34.897601  3080 net.cpp:157] Top shape: 32 128 28 28 (3211264)
I0504 00:41:34.897606  3080 net.cpp:165] Memory required for data: 700056064
I0504 00:41:34.897614  3080 layer_factory.hpp:77] Creating layer inception_3a/relu_3x3
I0504 00:41:34.897622  3080 net.cpp:106] Creating Layer inception_3a/relu_3x3
I0504 00:41:34.897627  3080 net.cpp:454] inception_3a/relu_3x3 <- inception_3a/3x3
I0504 00:41:34.897636  3080 net.cpp:397] inception_3a/relu_3x3 -> inception_3a/3x3 (in-place)
I0504 00:41:34.897645  3080 net.cpp:150] Setting up inception_3a/relu_3x3
I0504 00:41:34.897652  3080 net.cpp:157] Top shape: 32 128 28 28 (3211264)
I0504 00:41:34.897657  3080 net.cpp:165] Memory required for data: 712901120
I0504 00:41:34.897661  3080 layer_factory.hpp:77] Creating layer inception_3a/5x5_reduce
I0504 00:41:34.897672  3080 net.cpp:106] Creating Layer inception_3a/5x5_reduce
I0504 00:41:34.897678  3080 net.cpp:454] inception_3a/5x5_reduce <- pool2/3x3_s2_pool2/3x3_s2_0_split_2
I0504 00:41:34.897686  3080 net.cpp:411] inception_3a/5x5_reduce -> inception_3a/5x5_reduce
I0504 00:41:34.897914  3080 net.cpp:150] Setting up inception_3a/5x5_reduce
I0504 00:41:34.897928  3080 net.cpp:157] Top shape: 32 16 28 28 (401408)
I0504 00:41:34.897933  3080 net.cpp:165] Memory required for data: 714506752
I0504 00:41:34.897941  3080 layer_factory.hpp:77] Creating layer inception_3a/relu_5x5_reduce
I0504 00:41:34.897948  3080 net.cpp:106] Creating Layer inception_3a/relu_5x5_reduce
I0504 00:41:34.897953  3080 net.cpp:454] inception_3a/relu_5x5_reduce <- inception_3a/5x5_reduce
I0504 00:41:34.897961  3080 net.cpp:397] inception_3a/relu_5x5_reduce -> inception_3a/5x5_reduce (in-place)
I0504 00:41:34.897969  3080 net.cpp:150] Setting up inception_3a/relu_5x5_reduce
I0504 00:41:34.897976  3080 net.cpp:157] Top shape: 32 16 28 28 (401408)
I0504 00:41:34.897980  3080 net.cpp:165] Memory required for data: 716112384
I0504 00:41:34.897984  3080 layer_factory.hpp:77] Creating layer inception_3a/5x5
I0504 00:41:34.897996  3080 net.cpp:106] Creating Layer inception_3a/5x5
I0504 00:41:34.898002  3080 net.cpp:454] inception_3a/5x5 <- inception_3a/5x5_reduce
I0504 00:41:34.898011  3080 net.cpp:411] inception_3a/5x5 -> inception_3a/5x5
I0504 00:41:34.898308  3080 net.cpp:150] Setting up inception_3a/5x5
I0504 00:41:34.898320  3080 net.cpp:157] Top shape: 32 32 28 28 (802816)
I0504 00:41:34.898325  3080 net.cpp:165] Memory required for data: 719323648
I0504 00:41:34.898334  3080 layer_factory.hpp:77] Creating layer inception_3a/relu_5x5
I0504 00:41:34.898342  3080 net.cpp:106] Creating Layer inception_3a/relu_5x5
I0504 00:41:34.898347  3080 net.cpp:454] inception_3a/relu_5x5 <- inception_3a/5x5
I0504 00:41:34.898355  3080 net.cpp:397] inception_3a/relu_5x5 -> inception_3a/5x5 (in-place)
I0504 00:41:34.898363  3080 net.cpp:150] Setting up inception_3a/relu_5x5
I0504 00:41:34.898370  3080 net.cpp:157] Top shape: 32 32 28 28 (802816)
I0504 00:41:34.898377  3080 net.cpp:165] Memory required for data: 722534912
I0504 00:41:34.898391  3080 layer_factory.hpp:77] Creating layer inception_3a/pool
I0504 00:41:34.898401  3080 net.cpp:106] Creating Layer inception_3a/pool
I0504 00:41:34.898407  3080 net.cpp:454] inception_3a/pool <- pool2/3x3_s2_pool2/3x3_s2_0_split_3
I0504 00:41:34.898414  3080 net.cpp:411] inception_3a/pool -> inception_3a/pool
I0504 00:41:34.898458  3080 net.cpp:150] Setting up inception_3a/pool
I0504 00:41:34.898468  3080 net.cpp:157] Top shape: 32 192 28 28 (4816896)
I0504 00:41:34.898471  3080 net.cpp:165] Memory required for data: 741802496
I0504 00:41:34.898476  3080 layer_factory.hpp:77] Creating layer inception_3a/pool_proj
I0504 00:41:34.898489  3080 net.cpp:106] Creating Layer inception_3a/pool_proj
I0504 00:41:34.898495  3080 net.cpp:454] inception_3a/pool_proj <- inception_3a/pool
I0504 00:41:34.898505  3080 net.cpp:411] inception_3a/pool_proj -> inception_3a/pool_proj
I0504 00:41:34.898747  3080 net.cpp:150] Setting up inception_3a/pool_proj
I0504 00:41:34.898759  3080 net.cpp:157] Top shape: 32 32 28 28 (802816)
I0504 00:41:34.898764  3080 net.cpp:165] Memory required for data: 745013760
I0504 00:41:34.898777  3080 layer_factory.hpp:77] Creating layer inception_3a/relu_pool_proj
I0504 00:41:34.898785  3080 net.cpp:106] Creating Layer inception_3a/relu_pool_proj
I0504 00:41:34.898792  3080 net.cpp:454] inception_3a/relu_pool_proj <- inception_3a/pool_proj
I0504 00:41:34.898800  3080 net.cpp:397] inception_3a/relu_pool_proj -> inception_3a/pool_proj (in-place)
I0504 00:41:34.898809  3080 net.cpp:150] Setting up inception_3a/relu_pool_proj
I0504 00:41:34.898816  3080 net.cpp:157] Top shape: 32 32 28 28 (802816)
I0504 00:41:34.898820  3080 net.cpp:165] Memory required for data: 748225024
I0504 00:41:34.898825  3080 layer_factory.hpp:77] Creating layer inception_3a/output
I0504 00:41:34.898836  3080 net.cpp:106] Creating Layer inception_3a/output
I0504 00:41:34.898841  3080 net.cpp:454] inception_3a/output <- inception_3a/1x1
I0504 00:41:34.898847  3080 net.cpp:454] inception_3a/output <- inception_3a/3x3
I0504 00:41:34.898854  3080 net.cpp:454] inception_3a/output <- inception_3a/5x5
I0504 00:41:34.898859  3080 net.cpp:454] inception_3a/output <- inception_3a/pool_proj
I0504 00:41:34.898864  3080 net.cpp:411] inception_3a/output -> inception_3a/output
I0504 00:41:34.898896  3080 net.cpp:150] Setting up inception_3a/output
I0504 00:41:34.898906  3080 net.cpp:157] Top shape: 32 256 28 28 (6422528)
I0504 00:41:34.898911  3080 net.cpp:165] Memory required for data: 773915136
I0504 00:41:34.898916  3080 layer_factory.hpp:77] Creating layer inception_3a/output_inception_3a/output_0_split
I0504 00:41:34.898923  3080 net.cpp:106] Creating Layer inception_3a/output_inception_3a/output_0_split
I0504 00:41:34.898928  3080 net.cpp:454] inception_3a/output_inception_3a/output_0_split <- inception_3a/output
I0504 00:41:34.898939  3080 net.cpp:411] inception_3a/output_inception_3a/output_0_split -> inception_3a/output_inception_3a/output_0_split_0
I0504 00:41:34.898947  3080 net.cpp:411] inception_3a/output_inception_3a/output_0_split -> inception_3a/output_inception_3a/output_0_split_1
I0504 00:41:34.898957  3080 net.cpp:411] inception_3a/output_inception_3a/output_0_split -> inception_3a/output_inception_3a/output_0_split_2
I0504 00:41:34.898963  3080 net.cpp:411] inception_3a/output_inception_3a/output_0_split -> inception_3a/output_inception_3a/output_0_split_3
I0504 00:41:34.899019  3080 net.cpp:150] Setting up inception_3a/output_inception_3a/output_0_split
I0504 00:41:34.899027  3080 net.cpp:157] Top shape: 32 256 28 28 (6422528)
I0504 00:41:34.899034  3080 net.cpp:157] Top shape: 32 256 28 28 (6422528)
I0504 00:41:34.899039  3080 net.cpp:157] Top shape: 32 256 28 28 (6422528)
I0504 00:41:34.899045  3080 net.cpp:157] Top shape: 32 256 28 28 (6422528)
I0504 00:41:34.899049  3080 net.cpp:165] Memory required for data: 876675584
I0504 00:41:34.899055  3080 layer_factory.hpp:77] Creating layer inception_3b/1x1
I0504 00:41:34.899068  3080 net.cpp:106] Creating Layer inception_3b/1x1
I0504 00:41:34.899075  3080 net.cpp:454] inception_3b/1x1 <- inception_3a/output_inception_3a/output_0_split_0
I0504 00:41:34.899093  3080 net.cpp:411] inception_3b/1x1 -> inception_3b/1x1
I0504 00:41:34.899516  3080 net.cpp:150] Setting up inception_3b/1x1
I0504 00:41:34.899529  3080 net.cpp:157] Top shape: 32 128 28 28 (3211264)
I0504 00:41:34.899533  3080 net.cpp:165] Memory required for data: 889520640
I0504 00:41:34.899543  3080 layer_factory.hpp:77] Creating layer inception_3b/relu_1x1
I0504 00:41:34.899549  3080 net.cpp:106] Creating Layer inception_3b/relu_1x1
I0504 00:41:34.899554  3080 net.cpp:454] inception_3b/relu_1x1 <- inception_3b/1x1
I0504 00:41:34.899564  3080 net.cpp:397] inception_3b/relu_1x1 -> inception_3b/1x1 (in-place)
I0504 00:41:34.899574  3080 net.cpp:150] Setting up inception_3b/relu_1x1
I0504 00:41:34.899580  3080 net.cpp:157] Top shape: 32 128 28 28 (3211264)
I0504 00:41:34.899585  3080 net.cpp:165] Memory required for data: 902365696
I0504 00:41:34.899588  3080 layer_factory.hpp:77] Creating layer inception_3b/3x3_reduce
I0504 00:41:34.899600  3080 net.cpp:106] Creating Layer inception_3b/3x3_reduce
I0504 00:41:34.899606  3080 net.cpp:454] inception_3b/3x3_reduce <- inception_3a/output_inception_3a/output_0_split_1
I0504 00:41:34.899615  3080 net.cpp:411] inception_3b/3x3_reduce -> inception_3b/3x3_reduce
I0504 00:41:34.900059  3080 net.cpp:150] Setting up inception_3b/3x3_reduce
I0504 00:41:34.900074  3080 net.cpp:157] Top shape: 32 128 28 28 (3211264)
I0504 00:41:34.900077  3080 net.cpp:165] Memory required for data: 915210752
I0504 00:41:34.900085  3080 layer_factory.hpp:77] Creating layer inception_3b/relu_3x3_reduce
I0504 00:41:34.900094  3080 net.cpp:106] Creating Layer inception_3b/relu_3x3_reduce
I0504 00:41:34.900099  3080 net.cpp:454] inception_3b/relu_3x3_reduce <- inception_3b/3x3_reduce
I0504 00:41:34.900110  3080 net.cpp:397] inception_3b/relu_3x3_reduce -> inception_3b/3x3_reduce (in-place)
I0504 00:41:34.900120  3080 net.cpp:150] Setting up inception_3b/relu_3x3_reduce
I0504 00:41:34.900125  3080 net.cpp:157] Top shape: 32 128 28 28 (3211264)
I0504 00:41:34.900130  3080 net.cpp:165] Memory required for data: 928055808
I0504 00:41:34.900135  3080 layer_factory.hpp:77] Creating layer inception_3b/3x3
I0504 00:41:34.900149  3080 net.cpp:106] Creating Layer inception_3b/3x3
I0504 00:41:34.900154  3080 net.cpp:454] inception_3b/3x3 <- inception_3b/3x3_reduce
I0504 00:41:34.900166  3080 net.cpp:411] inception_3b/3x3 -> inception_3b/3x3
I0504 00:41:34.902389  3080 net.cpp:150] Setting up inception_3b/3x3
I0504 00:41:34.902405  3080 net.cpp:157] Top shape: 32 192 28 28 (4816896)
I0504 00:41:34.902410  3080 net.cpp:165] Memory required for data: 947323392
I0504 00:41:34.902420  3080 layer_factory.hpp:77] Creating layer inception_3b/relu_3x3
I0504 00:41:34.902431  3080 net.cpp:106] Creating Layer inception_3b/relu_3x3
I0504 00:41:34.902436  3080 net.cpp:454] inception_3b/relu_3x3 <- inception_3b/3x3
I0504 00:41:34.902444  3080 net.cpp:397] inception_3b/relu_3x3 -> inception_3b/3x3 (in-place)
I0504 00:41:34.902456  3080 net.cpp:150] Setting up inception_3b/relu_3x3
I0504 00:41:34.902464  3080 net.cpp:157] Top shape: 32 192 28 28 (4816896)
I0504 00:41:34.902468  3080 net.cpp:165] Memory required for data: 966590976
I0504 00:41:34.902473  3080 layer_factory.hpp:77] Creating layer inception_3b/5x5_reduce
I0504 00:41:34.902485  3080 net.cpp:106] Creating Layer inception_3b/5x5_reduce
I0504 00:41:34.902492  3080 net.cpp:454] inception_3b/5x5_reduce <- inception_3a/output_inception_3a/output_0_split_2
I0504 00:41:34.902501  3080 net.cpp:411] inception_3b/5x5_reduce -> inception_3b/5x5_reduce
I0504 00:41:34.902770  3080 net.cpp:150] Setting up inception_3b/5x5_reduce
I0504 00:41:34.902782  3080 net.cpp:157] Top shape: 32 32 28 28 (802816)
I0504 00:41:34.902787  3080 net.cpp:165] Memory required for data: 969802240
I0504 00:41:34.902794  3080 layer_factory.hpp:77] Creating layer inception_3b/relu_5x5_reduce
I0504 00:41:34.902804  3080 net.cpp:106] Creating Layer inception_3b/relu_5x5_reduce
I0504 00:41:34.902813  3080 net.cpp:454] inception_3b/relu_5x5_reduce <- inception_3b/5x5_reduce
I0504 00:41:34.902833  3080 net.cpp:397] inception_3b/relu_5x5_reduce -> inception_3b/5x5_reduce (in-place)
I0504 00:41:34.902844  3080 net.cpp:150] Setting up inception_3b/relu_5x5_reduce
I0504 00:41:34.902851  3080 net.cpp:157] Top shape: 32 32 28 28 (802816)
I0504 00:41:34.902856  3080 net.cpp:165] Memory required for data: 973013504
I0504 00:41:34.902860  3080 layer_factory.hpp:77] Creating layer inception_3b/5x5
I0504 00:41:34.902873  3080 net.cpp:106] Creating Layer inception_3b/5x5
I0504 00:41:34.902878  3080 net.cpp:454] inception_3b/5x5 <- inception_3b/5x5_reduce
I0504 00:41:34.902890  3080 net.cpp:411] inception_3b/5x5 -> inception_3b/5x5
I0504 00:41:34.904170  3080 net.cpp:150] Setting up inception_3b/5x5
I0504 00:41:34.904188  3080 net.cpp:157] Top shape: 32 96 28 28 (2408448)
I0504 00:41:34.904193  3080 net.cpp:165] Memory required for data: 982647296
I0504 00:41:34.904201  3080 layer_factory.hpp:77] Creating layer inception_3b/relu_5x5
I0504 00:41:34.904211  3080 net.cpp:106] Creating Layer inception_3b/relu_5x5
I0504 00:41:34.904216  3080 net.cpp:454] inception_3b/relu_5x5 <- inception_3b/5x5
I0504 00:41:34.904225  3080 net.cpp:397] inception_3b/relu_5x5 -> inception_3b/5x5 (in-place)
I0504 00:41:34.904237  3080 net.cpp:150] Setting up inception_3b/relu_5x5
I0504 00:41:34.904242  3080 net.cpp:157] Top shape: 32 96 28 28 (2408448)
I0504 00:41:34.904247  3080 net.cpp:165] Memory required for data: 992281088
I0504 00:41:34.904252  3080 layer_factory.hpp:77] Creating layer inception_3b/pool
I0504 00:41:34.904258  3080 net.cpp:106] Creating Layer inception_3b/pool
I0504 00:41:34.904264  3080 net.cpp:454] inception_3b/pool <- inception_3a/output_inception_3a/output_0_split_3
I0504 00:41:34.904271  3080 net.cpp:411] inception_3b/pool -> inception_3b/pool
I0504 00:41:34.904314  3080 net.cpp:150] Setting up inception_3b/pool
I0504 00:41:34.904323  3080 net.cpp:157] Top shape: 32 256 28 28 (6422528)
I0504 00:41:34.904327  3080 net.cpp:165] Memory required for data: 1017971200
I0504 00:41:34.904332  3080 layer_factory.hpp:77] Creating layer inception_3b/pool_proj
I0504 00:41:34.904345  3080 net.cpp:106] Creating Layer inception_3b/pool_proj
I0504 00:41:34.904350  3080 net.cpp:454] inception_3b/pool_proj <- inception_3b/pool
I0504 00:41:34.904361  3080 net.cpp:411] inception_3b/pool_proj -> inception_3b/pool_proj
I0504 00:41:34.904685  3080 net.cpp:150] Setting up inception_3b/pool_proj
I0504 00:41:34.904697  3080 net.cpp:157] Top shape: 32 64 28 28 (1605632)
I0504 00:41:34.904702  3080 net.cpp:165] Memory required for data: 1024393728
I0504 00:41:34.904711  3080 layer_factory.hpp:77] Creating layer inception_3b/relu_pool_proj
I0504 00:41:34.904721  3080 net.cpp:106] Creating Layer inception_3b/relu_pool_proj
I0504 00:41:34.904726  3080 net.cpp:454] inception_3b/relu_pool_proj <- inception_3b/pool_proj
I0504 00:41:34.904734  3080 net.cpp:397] inception_3b/relu_pool_proj -> inception_3b/pool_proj (in-place)
I0504 00:41:34.904747  3080 net.cpp:150] Setting up inception_3b/relu_pool_proj
I0504 00:41:34.904754  3080 net.cpp:157] Top shape: 32 64 28 28 (1605632)
I0504 00:41:34.904758  3080 net.cpp:165] Memory required for data: 1030816256
I0504 00:41:34.904763  3080 layer_factory.hpp:77] Creating layer inception_3b/output
I0504 00:41:34.904770  3080 net.cpp:106] Creating Layer inception_3b/output
I0504 00:41:34.904775  3080 net.cpp:454] inception_3b/output <- inception_3b/1x1
I0504 00:41:34.904781  3080 net.cpp:454] inception_3b/output <- inception_3b/3x3
I0504 00:41:34.904788  3080 net.cpp:454] inception_3b/output <- inception_3b/5x5
I0504 00:41:34.904793  3080 net.cpp:454] inception_3b/output <- inception_3b/pool_proj
I0504 00:41:34.904799  3080 net.cpp:411] inception_3b/output -> inception_3b/output
I0504 00:41:34.904829  3080 net.cpp:150] Setting up inception_3b/output
I0504 00:41:34.904839  3080 net.cpp:157] Top shape: 32 480 28 28 (12042240)
I0504 00:41:34.904847  3080 net.cpp:165] Memory required for data: 1078985216
I0504 00:41:34.904852  3080 layer_factory.hpp:77] Creating layer pool3/3x3_s2
I0504 00:41:34.904870  3080 net.cpp:106] Creating Layer pool3/3x3_s2
I0504 00:41:34.904876  3080 net.cpp:454] pool3/3x3_s2 <- inception_3b/output
I0504 00:41:34.904886  3080 net.cpp:411] pool3/3x3_s2 -> pool3/3x3_s2
I0504 00:41:34.904927  3080 net.cpp:150] Setting up pool3/3x3_s2
I0504 00:41:34.904939  3080 net.cpp:157] Top shape: 32 480 14 14 (3010560)
I0504 00:41:34.904945  3080 net.cpp:165] Memory required for data: 1091027456
I0504 00:41:34.904950  3080 layer_factory.hpp:77] Creating layer pool3/3x3_s2_pool3/3x3_s2_0_split
I0504 00:41:34.904958  3080 net.cpp:106] Creating Layer pool3/3x3_s2_pool3/3x3_s2_0_split
I0504 00:41:34.904963  3080 net.cpp:454] pool3/3x3_s2_pool3/3x3_s2_0_split <- pool3/3x3_s2
I0504 00:41:34.904970  3080 net.cpp:411] pool3/3x3_s2_pool3/3x3_s2_0_split -> pool3/3x3_s2_pool3/3x3_s2_0_split_0
I0504 00:41:34.904978  3080 net.cpp:411] pool3/3x3_s2_pool3/3x3_s2_0_split -> pool3/3x3_s2_pool3/3x3_s2_0_split_1
I0504 00:41:34.904989  3080 net.cpp:411] pool3/3x3_s2_pool3/3x3_s2_0_split -> pool3/3x3_s2_pool3/3x3_s2_0_split_2
I0504 00:41:34.904996  3080 net.cpp:411] pool3/3x3_s2_pool3/3x3_s2_0_split -> pool3/3x3_s2_pool3/3x3_s2_0_split_3
I0504 00:41:34.905056  3080 net.cpp:150] Setting up pool3/3x3_s2_pool3/3x3_s2_0_split
I0504 00:41:34.905066  3080 net.cpp:157] Top shape: 32 480 14 14 (3010560)
I0504 00:41:34.905072  3080 net.cpp:157] Top shape: 32 480 14 14 (3010560)
I0504 00:41:34.905078  3080 net.cpp:157] Top shape: 32 480 14 14 (3010560)
I0504 00:41:34.905083  3080 net.cpp:157] Top shape: 32 480 14 14 (3010560)
I0504 00:41:34.905088  3080 net.cpp:165] Memory required for data: 1139196416
I0504 00:41:34.905093  3080 layer_factory.hpp:77] Creating layer inception_4a/1x1
I0504 00:41:34.905107  3080 net.cpp:106] Creating Layer inception_4a/1x1
I0504 00:41:34.905113  3080 net.cpp:454] inception_4a/1x1 <- pool3/3x3_s2_pool3/3x3_s2_0_split_0
I0504 00:41:34.905123  3080 net.cpp:411] inception_4a/1x1 -> inception_4a/1x1
I0504 00:41:34.905942  3080 net.cpp:150] Setting up inception_4a/1x1
I0504 00:41:34.905956  3080 net.cpp:157] Top shape: 32 192 14 14 (1204224)
I0504 00:41:34.905961  3080 net.cpp:165] Memory required for data: 1144013312
I0504 00:41:34.905968  3080 layer_factory.hpp:77] Creating layer inception_4a/relu_1x1
I0504 00:41:34.905975  3080 net.cpp:106] Creating Layer inception_4a/relu_1x1
I0504 00:41:34.905982  3080 net.cpp:454] inception_4a/relu_1x1 <- inception_4a/1x1
I0504 00:41:34.905992  3080 net.cpp:397] inception_4a/relu_1x1 -> inception_4a/1x1 (in-place)
I0504 00:41:34.906002  3080 net.cpp:150] Setting up inception_4a/relu_1x1
I0504 00:41:34.906009  3080 net.cpp:157] Top shape: 32 192 14 14 (1204224)
I0504 00:41:34.906013  3080 net.cpp:165] Memory required for data: 1148830208
I0504 00:41:34.906018  3080 layer_factory.hpp:77] Creating layer inception_4a/3x3_reduce
I0504 00:41:34.906028  3080 net.cpp:106] Creating Layer inception_4a/3x3_reduce
I0504 00:41:34.906033  3080 net.cpp:454] inception_4a/3x3_reduce <- pool3/3x3_s2_pool3/3x3_s2_0_split_1
I0504 00:41:34.906044  3080 net.cpp:411] inception_4a/3x3_reduce -> inception_4a/3x3_reduce
I0504 00:41:34.906584  3080 net.cpp:150] Setting up inception_4a/3x3_reduce
I0504 00:41:34.906595  3080 net.cpp:157] Top shape: 32 96 14 14 (602112)
I0504 00:41:34.906600  3080 net.cpp:165] Memory required for data: 1151238656
I0504 00:41:34.906616  3080 layer_factory.hpp:77] Creating layer inception_4a/relu_3x3_reduce
I0504 00:41:34.906626  3080 net.cpp:106] Creating Layer inception_4a/relu_3x3_reduce
I0504 00:41:34.906632  3080 net.cpp:454] inception_4a/relu_3x3_reduce <- inception_4a/3x3_reduce
I0504 00:41:34.906641  3080 net.cpp:397] inception_4a/relu_3x3_reduce -> inception_4a/3x3_reduce (in-place)
I0504 00:41:34.906649  3080 net.cpp:150] Setting up inception_4a/relu_3x3_reduce
I0504 00:41:34.906657  3080 net.cpp:157] Top shape: 32 96 14 14 (602112)
I0504 00:41:34.906662  3080 net.cpp:165] Memory required for data: 1153647104
I0504 00:41:34.906671  3080 layer_factory.hpp:77] Creating layer inception_4a/3x3
I0504 00:41:34.906688  3080 net.cpp:106] Creating Layer inception_4a/3x3
I0504 00:41:34.906694  3080 net.cpp:454] inception_4a/3x3 <- inception_4a/3x3_reduce
I0504 00:41:34.906704  3080 net.cpp:411] inception_4a/3x3 -> inception_4a/3x3
I0504 00:41:34.908660  3080 net.cpp:150] Setting up inception_4a/3x3
I0504 00:41:34.908679  3080 net.cpp:157] Top shape: 32 208 14 14 (1304576)
I0504 00:41:34.908685  3080 net.cpp:165] Memory required for data: 1158865408
I0504 00:41:34.908694  3080 layer_factory.hpp:77] Creating layer inception_4a/relu_3x3
I0504 00:41:34.908702  3080 net.cpp:106] Creating Layer inception_4a/relu_3x3
I0504 00:41:34.908707  3080 net.cpp:454] inception_4a/relu_3x3 <- inception_4a/3x3
I0504 00:41:34.908717  3080 net.cpp:397] inception_4a/relu_3x3 -> inception_4a/3x3 (in-place)
I0504 00:41:34.908727  3080 net.cpp:150] Setting up inception_4a/relu_3x3
I0504 00:41:34.908735  3080 net.cpp:157] Top shape: 32 208 14 14 (1304576)
I0504 00:41:34.908738  3080 net.cpp:165] Memory required for data: 1164083712
I0504 00:41:34.908743  3080 layer_factory.hpp:77] Creating layer inception_4a/5x5_reduce
I0504 00:41:34.908753  3080 net.cpp:106] Creating Layer inception_4a/5x5_reduce
I0504 00:41:34.908761  3080 net.cpp:454] inception_4a/5x5_reduce <- pool3/3x3_s2_pool3/3x3_s2_0_split_2
I0504 00:41:34.908771  3080 net.cpp:411] inception_4a/5x5_reduce -> inception_4a/5x5_reduce
I0504 00:41:34.909042  3080 net.cpp:150] Setting up inception_4a/5x5_reduce
I0504 00:41:34.909054  3080 net.cpp:157] Top shape: 32 16 14 14 (100352)
I0504 00:41:34.909060  3080 net.cpp:165] Memory required for data: 1164485120
I0504 00:41:34.909066  3080 layer_factory.hpp:77] Creating layer inception_4a/relu_5x5_reduce
I0504 00:41:34.909075  3080 net.cpp:106] Creating Layer inception_4a/relu_5x5_reduce
I0504 00:41:34.909080  3080 net.cpp:454] inception_4a/relu_5x5_reduce <- inception_4a/5x5_reduce
I0504 00:41:34.909090  3080 net.cpp:397] inception_4a/relu_5x5_reduce -> inception_4a/5x5_reduce (in-place)
I0504 00:41:34.909098  3080 net.cpp:150] Setting up inception_4a/relu_5x5_reduce
I0504 00:41:34.909106  3080 net.cpp:157] Top shape: 32 16 14 14 (100352)
I0504 00:41:34.909109  3080 net.cpp:165] Memory required for data: 1164886528
I0504 00:41:34.909114  3080 layer_factory.hpp:77] Creating layer inception_4a/5x5
I0504 00:41:34.909126  3080 net.cpp:106] Creating Layer inception_4a/5x5
I0504 00:41:34.909132  3080 net.cpp:454] inception_4a/5x5 <- inception_4a/5x5_reduce
I0504 00:41:34.909143  3080 net.cpp:411] inception_4a/5x5 -> inception_4a/5x5
I0504 00:41:34.909489  3080 net.cpp:150] Setting up inception_4a/5x5
I0504 00:41:34.909502  3080 net.cpp:157] Top shape: 32 48 14 14 (301056)
I0504 00:41:34.909507  3080 net.cpp:165] Memory required for data: 1166090752
I0504 00:41:34.909514  3080 layer_factory.hpp:77] Creating layer inception_4a/relu_5x5
I0504 00:41:34.909523  3080 net.cpp:106] Creating Layer inception_4a/relu_5x5
I0504 00:41:34.909529  3080 net.cpp:454] inception_4a/relu_5x5 <- inception_4a/5x5
I0504 00:41:34.909536  3080 net.cpp:397] inception_4a/relu_5x5 -> inception_4a/5x5 (in-place)
I0504 00:41:34.909545  3080 net.cpp:150] Setting up inception_4a/relu_5x5
I0504 00:41:34.909551  3080 net.cpp:157] Top shape: 32 48 14 14 (301056)
I0504 00:41:34.909556  3080 net.cpp:165] Memory required for data: 1167294976
I0504 00:41:34.909560  3080 layer_factory.hpp:77] Creating layer inception_4a/pool
I0504 00:41:34.909569  3080 net.cpp:106] Creating Layer inception_4a/pool
I0504 00:41:34.909574  3080 net.cpp:454] inception_4a/pool <- pool3/3x3_s2_pool3/3x3_s2_0_split_3
I0504 00:41:34.909582  3080 net.cpp:411] inception_4a/pool -> inception_4a/pool
I0504 00:41:34.909624  3080 net.cpp:150] Setting up inception_4a/pool
I0504 00:41:34.909633  3080 net.cpp:157] Top shape: 32 480 14 14 (3010560)
I0504 00:41:34.909638  3080 net.cpp:165] Memory required for data: 1179337216
I0504 00:41:34.909643  3080 layer_factory.hpp:77] Creating layer inception_4a/pool_proj
I0504 00:41:34.909656  3080 net.cpp:106] Creating Layer inception_4a/pool_proj
I0504 00:41:34.909665  3080 net.cpp:454] inception_4a/pool_proj <- inception_4a/pool
I0504 00:41:34.909684  3080 net.cpp:411] inception_4a/pool_proj -> inception_4a/pool_proj
I0504 00:41:34.910115  3080 net.cpp:150] Setting up inception_4a/pool_proj
I0504 00:41:34.910128  3080 net.cpp:157] Top shape: 32 64 14 14 (401408)
I0504 00:41:34.910133  3080 net.cpp:165] Memory required for data: 1180942848
I0504 00:41:34.910141  3080 layer_factory.hpp:77] Creating layer inception_4a/relu_pool_proj
I0504 00:41:34.910148  3080 net.cpp:106] Creating Layer inception_4a/relu_pool_proj
I0504 00:41:34.910154  3080 net.cpp:454] inception_4a/relu_pool_proj <- inception_4a/pool_proj
I0504 00:41:34.910166  3080 net.cpp:397] inception_4a/relu_pool_proj -> inception_4a/pool_proj (in-place)
I0504 00:41:34.910174  3080 net.cpp:150] Setting up inception_4a/relu_pool_proj
I0504 00:41:34.910181  3080 net.cpp:157] Top shape: 32 64 14 14 (401408)
I0504 00:41:34.910186  3080 net.cpp:165] Memory required for data: 1182548480
I0504 00:41:34.910192  3080 layer_factory.hpp:77] Creating layer inception_4a/output
I0504 00:41:34.910202  3080 net.cpp:106] Creating Layer inception_4a/output
I0504 00:41:34.910207  3080 net.cpp:454] inception_4a/output <- inception_4a/1x1
I0504 00:41:34.910212  3080 net.cpp:454] inception_4a/output <- inception_4a/3x3
I0504 00:41:34.910218  3080 net.cpp:454] inception_4a/output <- inception_4a/5x5
I0504 00:41:34.910223  3080 net.cpp:454] inception_4a/output <- inception_4a/pool_proj
I0504 00:41:34.910230  3080 net.cpp:411] inception_4a/output -> inception_4a/output
I0504 00:41:34.910260  3080 net.cpp:150] Setting up inception_4a/output
I0504 00:41:34.910270  3080 net.cpp:157] Top shape: 32 512 14 14 (3211264)
I0504 00:41:34.910274  3080 net.cpp:165] Memory required for data: 1195393536
I0504 00:41:34.910279  3080 layer_factory.hpp:77] Creating layer inception_4a/output_inception_4a/output_0_split
I0504 00:41:34.910290  3080 net.cpp:106] Creating Layer inception_4a/output_inception_4a/output_0_split
I0504 00:41:34.910295  3080 net.cpp:454] inception_4a/output_inception_4a/output_0_split <- inception_4a/output
I0504 00:41:34.910302  3080 net.cpp:411] inception_4a/output_inception_4a/output_0_split -> inception_4a/output_inception_4a/output_0_split_0
I0504 00:41:34.910318  3080 net.cpp:411] inception_4a/output_inception_4a/output_0_split -> inception_4a/output_inception_4a/output_0_split_1
I0504 00:41:34.910326  3080 net.cpp:411] inception_4a/output_inception_4a/output_0_split -> inception_4a/output_inception_4a/output_0_split_2
I0504 00:41:34.910334  3080 net.cpp:411] inception_4a/output_inception_4a/output_0_split -> inception_4a/output_inception_4a/output_0_split_3
I0504 00:41:34.910344  3080 net.cpp:411] inception_4a/output_inception_4a/output_0_split -> inception_4a/output_inception_4a/output_0_split_4
I0504 00:41:34.910414  3080 net.cpp:150] Setting up inception_4a/output_inception_4a/output_0_split
I0504 00:41:34.910425  3080 net.cpp:157] Top shape: 32 512 14 14 (3211264)
I0504 00:41:34.910431  3080 net.cpp:157] Top shape: 32 512 14 14 (3211264)
I0504 00:41:34.910436  3080 net.cpp:157] Top shape: 32 512 14 14 (3211264)
I0504 00:41:34.910442  3080 net.cpp:157] Top shape: 32 512 14 14 (3211264)
I0504 00:41:34.910449  3080 net.cpp:157] Top shape: 32 512 14 14 (3211264)
I0504 00:41:34.910452  3080 net.cpp:165] Memory required for data: 1259618816
I0504 00:41:34.910457  3080 layer_factory.hpp:77] Creating layer loss1/ave_pool
I0504 00:41:34.910465  3080 net.cpp:106] Creating Layer loss1/ave_pool
I0504 00:41:34.910472  3080 net.cpp:454] loss1/ave_pool <- inception_4a/output_inception_4a/output_0_split_0
I0504 00:41:34.910480  3080 net.cpp:411] loss1/ave_pool -> loss1/ave_pool
I0504 00:41:34.910503  3080 net.cpp:150] Setting up loss1/ave_pool
I0504 00:41:34.910513  3080 net.cpp:157] Top shape: 32 512 4 4 (262144)
I0504 00:41:34.910517  3080 net.cpp:165] Memory required for data: 1260667392
I0504 00:41:34.910522  3080 layer_factory.hpp:77] Creating layer loss1/conv
I0504 00:41:34.910539  3080 net.cpp:106] Creating Layer loss1/conv
I0504 00:41:34.910545  3080 net.cpp:454] loss1/conv <- loss1/ave_pool
I0504 00:41:34.910562  3080 net.cpp:411] loss1/conv -> loss1/conv
I0504 00:41:34.911231  3080 net.cpp:150] Setting up loss1/conv
I0504 00:41:34.911245  3080 net.cpp:157] Top shape: 32 128 4 4 (65536)
I0504 00:41:34.911252  3080 net.cpp:165] Memory required for data: 1260929536
I0504 00:41:34.911260  3080 layer_factory.hpp:77] Creating layer loss1/relu_conv
I0504 00:41:34.911268  3080 net.cpp:106] Creating Layer loss1/relu_conv
I0504 00:41:34.911273  3080 net.cpp:454] loss1/relu_conv <- loss1/conv
I0504 00:41:34.911283  3080 net.cpp:397] loss1/relu_conv -> loss1/conv (in-place)
I0504 00:41:34.911291  3080 net.cpp:150] Setting up loss1/relu_conv
I0504 00:41:34.911298  3080 net.cpp:157] Top shape: 32 128 4 4 (65536)
I0504 00:41:34.911303  3080 net.cpp:165] Memory required for data: 1261191680
I0504 00:41:34.911308  3080 layer_factory.hpp:77] Creating layer loss1/fc
I0504 00:41:34.911322  3080 net.cpp:106] Creating Layer loss1/fc
I0504 00:41:34.911329  3080 net.cpp:454] loss1/fc <- loss1/conv
I0504 00:41:34.911339  3080 net.cpp:411] loss1/fc -> loss1/fc
I0504 00:41:34.930166  3080 net.cpp:150] Setting up loss1/fc
I0504 00:41:34.930213  3080 net.cpp:157] Top shape: 32 1024 (32768)
I0504 00:41:34.930219  3080 net.cpp:165] Memory required for data: 1261322752
I0504 00:41:34.930233  3080 layer_factory.hpp:77] Creating layer loss1/relu_fc
I0504 00:41:34.930250  3080 net.cpp:106] Creating Layer loss1/relu_fc
I0504 00:41:34.930258  3080 net.cpp:454] loss1/relu_fc <- loss1/fc
I0504 00:41:34.930271  3080 net.cpp:397] loss1/relu_fc -> loss1/fc (in-place)
I0504 00:41:34.930289  3080 net.cpp:150] Setting up loss1/relu_fc
I0504 00:41:34.930296  3080 net.cpp:157] Top shape: 32 1024 (32768)
I0504 00:41:34.930300  3080 net.cpp:165] Memory required for data: 1261453824
I0504 00:41:34.930305  3080 layer_factory.hpp:77] Creating layer loss1/drop_fc
I0504 00:41:34.930331  3080 net.cpp:106] Creating Layer loss1/drop_fc
I0504 00:41:34.930337  3080 net.cpp:454] loss1/drop_fc <- loss1/fc
I0504 00:41:34.930344  3080 net.cpp:397] loss1/drop_fc -> loss1/fc (in-place)
I0504 00:41:34.930387  3080 net.cpp:150] Setting up loss1/drop_fc
I0504 00:41:34.930397  3080 net.cpp:157] Top shape: 32 1024 (32768)
I0504 00:41:34.930402  3080 net.cpp:165] Memory required for data: 1261584896
I0504 00:41:34.930408  3080 layer_factory.hpp:77] Creating layer loss1/classifier
I0504 00:41:34.930421  3080 net.cpp:106] Creating Layer loss1/classifier
I0504 00:41:34.930428  3080 net.cpp:454] loss1/classifier <- loss1/fc
I0504 00:41:34.930438  3080 net.cpp:411] loss1/classifier -> loss1/classifier
I0504 00:41:34.939918  3080 net.cpp:150] Setting up loss1/classifier
I0504 00:41:34.939957  3080 net.cpp:157] Top shape: 32 1000 (32000)
I0504 00:41:34.939963  3080 net.cpp:165] Memory required for data: 1261712896
I0504 00:41:34.939976  3080 layer_factory.hpp:77] Creating layer loss1/loss
I0504 00:41:34.939990  3080 net.cpp:106] Creating Layer loss1/loss
I0504 00:41:34.939997  3080 net.cpp:454] loss1/loss <- loss1/classifier
I0504 00:41:34.940009  3080 net.cpp:454] loss1/loss <- label_data_1_split_0
I0504 00:41:34.940016  3080 net.cpp:411] loss1/loss -> loss1/loss1
I0504 00:41:34.940044  3080 layer_factory.hpp:77] Creating layer loss1/loss
I0504 00:41:34.940713  3080 net.cpp:150] Setting up loss1/loss
I0504 00:41:34.940728  3080 net.cpp:157] Top shape: (1)
I0504 00:41:34.940733  3080 net.cpp:160]     with loss weight 0.3
I0504 00:41:34.940769  3080 net.cpp:165] Memory required for data: 1261712900
I0504 00:41:34.940775  3080 layer_factory.hpp:77] Creating layer inception_4b/1x1
I0504 00:41:34.940794  3080 net.cpp:106] Creating Layer inception_4b/1x1
I0504 00:41:34.940801  3080 net.cpp:454] inception_4b/1x1 <- inception_4a/output_inception_4a/output_0_split_1
I0504 00:41:34.940811  3080 net.cpp:411] inception_4b/1x1 -> inception_4b/1x1
I0504 00:41:34.941622  3080 net.cpp:150] Setting up inception_4b/1x1
I0504 00:41:34.941634  3080 net.cpp:157] Top shape: 32 160 14 14 (1003520)
I0504 00:41:34.941645  3080 net.cpp:165] Memory required for data: 1265726980
I0504 00:41:34.941675  3080 layer_factory.hpp:77] Creating layer inception_4b/relu_1x1
I0504 00:41:34.941685  3080 net.cpp:106] Creating Layer inception_4b/relu_1x1
I0504 00:41:34.941690  3080 net.cpp:454] inception_4b/relu_1x1 <- inception_4b/1x1
I0504 00:41:34.941701  3080 net.cpp:397] inception_4b/relu_1x1 -> inception_4b/1x1 (in-place)
I0504 00:41:34.941711  3080 net.cpp:150] Setting up inception_4b/relu_1x1
I0504 00:41:34.941718  3080 net.cpp:157] Top shape: 32 160 14 14 (1003520)
I0504 00:41:34.941725  3080 net.cpp:165] Memory required for data: 1269741060
I0504 00:41:34.941730  3080 layer_factory.hpp:77] Creating layer inception_4b/3x3_reduce
I0504 00:41:34.941740  3080 net.cpp:106] Creating Layer inception_4b/3x3_reduce
I0504 00:41:34.941746  3080 net.cpp:454] inception_4b/3x3_reduce <- inception_4a/output_inception_4a/output_0_split_2
I0504 00:41:34.941757  3080 net.cpp:411] inception_4b/3x3_reduce -> inception_4b/3x3_reduce
I0504 00:41:34.942375  3080 net.cpp:150] Setting up inception_4b/3x3_reduce
I0504 00:41:34.942390  3080 net.cpp:157] Top shape: 32 112 14 14 (702464)
I0504 00:41:34.942394  3080 net.cpp:165] Memory required for data: 1272550916
I0504 00:41:34.942404  3080 layer_factory.hpp:77] Creating layer inception_4b/relu_3x3_reduce
I0504 00:41:34.942410  3080 net.cpp:106] Creating Layer inception_4b/relu_3x3_reduce
I0504 00:41:34.942416  3080 net.cpp:454] inception_4b/relu_3x3_reduce <- inception_4b/3x3_reduce
I0504 00:41:34.942426  3080 net.cpp:397] inception_4b/relu_3x3_reduce -> inception_4b/3x3_reduce (in-place)
I0504 00:41:34.942435  3080 net.cpp:150] Setting up inception_4b/relu_3x3_reduce
I0504 00:41:34.942442  3080 net.cpp:157] Top shape: 32 112 14 14 (702464)
I0504 00:41:34.942446  3080 net.cpp:165] Memory required for data: 1275360772
I0504 00:41:34.942451  3080 layer_factory.hpp:77] Creating layer inception_4b/3x3
I0504 00:41:34.942463  3080 net.cpp:106] Creating Layer inception_4b/3x3
I0504 00:41:34.942469  3080 net.cpp:454] inception_4b/3x3 <- inception_4b/3x3_reduce
I0504 00:41:34.942477  3080 net.cpp:411] inception_4b/3x3 -> inception_4b/3x3
I0504 00:41:34.945953  3080 net.cpp:150] Setting up inception_4b/3x3
I0504 00:41:34.945972  3080 net.cpp:157] Top shape: 32 224 14 14 (1404928)
I0504 00:41:34.945977  3080 net.cpp:165] Memory required for data: 1280980484
I0504 00:41:34.945987  3080 layer_factory.hpp:77] Creating layer inception_4b/relu_3x3
I0504 00:41:34.945996  3080 net.cpp:106] Creating Layer inception_4b/relu_3x3
I0504 00:41:34.946003  3080 net.cpp:454] inception_4b/relu_3x3 <- inception_4b/3x3
I0504 00:41:34.946013  3080 net.cpp:397] inception_4b/relu_3x3 -> inception_4b/3x3 (in-place)
I0504 00:41:34.946024  3080 net.cpp:150] Setting up inception_4b/relu_3x3
I0504 00:41:34.946032  3080 net.cpp:157] Top shape: 32 224 14 14 (1404928)
I0504 00:41:34.946035  3080 net.cpp:165] Memory required for data: 1286600196
I0504 00:41:34.946040  3080 layer_factory.hpp:77] Creating layer inception_4b/5x5_reduce
I0504 00:41:34.946053  3080 net.cpp:106] Creating Layer inception_4b/5x5_reduce
I0504 00:41:34.946058  3080 net.cpp:454] inception_4b/5x5_reduce <- inception_4a/output_inception_4a/output_0_split_3
I0504 00:41:34.946066  3080 net.cpp:411] inception_4b/5x5_reduce -> inception_4b/5x5_reduce
I0504 00:41:34.946375  3080 net.cpp:150] Setting up inception_4b/5x5_reduce
I0504 00:41:34.946388  3080 net.cpp:157] Top shape: 32 24 14 14 (150528)
I0504 00:41:34.946393  3080 net.cpp:165] Memory required for data: 1287202308
I0504 00:41:34.946400  3080 layer_factory.hpp:77] Creating layer inception_4b/relu_5x5_reduce
I0504 00:41:34.946409  3080 net.cpp:106] Creating Layer inception_4b/relu_5x5_reduce
I0504 00:41:34.946415  3080 net.cpp:454] inception_4b/relu_5x5_reduce <- inception_4b/5x5_reduce
I0504 00:41:34.946424  3080 net.cpp:397] inception_4b/relu_5x5_reduce -> inception_4b/5x5_reduce (in-place)
I0504 00:41:34.946431  3080 net.cpp:150] Setting up inception_4b/relu_5x5_reduce
I0504 00:41:34.946439  3080 net.cpp:157] Top shape: 32 24 14 14 (150528)
I0504 00:41:34.946447  3080 net.cpp:165] Memory required for data: 1287804420
I0504 00:41:34.946467  3080 layer_factory.hpp:77] Creating layer inception_4b/5x5
I0504 00:41:34.946481  3080 net.cpp:106] Creating Layer inception_4b/5x5
I0504 00:41:34.946487  3080 net.cpp:454] inception_4b/5x5 <- inception_4b/5x5_reduce
I0504 00:41:34.946496  3080 net.cpp:411] inception_4b/5x5 -> inception_4b/5x5
I0504 00:41:34.946992  3080 net.cpp:150] Setting up inception_4b/5x5
I0504 00:41:34.947005  3080 net.cpp:157] Top shape: 32 64 14 14 (401408)
I0504 00:41:34.947010  3080 net.cpp:165] Memory required for data: 1289410052
I0504 00:41:34.947018  3080 layer_factory.hpp:77] Creating layer inception_4b/relu_5x5
I0504 00:41:34.947026  3080 net.cpp:106] Creating Layer inception_4b/relu_5x5
I0504 00:41:34.947031  3080 net.cpp:454] inception_4b/relu_5x5 <- inception_4b/5x5
I0504 00:41:34.947041  3080 net.cpp:397] inception_4b/relu_5x5 -> inception_4b/5x5 (in-place)
I0504 00:41:34.947051  3080 net.cpp:150] Setting up inception_4b/relu_5x5
I0504 00:41:34.947057  3080 net.cpp:157] Top shape: 32 64 14 14 (401408)
I0504 00:41:34.947060  3080 net.cpp:165] Memory required for data: 1291015684
I0504 00:41:34.947065  3080 layer_factory.hpp:77] Creating layer inception_4b/pool
I0504 00:41:34.947077  3080 net.cpp:106] Creating Layer inception_4b/pool
I0504 00:41:34.947082  3080 net.cpp:454] inception_4b/pool <- inception_4a/output_inception_4a/output_0_split_4
I0504 00:41:34.947089  3080 net.cpp:411] inception_4b/pool -> inception_4b/pool
I0504 00:41:34.947147  3080 net.cpp:150] Setting up inception_4b/pool
I0504 00:41:34.947160  3080 net.cpp:157] Top shape: 32 512 14 14 (3211264)
I0504 00:41:34.947165  3080 net.cpp:165] Memory required for data: 1303860740
I0504 00:41:34.947168  3080 layer_factory.hpp:77] Creating layer inception_4b/pool_proj
I0504 00:41:34.947180  3080 net.cpp:106] Creating Layer inception_4b/pool_proj
I0504 00:41:34.947186  3080 net.cpp:454] inception_4b/pool_proj <- inception_4b/pool
I0504 00:41:34.947196  3080 net.cpp:411] inception_4b/pool_proj -> inception_4b/pool_proj
I0504 00:41:34.947628  3080 net.cpp:150] Setting up inception_4b/pool_proj
I0504 00:41:34.947643  3080 net.cpp:157] Top shape: 32 64 14 14 (401408)
I0504 00:41:34.947648  3080 net.cpp:165] Memory required for data: 1305466372
I0504 00:41:34.947655  3080 layer_factory.hpp:77] Creating layer inception_4b/relu_pool_proj
I0504 00:41:34.947662  3080 net.cpp:106] Creating Layer inception_4b/relu_pool_proj
I0504 00:41:34.947669  3080 net.cpp:454] inception_4b/relu_pool_proj <- inception_4b/pool_proj
I0504 00:41:34.947677  3080 net.cpp:397] inception_4b/relu_pool_proj -> inception_4b/pool_proj (in-place)
I0504 00:41:34.947686  3080 net.cpp:150] Setting up inception_4b/relu_pool_proj
I0504 00:41:34.947693  3080 net.cpp:157] Top shape: 32 64 14 14 (401408)
I0504 00:41:34.947698  3080 net.cpp:165] Memory required for data: 1307072004
I0504 00:41:34.947702  3080 layer_factory.hpp:77] Creating layer inception_4b/output
I0504 00:41:34.947710  3080 net.cpp:106] Creating Layer inception_4b/output
I0504 00:41:34.947715  3080 net.cpp:454] inception_4b/output <- inception_4b/1x1
I0504 00:41:34.947721  3080 net.cpp:454] inception_4b/output <- inception_4b/3x3
I0504 00:41:34.947727  3080 net.cpp:454] inception_4b/output <- inception_4b/5x5
I0504 00:41:34.947732  3080 net.cpp:454] inception_4b/output <- inception_4b/pool_proj
I0504 00:41:34.947738  3080 net.cpp:411] inception_4b/output -> inception_4b/output
I0504 00:41:34.947770  3080 net.cpp:150] Setting up inception_4b/output
I0504 00:41:34.947780  3080 net.cpp:157] Top shape: 32 512 14 14 (3211264)
I0504 00:41:34.947785  3080 net.cpp:165] Memory required for data: 1319917060
I0504 00:41:34.947789  3080 layer_factory.hpp:77] Creating layer inception_4b/output_inception_4b/output_0_split
I0504 00:41:34.947816  3080 net.cpp:106] Creating Layer inception_4b/output_inception_4b/output_0_split
I0504 00:41:34.947824  3080 net.cpp:454] inception_4b/output_inception_4b/output_0_split <- inception_4b/output
I0504 00:41:34.947834  3080 net.cpp:411] inception_4b/output_inception_4b/output_0_split -> inception_4b/output_inception_4b/output_0_split_0
I0504 00:41:34.947854  3080 net.cpp:411] inception_4b/output_inception_4b/output_0_split -> inception_4b/output_inception_4b/output_0_split_1
I0504 00:41:34.947862  3080 net.cpp:411] inception_4b/output_inception_4b/output_0_split -> inception_4b/output_inception_4b/output_0_split_2
I0504 00:41:34.947870  3080 net.cpp:411] inception_4b/output_inception_4b/output_0_split -> inception_4b/output_inception_4b/output_0_split_3
I0504 00:41:34.947935  3080 net.cpp:150] Setting up inception_4b/output_inception_4b/output_0_split
I0504 00:41:34.947947  3080 net.cpp:157] Top shape: 32 512 14 14 (3211264)
I0504 00:41:34.947952  3080 net.cpp:157] Top shape: 32 512 14 14 (3211264)
I0504 00:41:34.947958  3080 net.cpp:157] Top shape: 32 512 14 14 (3211264)
I0504 00:41:34.947963  3080 net.cpp:157] Top shape: 32 512 14 14 (3211264)
I0504 00:41:34.947968  3080 net.cpp:165] Memory required for data: 1371297284
I0504 00:41:34.947973  3080 layer_factory.hpp:77] Creating layer inception_4c/1x1
I0504 00:41:34.947985  3080 net.cpp:106] Creating Layer inception_4c/1x1
I0504 00:41:34.947991  3080 net.cpp:454] inception_4c/1x1 <- inception_4b/output_inception_4b/output_0_split_0
I0504 00:41:34.948001  3080 net.cpp:411] inception_4c/1x1 -> inception_4c/1x1
I0504 00:41:34.948662  3080 net.cpp:150] Setting up inception_4c/1x1
I0504 00:41:34.948674  3080 net.cpp:157] Top shape: 32 128 14 14 (802816)
I0504 00:41:34.948679  3080 net.cpp:165] Memory required for data: 1374508548
I0504 00:41:34.948688  3080 layer_factory.hpp:77] Creating layer inception_4c/relu_1x1
I0504 00:41:34.948698  3080 net.cpp:106] Creating Layer inception_4c/relu_1x1
I0504 00:41:34.948704  3080 net.cpp:454] inception_4c/relu_1x1 <- inception_4c/1x1
I0504 00:41:34.948714  3080 net.cpp:397] inception_4c/relu_1x1 -> inception_4c/1x1 (in-place)
I0504 00:41:34.948722  3080 net.cpp:150] Setting up inception_4c/relu_1x1
I0504 00:41:34.948729  3080 net.cpp:157] Top shape: 32 128 14 14 (802816)
I0504 00:41:34.948734  3080 net.cpp:165] Memory required for data: 1377719812
I0504 00:41:34.948739  3080 layer_factory.hpp:77] Creating layer inception_4c/3x3_reduce
I0504 00:41:34.948750  3080 net.cpp:106] Creating Layer inception_4c/3x3_reduce
I0504 00:41:34.948755  3080 net.cpp:454] inception_4c/3x3_reduce <- inception_4b/output_inception_4b/output_0_split_1
I0504 00:41:34.948763  3080 net.cpp:411] inception_4c/3x3_reduce -> inception_4c/3x3_reduce
I0504 00:41:34.949946  3080 net.cpp:150] Setting up inception_4c/3x3_reduce
I0504 00:41:34.949961  3080 net.cpp:157] Top shape: 32 128 14 14 (802816)
I0504 00:41:34.949966  3080 net.cpp:165] Memory required for data: 1380931076
I0504 00:41:34.949975  3080 layer_factory.hpp:77] Creating layer inception_4c/relu_3x3_reduce
I0504 00:41:34.949982  3080 net.cpp:106] Creating Layer inception_4c/relu_3x3_reduce
I0504 00:41:34.949988  3080 net.cpp:454] inception_4c/relu_3x3_reduce <- inception_4c/3x3_reduce
I0504 00:41:34.949998  3080 net.cpp:397] inception_4c/relu_3x3_reduce -> inception_4c/3x3_reduce (in-place)
I0504 00:41:34.950008  3080 net.cpp:150] Setting up inception_4c/relu_3x3_reduce
I0504 00:41:34.950016  3080 net.cpp:157] Top shape: 32 128 14 14 (802816)
I0504 00:41:34.950019  3080 net.cpp:165] Memory required for data: 1384142340
I0504 00:41:34.950027  3080 layer_factory.hpp:77] Creating layer inception_4c/3x3
I0504 00:41:34.950038  3080 net.cpp:106] Creating Layer inception_4c/3x3
I0504 00:41:34.950044  3080 net.cpp:454] inception_4c/3x3 <- inception_4c/3x3_reduce
I0504 00:41:34.950052  3080 net.cpp:411] inception_4c/3x3 -> inception_4c/3x3
I0504 00:41:34.952813  3080 net.cpp:150] Setting up inception_4c/3x3
I0504 00:41:34.952829  3080 net.cpp:157] Top shape: 32 256 14 14 (1605632)
I0504 00:41:34.952834  3080 net.cpp:165] Memory required for data: 1390564868
I0504 00:41:34.952862  3080 layer_factory.hpp:77] Creating layer inception_4c/relu_3x3
I0504 00:41:34.952869  3080 net.cpp:106] Creating Layer inception_4c/relu_3x3
I0504 00:41:34.952879  3080 net.cpp:454] inception_4c/relu_3x3 <- inception_4c/3x3
I0504 00:41:34.952901  3080 net.cpp:397] inception_4c/relu_3x3 -> inception_4c/3x3 (in-place)
I0504 00:41:34.952913  3080 net.cpp:150] Setting up inception_4c/relu_3x3
I0504 00:41:34.952919  3080 net.cpp:157] Top shape: 32 256 14 14 (1605632)
I0504 00:41:34.952924  3080 net.cpp:165] Memory required for data: 1396987396
I0504 00:41:34.952929  3080 layer_factory.hpp:77] Creating layer inception_4c/5x5_reduce
I0504 00:41:34.952942  3080 net.cpp:106] Creating Layer inception_4c/5x5_reduce
I0504 00:41:34.952949  3080 net.cpp:454] inception_4c/5x5_reduce <- inception_4b/output_inception_4b/output_0_split_2
I0504 00:41:34.952958  3080 net.cpp:411] inception_4c/5x5_reduce -> inception_4c/5x5_reduce
I0504 00:41:34.953269  3080 net.cpp:150] Setting up inception_4c/5x5_reduce
I0504 00:41:34.953281  3080 net.cpp:157] Top shape: 32 24 14 14 (150528)
I0504 00:41:34.953287  3080 net.cpp:165] Memory required for data: 1397589508
I0504 00:41:34.953297  3080 layer_factory.hpp:77] Creating layer inception_4c/relu_5x5_reduce
I0504 00:41:34.953307  3080 net.cpp:106] Creating Layer inception_4c/relu_5x5_reduce
I0504 00:41:34.953313  3080 net.cpp:454] inception_4c/relu_5x5_reduce <- inception_4c/5x5_reduce
I0504 00:41:34.953320  3080 net.cpp:397] inception_4c/relu_5x5_reduce -> inception_4c/5x5_reduce (in-place)
I0504 00:41:34.953330  3080 net.cpp:150] Setting up inception_4c/relu_5x5_reduce
I0504 00:41:34.953336  3080 net.cpp:157] Top shape: 32 24 14 14 (150528)
I0504 00:41:34.953341  3080 net.cpp:165] Memory required for data: 1398191620
I0504 00:41:34.953346  3080 layer_factory.hpp:77] Creating layer inception_4c/5x5
I0504 00:41:34.953357  3080 net.cpp:106] Creating Layer inception_4c/5x5
I0504 00:41:34.953363  3080 net.cpp:454] inception_4c/5x5 <- inception_4c/5x5_reduce
I0504 00:41:34.953373  3080 net.cpp:411] inception_4c/5x5 -> inception_4c/5x5
I0504 00:41:34.953851  3080 net.cpp:150] Setting up inception_4c/5x5
I0504 00:41:34.953865  3080 net.cpp:157] Top shape: 32 64 14 14 (401408)
I0504 00:41:34.953869  3080 net.cpp:165] Memory required for data: 1399797252
I0504 00:41:34.953877  3080 layer_factory.hpp:77] Creating layer inception_4c/relu_5x5
I0504 00:41:34.953884  3080 net.cpp:106] Creating Layer inception_4c/relu_5x5
I0504 00:41:34.953891  3080 net.cpp:454] inception_4c/relu_5x5 <- inception_4c/5x5
I0504 00:41:34.953897  3080 net.cpp:397] inception_4c/relu_5x5 -> inception_4c/5x5 (in-place)
I0504 00:41:34.953907  3080 net.cpp:150] Setting up inception_4c/relu_5x5
I0504 00:41:34.953912  3080 net.cpp:157] Top shape: 32 64 14 14 (401408)
I0504 00:41:34.953917  3080 net.cpp:165] Memory required for data: 1401402884
I0504 00:41:34.953922  3080 layer_factory.hpp:77] Creating layer inception_4c/pool
I0504 00:41:34.953932  3080 net.cpp:106] Creating Layer inception_4c/pool
I0504 00:41:34.953938  3080 net.cpp:454] inception_4c/pool <- inception_4b/output_inception_4b/output_0_split_3
I0504 00:41:34.953944  3080 net.cpp:411] inception_4c/pool -> inception_4c/pool
I0504 00:41:34.953991  3080 net.cpp:150] Setting up inception_4c/pool
I0504 00:41:34.954002  3080 net.cpp:157] Top shape: 32 512 14 14 (3211264)
I0504 00:41:34.954006  3080 net.cpp:165] Memory required for data: 1414247940
I0504 00:41:34.954011  3080 layer_factory.hpp:77] Creating layer inception_4c/pool_proj
I0504 00:41:34.954023  3080 net.cpp:106] Creating Layer inception_4c/pool_proj
I0504 00:41:34.954030  3080 net.cpp:454] inception_4c/pool_proj <- inception_4c/pool
I0504 00:41:34.954037  3080 net.cpp:411] inception_4c/pool_proj -> inception_4c/pool_proj
I0504 00:41:34.954483  3080 net.cpp:150] Setting up inception_4c/pool_proj
I0504 00:41:34.954498  3080 net.cpp:157] Top shape: 32 64 14 14 (401408)
I0504 00:41:34.954502  3080 net.cpp:165] Memory required for data: 1415853572
I0504 00:41:34.954509  3080 layer_factory.hpp:77] Creating layer inception_4c/relu_pool_proj
I0504 00:41:34.954517  3080 net.cpp:106] Creating Layer inception_4c/relu_pool_proj
I0504 00:41:34.954522  3080 net.cpp:454] inception_4c/relu_pool_proj <- inception_4c/pool_proj
I0504 00:41:34.954533  3080 net.cpp:397] inception_4c/relu_pool_proj -> inception_4c/pool_proj (in-place)
I0504 00:41:34.954551  3080 net.cpp:150] Setting up inception_4c/relu_pool_proj
I0504 00:41:34.954558  3080 net.cpp:157] Top shape: 32 64 14 14 (401408)
I0504 00:41:34.954563  3080 net.cpp:165] Memory required for data: 1417459204
I0504 00:41:34.954568  3080 layer_factory.hpp:77] Creating layer inception_4c/output
I0504 00:41:34.954576  3080 net.cpp:106] Creating Layer inception_4c/output
I0504 00:41:34.954581  3080 net.cpp:454] inception_4c/output <- inception_4c/1x1
I0504 00:41:34.954587  3080 net.cpp:454] inception_4c/output <- inception_4c/3x3
I0504 00:41:34.954593  3080 net.cpp:454] inception_4c/output <- inception_4c/5x5
I0504 00:41:34.954598  3080 net.cpp:454] inception_4c/output <- inception_4c/pool_proj
I0504 00:41:34.954607  3080 net.cpp:411] inception_4c/output -> inception_4c/output
I0504 00:41:34.954637  3080 net.cpp:150] Setting up inception_4c/output
I0504 00:41:34.954648  3080 net.cpp:157] Top shape: 32 512 14 14 (3211264)
I0504 00:41:34.954653  3080 net.cpp:165] Memory required for data: 1430304260
I0504 00:41:34.954658  3080 layer_factory.hpp:77] Creating layer inception_4c/output_inception_4c/output_0_split
I0504 00:41:34.954665  3080 net.cpp:106] Creating Layer inception_4c/output_inception_4c/output_0_split
I0504 00:41:34.954670  3080 net.cpp:454] inception_4c/output_inception_4c/output_0_split <- inception_4c/output
I0504 00:41:34.954677  3080 net.cpp:411] inception_4c/output_inception_4c/output_0_split -> inception_4c/output_inception_4c/output_0_split_0
I0504 00:41:34.954689  3080 net.cpp:411] inception_4c/output_inception_4c/output_0_split -> inception_4c/output_inception_4c/output_0_split_1
I0504 00:41:34.954699  3080 net.cpp:411] inception_4c/output_inception_4c/output_0_split -> inception_4c/output_inception_4c/output_0_split_2
I0504 00:41:34.954706  3080 net.cpp:411] inception_4c/output_inception_4c/output_0_split -> inception_4c/output_inception_4c/output_0_split_3
I0504 00:41:34.954767  3080 net.cpp:150] Setting up inception_4c/output_inception_4c/output_0_split
I0504 00:41:34.954777  3080 net.cpp:157] Top shape: 32 512 14 14 (3211264)
I0504 00:41:34.954782  3080 net.cpp:157] Top shape: 32 512 14 14 (3211264)
I0504 00:41:34.954788  3080 net.cpp:157] Top shape: 32 512 14 14 (3211264)
I0504 00:41:34.954794  3080 net.cpp:157] Top shape: 32 512 14 14 (3211264)
I0504 00:41:34.954798  3080 net.cpp:165] Memory required for data: 1481684484
I0504 00:41:34.954803  3080 layer_factory.hpp:77] Creating layer inception_4d/1x1
I0504 00:41:34.954814  3080 net.cpp:106] Creating Layer inception_4d/1x1
I0504 00:41:34.954820  3080 net.cpp:454] inception_4d/1x1 <- inception_4c/output_inception_4c/output_0_split_0
I0504 00:41:34.954830  3080 net.cpp:411] inception_4d/1x1 -> inception_4d/1x1
I0504 00:41:34.955441  3080 net.cpp:150] Setting up inception_4d/1x1
I0504 00:41:34.955454  3080 net.cpp:157] Top shape: 32 112 14 14 (702464)
I0504 00:41:34.955459  3080 net.cpp:165] Memory required for data: 1484494340
I0504 00:41:34.955467  3080 layer_factory.hpp:77] Creating layer inception_4d/relu_1x1
I0504 00:41:34.955476  3080 net.cpp:106] Creating Layer inception_4d/relu_1x1
I0504 00:41:34.955481  3080 net.cpp:454] inception_4d/relu_1x1 <- inception_4d/1x1
I0504 00:41:34.955490  3080 net.cpp:397] inception_4d/relu_1x1 -> inception_4d/1x1 (in-place)
I0504 00:41:34.955499  3080 net.cpp:150] Setting up inception_4d/relu_1x1
I0504 00:41:34.955505  3080 net.cpp:157] Top shape: 32 112 14 14 (702464)
I0504 00:41:34.955510  3080 net.cpp:165] Memory required for data: 1487304196
I0504 00:41:34.955514  3080 layer_factory.hpp:77] Creating layer inception_4d/3x3_reduce
I0504 00:41:34.955523  3080 net.cpp:106] Creating Layer inception_4d/3x3_reduce
I0504 00:41:34.955529  3080 net.cpp:454] inception_4d/3x3_reduce <- inception_4c/output_inception_4c/output_0_split_1
I0504 00:41:34.955539  3080 net.cpp:411] inception_4d/3x3_reduce -> inception_4d/3x3_reduce
I0504 00:41:34.956305  3080 net.cpp:150] Setting up inception_4d/3x3_reduce
I0504 00:41:34.956318  3080 net.cpp:157] Top shape: 32 144 14 14 (903168)
I0504 00:41:34.956336  3080 net.cpp:165] Memory required for data: 1490916868
I0504 00:41:34.956346  3080 layer_factory.hpp:77] Creating layer inception_4d/relu_3x3_reduce
I0504 00:41:34.956352  3080 net.cpp:106] Creating Layer inception_4d/relu_3x3_reduce
I0504 00:41:34.956358  3080 net.cpp:454] inception_4d/relu_3x3_reduce <- inception_4d/3x3_reduce
I0504 00:41:34.956368  3080 net.cpp:397] inception_4d/relu_3x3_reduce -> inception_4d/3x3_reduce (in-place)
I0504 00:41:34.956377  3080 net.cpp:150] Setting up inception_4d/relu_3x3_reduce
I0504 00:41:34.956384  3080 net.cpp:157] Top shape: 32 144 14 14 (903168)
I0504 00:41:34.956389  3080 net.cpp:165] Memory required for data: 1494529540
I0504 00:41:34.956393  3080 layer_factory.hpp:77] Creating layer inception_4d/3x3
I0504 00:41:34.956404  3080 net.cpp:106] Creating Layer inception_4d/3x3
I0504 00:41:34.956410  3080 net.cpp:454] inception_4d/3x3 <- inception_4d/3x3_reduce
I0504 00:41:34.956418  3080 net.cpp:411] inception_4d/3x3 -> inception_4d/3x3
I0504 00:41:34.959895  3080 net.cpp:150] Setting up inception_4d/3x3
I0504 00:41:34.959913  3080 net.cpp:157] Top shape: 32 288 14 14 (1806336)
I0504 00:41:34.959918  3080 net.cpp:165] Memory required for data: 1501754884
I0504 00:41:34.959926  3080 layer_factory.hpp:77] Creating layer inception_4d/relu_3x3
I0504 00:41:34.959935  3080 net.cpp:106] Creating Layer inception_4d/relu_3x3
I0504 00:41:34.959941  3080 net.cpp:454] inception_4d/relu_3x3 <- inception_4d/3x3
I0504 00:41:34.959949  3080 net.cpp:397] inception_4d/relu_3x3 -> inception_4d/3x3 (in-place)
I0504 00:41:34.959959  3080 net.cpp:150] Setting up inception_4d/relu_3x3
I0504 00:41:34.959966  3080 net.cpp:157] Top shape: 32 288 14 14 (1806336)
I0504 00:41:34.959970  3080 net.cpp:165] Memory required for data: 1508980228
I0504 00:41:34.959975  3080 layer_factory.hpp:77] Creating layer inception_4d/5x5_reduce
I0504 00:41:34.959987  3080 net.cpp:106] Creating Layer inception_4d/5x5_reduce
I0504 00:41:34.959993  3080 net.cpp:454] inception_4d/5x5_reduce <- inception_4c/output_inception_4c/output_0_split_2
I0504 00:41:34.960005  3080 net.cpp:411] inception_4d/5x5_reduce -> inception_4d/5x5_reduce
I0504 00:41:34.960355  3080 net.cpp:150] Setting up inception_4d/5x5_reduce
I0504 00:41:34.960367  3080 net.cpp:157] Top shape: 32 32 14 14 (200704)
I0504 00:41:34.960371  3080 net.cpp:165] Memory required for data: 1509783044
I0504 00:41:34.960381  3080 layer_factory.hpp:77] Creating layer inception_4d/relu_5x5_reduce
I0504 00:41:34.960387  3080 net.cpp:106] Creating Layer inception_4d/relu_5x5_reduce
I0504 00:41:34.960393  3080 net.cpp:454] inception_4d/relu_5x5_reduce <- inception_4d/5x5_reduce
I0504 00:41:34.960402  3080 net.cpp:397] inception_4d/relu_5x5_reduce -> inception_4d/5x5_reduce (in-place)
I0504 00:41:34.960412  3080 net.cpp:150] Setting up inception_4d/relu_5x5_reduce
I0504 00:41:34.960418  3080 net.cpp:157] Top shape: 32 32 14 14 (200704)
I0504 00:41:34.960423  3080 net.cpp:165] Memory required for data: 1510585860
I0504 00:41:34.960427  3080 layer_factory.hpp:77] Creating layer inception_4d/5x5
I0504 00:41:34.960436  3080 net.cpp:106] Creating Layer inception_4d/5x5
I0504 00:41:34.960443  3080 net.cpp:454] inception_4d/5x5 <- inception_4d/5x5_reduce
I0504 00:41:34.960454  3080 net.cpp:411] inception_4d/5x5 -> inception_4d/5x5
I0504 00:41:34.961050  3080 net.cpp:150] Setting up inception_4d/5x5
I0504 00:41:34.961064  3080 net.cpp:157] Top shape: 32 64 14 14 (401408)
I0504 00:41:34.961069  3080 net.cpp:165] Memory required for data: 1512191492
I0504 00:41:34.961077  3080 layer_factory.hpp:77] Creating layer inception_4d/relu_5x5
I0504 00:41:34.961084  3080 net.cpp:106] Creating Layer inception_4d/relu_5x5
I0504 00:41:34.961091  3080 net.cpp:454] inception_4d/relu_5x5 <- inception_4d/5x5
I0504 00:41:34.961099  3080 net.cpp:397] inception_4d/relu_5x5 -> inception_4d/5x5 (in-place)
I0504 00:41:34.961109  3080 net.cpp:150] Setting up inception_4d/relu_5x5
I0504 00:41:34.961119  3080 net.cpp:157] Top shape: 32 64 14 14 (401408)
I0504 00:41:34.961135  3080 net.cpp:165] Memory required for data: 1513797124
I0504 00:41:34.961140  3080 layer_factory.hpp:77] Creating layer inception_4d/pool
I0504 00:41:34.961148  3080 net.cpp:106] Creating Layer inception_4d/pool
I0504 00:41:34.961154  3080 net.cpp:454] inception_4d/pool <- inception_4c/output_inception_4c/output_0_split_3
I0504 00:41:34.961165  3080 net.cpp:411] inception_4d/pool -> inception_4d/pool
I0504 00:41:34.961210  3080 net.cpp:150] Setting up inception_4d/pool
I0504 00:41:34.961220  3080 net.cpp:157] Top shape: 32 512 14 14 (3211264)
I0504 00:41:34.961225  3080 net.cpp:165] Memory required for data: 1526642180
I0504 00:41:34.961230  3080 layer_factory.hpp:77] Creating layer inception_4d/pool_proj
I0504 00:41:34.961242  3080 net.cpp:106] Creating Layer inception_4d/pool_proj
I0504 00:41:34.961248  3080 net.cpp:454] inception_4d/pool_proj <- inception_4d/pool
I0504 00:41:34.961258  3080 net.cpp:411] inception_4d/pool_proj -> inception_4d/pool_proj
I0504 00:41:34.961722  3080 net.cpp:150] Setting up inception_4d/pool_proj
I0504 00:41:34.961735  3080 net.cpp:157] Top shape: 32 64 14 14 (401408)
I0504 00:41:34.961740  3080 net.cpp:165] Memory required for data: 1528247812
I0504 00:41:34.961748  3080 layer_factory.hpp:77] Creating layer inception_4d/relu_pool_proj
I0504 00:41:34.961756  3080 net.cpp:106] Creating Layer inception_4d/relu_pool_proj
I0504 00:41:34.961762  3080 net.cpp:454] inception_4d/relu_pool_proj <- inception_4d/pool_proj
I0504 00:41:34.961769  3080 net.cpp:397] inception_4d/relu_pool_proj -> inception_4d/pool_proj (in-place)
I0504 00:41:34.961778  3080 net.cpp:150] Setting up inception_4d/relu_pool_proj
I0504 00:41:34.961784  3080 net.cpp:157] Top shape: 32 64 14 14 (401408)
I0504 00:41:34.961789  3080 net.cpp:165] Memory required for data: 1529853444
I0504 00:41:34.961793  3080 layer_factory.hpp:77] Creating layer inception_4d/output
I0504 00:41:34.961803  3080 net.cpp:106] Creating Layer inception_4d/output
I0504 00:41:34.961809  3080 net.cpp:454] inception_4d/output <- inception_4d/1x1
I0504 00:41:34.961815  3080 net.cpp:454] inception_4d/output <- inception_4d/3x3
I0504 00:41:34.961822  3080 net.cpp:454] inception_4d/output <- inception_4d/5x5
I0504 00:41:34.961827  3080 net.cpp:454] inception_4d/output <- inception_4d/pool_proj
I0504 00:41:34.961833  3080 net.cpp:411] inception_4d/output -> inception_4d/output
I0504 00:41:34.961863  3080 net.cpp:150] Setting up inception_4d/output
I0504 00:41:34.961872  3080 net.cpp:157] Top shape: 32 528 14 14 (3311616)
I0504 00:41:34.961877  3080 net.cpp:165] Memory required for data: 1543099908
I0504 00:41:34.961882  3080 layer_factory.hpp:77] Creating layer inception_4d/output_inception_4d/output_0_split
I0504 00:41:34.961890  3080 net.cpp:106] Creating Layer inception_4d/output_inception_4d/output_0_split
I0504 00:41:34.961896  3080 net.cpp:454] inception_4d/output_inception_4d/output_0_split <- inception_4d/output
I0504 00:41:34.961905  3080 net.cpp:411] inception_4d/output_inception_4d/output_0_split -> inception_4d/output_inception_4d/output_0_split_0
I0504 00:41:34.961915  3080 net.cpp:411] inception_4d/output_inception_4d/output_0_split -> inception_4d/output_inception_4d/output_0_split_1
I0504 00:41:34.961923  3080 net.cpp:411] inception_4d/output_inception_4d/output_0_split -> inception_4d/output_inception_4d/output_0_split_2
I0504 00:41:34.961931  3080 net.cpp:411] inception_4d/output_inception_4d/output_0_split -> inception_4d/output_inception_4d/output_0_split_3
I0504 00:41:34.961943  3080 net.cpp:411] inception_4d/output_inception_4d/output_0_split -> inception_4d/output_inception_4d/output_0_split_4
I0504 00:41:34.962014  3080 net.cpp:150] Setting up inception_4d/output_inception_4d/output_0_split
I0504 00:41:34.962024  3080 net.cpp:157] Top shape: 32 528 14 14 (3311616)
I0504 00:41:34.962030  3080 net.cpp:157] Top shape: 32 528 14 14 (3311616)
I0504 00:41:34.962035  3080 net.cpp:157] Top shape: 32 528 14 14 (3311616)
I0504 00:41:34.962044  3080 net.cpp:157] Top shape: 32 528 14 14 (3311616)
I0504 00:41:34.962050  3080 net.cpp:157] Top shape: 32 528 14 14 (3311616)
I0504 00:41:34.962064  3080 net.cpp:165] Memory required for data: 1609332228
I0504 00:41:34.962069  3080 layer_factory.hpp:77] Creating layer loss2/ave_pool
I0504 00:41:34.962077  3080 net.cpp:106] Creating Layer loss2/ave_pool
I0504 00:41:34.962082  3080 net.cpp:454] loss2/ave_pool <- inception_4d/output_inception_4d/output_0_split_0
I0504 00:41:34.962093  3080 net.cpp:411] loss2/ave_pool -> loss2/ave_pool
I0504 00:41:34.962121  3080 net.cpp:150] Setting up loss2/ave_pool
I0504 00:41:34.962133  3080 net.cpp:157] Top shape: 32 528 4 4 (270336)
I0504 00:41:34.962137  3080 net.cpp:165] Memory required for data: 1610413572
I0504 00:41:34.962142  3080 layer_factory.hpp:77] Creating layer loss2/conv
I0504 00:41:34.962157  3080 net.cpp:106] Creating Layer loss2/conv
I0504 00:41:34.962163  3080 net.cpp:454] loss2/conv <- loss2/ave_pool
I0504 00:41:34.962172  3080 net.cpp:411] loss2/conv -> loss2/conv
I0504 00:41:34.963335  3080 net.cpp:150] Setting up loss2/conv
I0504 00:41:34.963351  3080 net.cpp:157] Top shape: 32 128 4 4 (65536)
I0504 00:41:34.963356  3080 net.cpp:165] Memory required for data: 1610675716
I0504 00:41:34.963363  3080 layer_factory.hpp:77] Creating layer loss2/relu_conv
I0504 00:41:34.963371  3080 net.cpp:106] Creating Layer loss2/relu_conv
I0504 00:41:34.963377  3080 net.cpp:454] loss2/relu_conv <- loss2/conv
I0504 00:41:34.963387  3080 net.cpp:397] loss2/relu_conv -> loss2/conv (in-place)
I0504 00:41:34.963397  3080 net.cpp:150] Setting up loss2/relu_conv
I0504 00:41:34.963403  3080 net.cpp:157] Top shape: 32 128 4 4 (65536)
I0504 00:41:34.963408  3080 net.cpp:165] Memory required for data: 1610937860
I0504 00:41:34.963416  3080 layer_factory.hpp:77] Creating layer loss2/fc
I0504 00:41:34.963426  3080 net.cpp:106] Creating Layer loss2/fc
I0504 00:41:34.963431  3080 net.cpp:454] loss2/fc <- loss2/conv
I0504 00:41:34.963441  3080 net.cpp:411] loss2/fc -> loss2/fc
I0504 00:41:34.983392  3080 net.cpp:150] Setting up loss2/fc
I0504 00:41:34.983420  3080 net.cpp:157] Top shape: 32 1024 (32768)
I0504 00:41:34.983425  3080 net.cpp:165] Memory required for data: 1611068932
I0504 00:41:34.983438  3080 layer_factory.hpp:77] Creating layer loss2/relu_fc
I0504 00:41:34.983450  3080 net.cpp:106] Creating Layer loss2/relu_fc
I0504 00:41:34.983458  3080 net.cpp:454] loss2/relu_fc <- loss2/fc
I0504 00:41:34.983469  3080 net.cpp:397] loss2/relu_fc -> loss2/fc (in-place)
I0504 00:41:34.983484  3080 net.cpp:150] Setting up loss2/relu_fc
I0504 00:41:34.983490  3080 net.cpp:157] Top shape: 32 1024 (32768)
I0504 00:41:34.983495  3080 net.cpp:165] Memory required for data: 1611200004
I0504 00:41:34.983500  3080 layer_factory.hpp:77] Creating layer loss2/drop_fc
I0504 00:41:34.983510  3080 net.cpp:106] Creating Layer loss2/drop_fc
I0504 00:41:34.983515  3080 net.cpp:454] loss2/drop_fc <- loss2/fc
I0504 00:41:34.983523  3080 net.cpp:397] loss2/drop_fc -> loss2/fc (in-place)
I0504 00:41:34.983554  3080 net.cpp:150] Setting up loss2/drop_fc
I0504 00:41:34.983563  3080 net.cpp:157] Top shape: 32 1024 (32768)
I0504 00:41:34.983568  3080 net.cpp:165] Memory required for data: 1611331076
I0504 00:41:34.983573  3080 layer_factory.hpp:77] Creating layer loss2/classifier
I0504 00:41:34.983587  3080 net.cpp:106] Creating Layer loss2/classifier
I0504 00:41:34.983592  3080 net.cpp:454] loss2/classifier <- loss2/fc
I0504 00:41:34.983602  3080 net.cpp:411] loss2/classifier -> loss2/classifier
I0504 00:41:34.993484  3080 net.cpp:150] Setting up loss2/classifier
I0504 00:41:34.993499  3080 net.cpp:157] Top shape: 32 1000 (32000)
I0504 00:41:34.993505  3080 net.cpp:165] Memory required for data: 1611459076
I0504 00:41:34.993513  3080 layer_factory.hpp:77] Creating layer loss2/loss
I0504 00:41:34.993525  3080 net.cpp:106] Creating Layer loss2/loss
I0504 00:41:34.993532  3080 net.cpp:454] loss2/loss <- loss2/classifier
I0504 00:41:34.993540  3080 net.cpp:454] loss2/loss <- label_data_1_split_1
I0504 00:41:34.993552  3080 net.cpp:411] loss2/loss -> loss2/loss1
I0504 00:41:34.993567  3080 layer_factory.hpp:77] Creating layer loss2/loss
I0504 00:41:34.994212  3080 net.cpp:150] Setting up loss2/loss
I0504 00:41:34.994227  3080 net.cpp:157] Top shape: (1)
I0504 00:41:34.994232  3080 net.cpp:160]     with loss weight 0.3
I0504 00:41:34.994249  3080 net.cpp:165] Memory required for data: 1611459080
I0504 00:41:34.994256  3080 layer_factory.hpp:77] Creating layer inception_4e/1x1
I0504 00:41:34.994272  3080 net.cpp:106] Creating Layer inception_4e/1x1
I0504 00:41:34.994282  3080 net.cpp:454] inception_4e/1x1 <- inception_4d/output_inception_4d/output_0_split_1
I0504 00:41:34.994290  3080 net.cpp:411] inception_4e/1x1 -> inception_4e/1x1
I0504 00:41:34.995465  3080 net.cpp:150] Setting up inception_4e/1x1
I0504 00:41:34.995478  3080 net.cpp:157] Top shape: 32 256 14 14 (1605632)
I0504 00:41:34.995483  3080 net.cpp:165] Memory required for data: 1617881608
I0504 00:41:34.995491  3080 layer_factory.hpp:77] Creating layer inception_4e/relu_1x1
I0504 00:41:34.995499  3080 net.cpp:106] Creating Layer inception_4e/relu_1x1
I0504 00:41:34.995506  3080 net.cpp:454] inception_4e/relu_1x1 <- inception_4e/1x1
I0504 00:41:34.995514  3080 net.cpp:397] inception_4e/relu_1x1 -> inception_4e/1x1 (in-place)
I0504 00:41:34.995523  3080 net.cpp:150] Setting up inception_4e/relu_1x1
I0504 00:41:34.995530  3080 net.cpp:157] Top shape: 32 256 14 14 (1605632)
I0504 00:41:34.995535  3080 net.cpp:165] Memory required for data: 1624304136
I0504 00:41:34.995539  3080 layer_factory.hpp:77] Creating layer inception_4e/3x3_reduce
I0504 00:41:34.995553  3080 net.cpp:106] Creating Layer inception_4e/3x3_reduce
I0504 00:41:34.995558  3080 net.cpp:454] inception_4e/3x3_reduce <- inception_4d/output_inception_4d/output_0_split_2
I0504 00:41:34.995568  3080 net.cpp:411] inception_4e/3x3_reduce -> inception_4e/3x3_reduce
I0504 00:41:34.996888  3080 net.cpp:150] Setting up inception_4e/3x3_reduce
I0504 00:41:34.996903  3080 net.cpp:157] Top shape: 32 160 14 14 (1003520)
I0504 00:41:34.996908  3080 net.cpp:165] Memory required for data: 1628318216
I0504 00:41:34.996917  3080 layer_factory.hpp:77] Creating layer inception_4e/relu_3x3_reduce
I0504 00:41:34.996924  3080 net.cpp:106] Creating Layer inception_4e/relu_3x3_reduce
I0504 00:41:34.996930  3080 net.cpp:454] inception_4e/relu_3x3_reduce <- inception_4e/3x3_reduce
I0504 00:41:34.996940  3080 net.cpp:397] inception_4e/relu_3x3_reduce -> inception_4e/3x3_reduce (in-place)
I0504 00:41:34.996950  3080 net.cpp:150] Setting up inception_4e/relu_3x3_reduce
I0504 00:41:34.996958  3080 net.cpp:157] Top shape: 32 160 14 14 (1003520)
I0504 00:41:34.996961  3080 net.cpp:165] Memory required for data: 1632332296
I0504 00:41:34.996966  3080 layer_factory.hpp:77] Creating layer inception_4e/3x3
I0504 00:41:34.996978  3080 net.cpp:106] Creating Layer inception_4e/3x3
I0504 00:41:34.996984  3080 net.cpp:454] inception_4e/3x3 <- inception_4e/3x3_reduce
I0504 00:41:34.996992  3080 net.cpp:411] inception_4e/3x3 -> inception_4e/3x3
I0504 00:41:35.001157  3080 net.cpp:150] Setting up inception_4e/3x3
I0504 00:41:35.001171  3080 net.cpp:157] Top shape: 32 320 14 14 (2007040)
I0504 00:41:35.001176  3080 net.cpp:165] Memory required for data: 1640360456
I0504 00:41:35.001185  3080 layer_factory.hpp:77] Creating layer inception_4e/relu_3x3
I0504 00:41:35.001193  3080 net.cpp:106] Creating Layer inception_4e/relu_3x3
I0504 00:41:35.001199  3080 net.cpp:454] inception_4e/relu_3x3 <- inception_4e/3x3
I0504 00:41:35.001209  3080 net.cpp:397] inception_4e/relu_3x3 -> inception_4e/3x3 (in-place)
I0504 00:41:35.001219  3080 net.cpp:150] Setting up inception_4e/relu_3x3
I0504 00:41:35.001227  3080 net.cpp:157] Top shape: 32 320 14 14 (2007040)
I0504 00:41:35.001232  3080 net.cpp:165] Memory required for data: 1648388616
I0504 00:41:35.001237  3080 layer_factory.hpp:77] Creating layer inception_4e/5x5_reduce
I0504 00:41:35.001250  3080 net.cpp:106] Creating Layer inception_4e/5x5_reduce
I0504 00:41:35.001255  3080 net.cpp:454] inception_4e/5x5_reduce <- inception_4d/output_inception_4d/output_0_split_3
I0504 00:41:35.001267  3080 net.cpp:411] inception_4e/5x5_reduce -> inception_4e/5x5_reduce
I0504 00:41:35.001624  3080 net.cpp:150] Setting up inception_4e/5x5_reduce
I0504 00:41:35.001639  3080 net.cpp:157] Top shape: 32 32 14 14 (200704)
I0504 00:41:35.001644  3080 net.cpp:165] Memory required for data: 1649191432
I0504 00:41:35.001653  3080 layer_factory.hpp:77] Creating layer inception_4e/relu_5x5_reduce
I0504 00:41:35.001663  3080 net.cpp:106] Creating Layer inception_4e/relu_5x5_reduce
I0504 00:41:35.001670  3080 net.cpp:454] inception_4e/relu_5x5_reduce <- inception_4e/5x5_reduce
I0504 00:41:35.001677  3080 net.cpp:397] inception_4e/relu_5x5_reduce -> inception_4e/5x5_reduce (in-place)
I0504 00:41:35.001687  3080 net.cpp:150] Setting up inception_4e/relu_5x5_reduce
I0504 00:41:35.001693  3080 net.cpp:157] Top shape: 32 32 14 14 (200704)
I0504 00:41:35.001698  3080 net.cpp:165] Memory required for data: 1649994248
I0504 00:41:35.001703  3080 layer_factory.hpp:77] Creating layer inception_4e/5x5
I0504 00:41:35.001735  3080 net.cpp:106] Creating Layer inception_4e/5x5
I0504 00:41:35.001742  3080 net.cpp:454] inception_4e/5x5 <- inception_4e/5x5_reduce
I0504 00:41:35.001750  3080 net.cpp:411] inception_4e/5x5 -> inception_4e/5x5
I0504 00:41:35.002670  3080 net.cpp:150] Setting up inception_4e/5x5
I0504 00:41:35.002684  3080 net.cpp:157] Top shape: 32 128 14 14 (802816)
I0504 00:41:35.002691  3080 net.cpp:165] Memory required for data: 1653205512
I0504 00:41:35.002699  3080 layer_factory.hpp:77] Creating layer inception_4e/relu_5x5
I0504 00:41:35.002707  3080 net.cpp:106] Creating Layer inception_4e/relu_5x5
I0504 00:41:35.002713  3080 net.cpp:454] inception_4e/relu_5x5 <- inception_4e/5x5
I0504 00:41:35.002720  3080 net.cpp:397] inception_4e/relu_5x5 -> inception_4e/5x5 (in-place)
I0504 00:41:35.002729  3080 net.cpp:150] Setting up inception_4e/relu_5x5
I0504 00:41:35.002737  3080 net.cpp:157] Top shape: 32 128 14 14 (802816)
I0504 00:41:35.002740  3080 net.cpp:165] Memory required for data: 1656416776
I0504 00:41:35.002745  3080 layer_factory.hpp:77] Creating layer inception_4e/pool
I0504 00:41:35.002756  3080 net.cpp:106] Creating Layer inception_4e/pool
I0504 00:41:35.002763  3080 net.cpp:454] inception_4e/pool <- inception_4d/output_inception_4d/output_0_split_4
I0504 00:41:35.002770  3080 net.cpp:411] inception_4e/pool -> inception_4e/pool
I0504 00:41:35.002820  3080 net.cpp:150] Setting up inception_4e/pool
I0504 00:41:35.002830  3080 net.cpp:157] Top shape: 32 528 14 14 (3311616)
I0504 00:41:35.002835  3080 net.cpp:165] Memory required for data: 1669663240
I0504 00:41:35.002840  3080 layer_factory.hpp:77] Creating layer inception_4e/pool_proj
I0504 00:41:35.002851  3080 net.cpp:106] Creating Layer inception_4e/pool_proj
I0504 00:41:35.002857  3080 net.cpp:454] inception_4e/pool_proj <- inception_4e/pool
I0504 00:41:35.002866  3080 net.cpp:411] inception_4e/pool_proj -> inception_4e/pool_proj
I0504 00:41:35.003543  3080 net.cpp:150] Setting up inception_4e/pool_proj
I0504 00:41:35.003556  3080 net.cpp:157] Top shape: 32 128 14 14 (802816)
I0504 00:41:35.003561  3080 net.cpp:165] Memory required for data: 1672874504
I0504 00:41:35.003569  3080 layer_factory.hpp:77] Creating layer inception_4e/relu_pool_proj
I0504 00:41:35.003576  3080 net.cpp:106] Creating Layer inception_4e/relu_pool_proj
I0504 00:41:35.003584  3080 net.cpp:454] inception_4e/relu_pool_proj <- inception_4e/pool_proj
I0504 00:41:35.003592  3080 net.cpp:397] inception_4e/relu_pool_proj -> inception_4e/pool_proj (in-place)
I0504 00:41:35.003602  3080 net.cpp:150] Setting up inception_4e/relu_pool_proj
I0504 00:41:35.003607  3080 net.cpp:157] Top shape: 32 128 14 14 (802816)
I0504 00:41:35.003612  3080 net.cpp:165] Memory required for data: 1676085768
I0504 00:41:35.003618  3080 layer_factory.hpp:77] Creating layer inception_4e/output
I0504 00:41:35.003628  3080 net.cpp:106] Creating Layer inception_4e/output
I0504 00:41:35.003633  3080 net.cpp:454] inception_4e/output <- inception_4e/1x1
I0504 00:41:35.003643  3080 net.cpp:454] inception_4e/output <- inception_4e/3x3
I0504 00:41:35.003649  3080 net.cpp:454] inception_4e/output <- inception_4e/5x5
I0504 00:41:35.003664  3080 net.cpp:454] inception_4e/output <- inception_4e/pool_proj
I0504 00:41:35.003674  3080 net.cpp:411] inception_4e/output -> inception_4e/output
I0504 00:41:35.003705  3080 net.cpp:150] Setting up inception_4e/output
I0504 00:41:35.003715  3080 net.cpp:157] Top shape: 32 832 14 14 (5218304)
I0504 00:41:35.003720  3080 net.cpp:165] Memory required for data: 1696958984
I0504 00:41:35.003726  3080 layer_factory.hpp:77] Creating layer pool4/3x3_s2
I0504 00:41:35.003737  3080 net.cpp:106] Creating Layer pool4/3x3_s2
I0504 00:41:35.003744  3080 net.cpp:454] pool4/3x3_s2 <- inception_4e/output
I0504 00:41:35.003752  3080 net.cpp:411] pool4/3x3_s2 -> pool4/3x3_s2
I0504 00:41:35.003810  3080 net.cpp:150] Setting up pool4/3x3_s2
I0504 00:41:35.003823  3080 net.cpp:157] Top shape: 32 832 7 7 (1304576)
I0504 00:41:35.003826  3080 net.cpp:165] Memory required for data: 1702177288
I0504 00:41:35.003831  3080 layer_factory.hpp:77] Creating layer pool4/3x3_s2_pool4/3x3_s2_0_split
I0504 00:41:35.003840  3080 net.cpp:106] Creating Layer pool4/3x3_s2_pool4/3x3_s2_0_split
I0504 00:41:35.003845  3080 net.cpp:454] pool4/3x3_s2_pool4/3x3_s2_0_split <- pool4/3x3_s2
I0504 00:41:35.003855  3080 net.cpp:411] pool4/3x3_s2_pool4/3x3_s2_0_split -> pool4/3x3_s2_pool4/3x3_s2_0_split_0
I0504 00:41:35.003865  3080 net.cpp:411] pool4/3x3_s2_pool4/3x3_s2_0_split -> pool4/3x3_s2_pool4/3x3_s2_0_split_1
I0504 00:41:35.003872  3080 net.cpp:411] pool4/3x3_s2_pool4/3x3_s2_0_split -> pool4/3x3_s2_pool4/3x3_s2_0_split_2
I0504 00:41:35.003880  3080 net.cpp:411] pool4/3x3_s2_pool4/3x3_s2_0_split -> pool4/3x3_s2_pool4/3x3_s2_0_split_3
I0504 00:41:35.003943  3080 net.cpp:150] Setting up pool4/3x3_s2_pool4/3x3_s2_0_split
I0504 00:41:35.003953  3080 net.cpp:157] Top shape: 32 832 7 7 (1304576)
I0504 00:41:35.003960  3080 net.cpp:157] Top shape: 32 832 7 7 (1304576)
I0504 00:41:35.003965  3080 net.cpp:157] Top shape: 32 832 7 7 (1304576)
I0504 00:41:35.003971  3080 net.cpp:157] Top shape: 32 832 7 7 (1304576)
I0504 00:41:35.003975  3080 net.cpp:165] Memory required for data: 1723050504
I0504 00:41:35.003980  3080 layer_factory.hpp:77] Creating layer inception_5a/1x1
I0504 00:41:35.003993  3080 net.cpp:106] Creating Layer inception_5a/1x1
I0504 00:41:35.004000  3080 net.cpp:454] inception_5a/1x1 <- pool4/3x3_s2_pool4/3x3_s2_0_split_0
I0504 00:41:35.004009  3080 net.cpp:411] inception_5a/1x1 -> inception_5a/1x1
I0504 00:41:35.006170  3080 net.cpp:150] Setting up inception_5a/1x1
I0504 00:41:35.006184  3080 net.cpp:157] Top shape: 32 256 7 7 (401408)
I0504 00:41:35.006189  3080 net.cpp:165] Memory required for data: 1724656136
I0504 00:41:35.006198  3080 layer_factory.hpp:77] Creating layer inception_5a/relu_1x1
I0504 00:41:35.006206  3080 net.cpp:106] Creating Layer inception_5a/relu_1x1
I0504 00:41:35.006211  3080 net.cpp:454] inception_5a/relu_1x1 <- inception_5a/1x1
I0504 00:41:35.006222  3080 net.cpp:397] inception_5a/relu_1x1 -> inception_5a/1x1 (in-place)
I0504 00:41:35.006230  3080 net.cpp:150] Setting up inception_5a/relu_1x1
I0504 00:41:35.006237  3080 net.cpp:157] Top shape: 32 256 7 7 (401408)
I0504 00:41:35.006242  3080 net.cpp:165] Memory required for data: 1726261768
I0504 00:41:35.006247  3080 layer_factory.hpp:77] Creating layer inception_5a/3x3_reduce
I0504 00:41:35.006258  3080 net.cpp:106] Creating Layer inception_5a/3x3_reduce
I0504 00:41:35.006264  3080 net.cpp:454] inception_5a/3x3_reduce <- pool4/3x3_s2_pool4/3x3_s2_0_split_1
I0504 00:41:35.006273  3080 net.cpp:411] inception_5a/3x3_reduce -> inception_5a/3x3_reduce
I0504 00:41:35.007918  3080 net.cpp:150] Setting up inception_5a/3x3_reduce
I0504 00:41:35.007933  3080 net.cpp:157] Top shape: 32 160 7 7 (250880)
I0504 00:41:35.007941  3080 net.cpp:165] Memory required for data: 1727265288
I0504 00:41:35.007949  3080 layer_factory.hpp:77] Creating layer inception_5a/relu_3x3_reduce
I0504 00:41:35.007957  3080 net.cpp:106] Creating Layer inception_5a/relu_3x3_reduce
I0504 00:41:35.007966  3080 net.cpp:454] inception_5a/relu_3x3_reduce <- inception_5a/3x3_reduce
I0504 00:41:35.007990  3080 net.cpp:397] inception_5a/relu_3x3_reduce -> inception_5a/3x3_reduce (in-place)
I0504 00:41:35.008002  3080 net.cpp:150] Setting up inception_5a/relu_3x3_reduce
I0504 00:41:35.008009  3080 net.cpp:157] Top shape: 32 160 7 7 (250880)
I0504 00:41:35.008013  3080 net.cpp:165] Memory required for data: 1728268808
I0504 00:41:35.008018  3080 layer_factory.hpp:77] Creating layer inception_5a/3x3
I0504 00:41:35.008030  3080 net.cpp:106] Creating Layer inception_5a/3x3
I0504 00:41:35.008036  3080 net.cpp:454] inception_5a/3x3 <- inception_5a/3x3_reduce
I0504 00:41:35.008044  3080 net.cpp:411] inception_5a/3x3 -> inception_5a/3x3
I0504 00:41:35.012197  3080 net.cpp:150] Setting up inception_5a/3x3
I0504 00:41:35.012213  3080 net.cpp:157] Top shape: 32 320 7 7 (501760)
I0504 00:41:35.012218  3080 net.cpp:165] Memory required for data: 1730275848
I0504 00:41:35.012226  3080 layer_factory.hpp:77] Creating layer inception_5a/relu_3x3
I0504 00:41:35.012234  3080 net.cpp:106] Creating Layer inception_5a/relu_3x3
I0504 00:41:35.012240  3080 net.cpp:454] inception_5a/relu_3x3 <- inception_5a/3x3
I0504 00:41:35.012250  3080 net.cpp:397] inception_5a/relu_3x3 -> inception_5a/3x3 (in-place)
I0504 00:41:35.012260  3080 net.cpp:150] Setting up inception_5a/relu_3x3
I0504 00:41:35.012267  3080 net.cpp:157] Top shape: 32 320 7 7 (501760)
I0504 00:41:35.012271  3080 net.cpp:165] Memory required for data: 1732282888
I0504 00:41:35.012276  3080 layer_factory.hpp:77] Creating layer inception_5a/5x5_reduce
I0504 00:41:35.012287  3080 net.cpp:106] Creating Layer inception_5a/5x5_reduce
I0504 00:41:35.012295  3080 net.cpp:454] inception_5a/5x5_reduce <- pool4/3x3_s2_pool4/3x3_s2_0_split_2
I0504 00:41:35.012302  3080 net.cpp:411] inception_5a/5x5_reduce -> inception_5a/5x5_reduce
I0504 00:41:35.012719  3080 net.cpp:150] Setting up inception_5a/5x5_reduce
I0504 00:41:35.012732  3080 net.cpp:157] Top shape: 32 32 7 7 (50176)
I0504 00:41:35.012737  3080 net.cpp:165] Memory required for data: 1732483592
I0504 00:41:35.012744  3080 layer_factory.hpp:77] Creating layer inception_5a/relu_5x5_reduce
I0504 00:41:35.012754  3080 net.cpp:106] Creating Layer inception_5a/relu_5x5_reduce
I0504 00:41:35.012761  3080 net.cpp:454] inception_5a/relu_5x5_reduce <- inception_5a/5x5_reduce
I0504 00:41:35.012768  3080 net.cpp:397] inception_5a/relu_5x5_reduce -> inception_5a/5x5_reduce (in-place)
I0504 00:41:35.012778  3080 net.cpp:150] Setting up inception_5a/relu_5x5_reduce
I0504 00:41:35.012784  3080 net.cpp:157] Top shape: 32 32 7 7 (50176)
I0504 00:41:35.012789  3080 net.cpp:165] Memory required for data: 1732684296
I0504 00:41:35.012796  3080 layer_factory.hpp:77] Creating layer inception_5a/5x5
I0504 00:41:35.012807  3080 net.cpp:106] Creating Layer inception_5a/5x5
I0504 00:41:35.012814  3080 net.cpp:454] inception_5a/5x5 <- inception_5a/5x5_reduce
I0504 00:41:35.012822  3080 net.cpp:411] inception_5a/5x5 -> inception_5a/5x5
I0504 00:41:35.013747  3080 net.cpp:150] Setting up inception_5a/5x5
I0504 00:41:35.013761  3080 net.cpp:157] Top shape: 32 128 7 7 (200704)
I0504 00:41:35.013766  3080 net.cpp:165] Memory required for data: 1733487112
I0504 00:41:35.013773  3080 layer_factory.hpp:77] Creating layer inception_5a/relu_5x5
I0504 00:41:35.013782  3080 net.cpp:106] Creating Layer inception_5a/relu_5x5
I0504 00:41:35.013787  3080 net.cpp:454] inception_5a/relu_5x5 <- inception_5a/5x5
I0504 00:41:35.013797  3080 net.cpp:397] inception_5a/relu_5x5 -> inception_5a/5x5 (in-place)
I0504 00:41:35.013808  3080 net.cpp:150] Setting up inception_5a/relu_5x5
I0504 00:41:35.013813  3080 net.cpp:157] Top shape: 32 128 7 7 (200704)
I0504 00:41:35.013818  3080 net.cpp:165] Memory required for data: 1734289928
I0504 00:41:35.013823  3080 layer_factory.hpp:77] Creating layer inception_5a/pool
I0504 00:41:35.013829  3080 net.cpp:106] Creating Layer inception_5a/pool
I0504 00:41:35.013835  3080 net.cpp:454] inception_5a/pool <- pool4/3x3_s2_pool4/3x3_s2_0_split_3
I0504 00:41:35.013851  3080 net.cpp:411] inception_5a/pool -> inception_5a/pool
I0504 00:41:35.013907  3080 net.cpp:150] Setting up inception_5a/pool
I0504 00:41:35.013918  3080 net.cpp:157] Top shape: 32 832 7 7 (1304576)
I0504 00:41:35.013923  3080 net.cpp:165] Memory required for data: 1739508232
I0504 00:41:35.013928  3080 layer_factory.hpp:77] Creating layer inception_5a/pool_proj
I0504 00:41:35.013941  3080 net.cpp:106] Creating Layer inception_5a/pool_proj
I0504 00:41:35.013947  3080 net.cpp:454] inception_5a/pool_proj <- inception_5a/pool
I0504 00:41:35.013957  3080 net.cpp:411] inception_5a/pool_proj -> inception_5a/pool_proj
I0504 00:41:35.015410  3080 net.cpp:150] Setting up inception_5a/pool_proj
I0504 00:41:35.015425  3080 net.cpp:157] Top shape: 32 128 7 7 (200704)
I0504 00:41:35.015430  3080 net.cpp:165] Memory required for data: 1740311048
I0504 00:41:35.015439  3080 layer_factory.hpp:77] Creating layer inception_5a/relu_pool_proj
I0504 00:41:35.015450  3080 net.cpp:106] Creating Layer inception_5a/relu_pool_proj
I0504 00:41:35.015455  3080 net.cpp:454] inception_5a/relu_pool_proj <- inception_5a/pool_proj
I0504 00:41:35.015463  3080 net.cpp:397] inception_5a/relu_pool_proj -> inception_5a/pool_proj (in-place)
I0504 00:41:35.015472  3080 net.cpp:150] Setting up inception_5a/relu_pool_proj
I0504 00:41:35.015480  3080 net.cpp:157] Top shape: 32 128 7 7 (200704)
I0504 00:41:35.015483  3080 net.cpp:165] Memory required for data: 1741113864
I0504 00:41:35.015488  3080 layer_factory.hpp:77] Creating layer inception_5a/output
I0504 00:41:35.015497  3080 net.cpp:106] Creating Layer inception_5a/output
I0504 00:41:35.015503  3080 net.cpp:454] inception_5a/output <- inception_5a/1x1
I0504 00:41:35.015509  3080 net.cpp:454] inception_5a/output <- inception_5a/3x3
I0504 00:41:35.015516  3080 net.cpp:454] inception_5a/output <- inception_5a/5x5
I0504 00:41:35.015522  3080 net.cpp:454] inception_5a/output <- inception_5a/pool_proj
I0504 00:41:35.015528  3080 net.cpp:411] inception_5a/output -> inception_5a/output
I0504 00:41:35.015558  3080 net.cpp:150] Setting up inception_5a/output
I0504 00:41:35.015568  3080 net.cpp:157] Top shape: 32 832 7 7 (1304576)
I0504 00:41:35.015573  3080 net.cpp:165] Memory required for data: 1746332168
I0504 00:41:35.015578  3080 layer_factory.hpp:77] Creating layer inception_5a/output_inception_5a/output_0_split
I0504 00:41:35.015586  3080 net.cpp:106] Creating Layer inception_5a/output_inception_5a/output_0_split
I0504 00:41:35.015593  3080 net.cpp:454] inception_5a/output_inception_5a/output_0_split <- inception_5a/output
I0504 00:41:35.015602  3080 net.cpp:411] inception_5a/output_inception_5a/output_0_split -> inception_5a/output_inception_5a/output_0_split_0
I0504 00:41:35.015611  3080 net.cpp:411] inception_5a/output_inception_5a/output_0_split -> inception_5a/output_inception_5a/output_0_split_1
I0504 00:41:35.015620  3080 net.cpp:411] inception_5a/output_inception_5a/output_0_split -> inception_5a/output_inception_5a/output_0_split_2
I0504 00:41:35.015628  3080 net.cpp:411] inception_5a/output_inception_5a/output_0_split -> inception_5a/output_inception_5a/output_0_split_3
I0504 00:41:35.015691  3080 net.cpp:150] Setting up inception_5a/output_inception_5a/output_0_split
I0504 00:41:35.015700  3080 net.cpp:157] Top shape: 32 832 7 7 (1304576)
I0504 00:41:35.015707  3080 net.cpp:157] Top shape: 32 832 7 7 (1304576)
I0504 00:41:35.015712  3080 net.cpp:157] Top shape: 32 832 7 7 (1304576)
I0504 00:41:35.015717  3080 net.cpp:157] Top shape: 32 832 7 7 (1304576)
I0504 00:41:35.015722  3080 net.cpp:165] Memory required for data: 1767205384
I0504 00:41:35.015727  3080 layer_factory.hpp:77] Creating layer inception_5b/1x1
I0504 00:41:35.015739  3080 net.cpp:106] Creating Layer inception_5b/1x1
I0504 00:41:35.015745  3080 net.cpp:454] inception_5b/1x1 <- inception_5a/output_inception_5a/output_0_split_0
I0504 00:41:35.015756  3080 net.cpp:411] inception_5b/1x1 -> inception_5b/1x1
I0504 00:41:35.018748  3080 net.cpp:150] Setting up inception_5b/1x1
I0504 00:41:35.018766  3080 net.cpp:157] Top shape: 32 384 7 7 (602112)
I0504 00:41:35.018771  3080 net.cpp:165] Memory required for data: 1769613832
I0504 00:41:35.018791  3080 layer_factory.hpp:77] Creating layer inception_5b/relu_1x1
I0504 00:41:35.018800  3080 net.cpp:106] Creating Layer inception_5b/relu_1x1
I0504 00:41:35.018806  3080 net.cpp:454] inception_5b/relu_1x1 <- inception_5b/1x1
I0504 00:41:35.018816  3080 net.cpp:397] inception_5b/relu_1x1 -> inception_5b/1x1 (in-place)
I0504 00:41:35.018826  3080 net.cpp:150] Setting up inception_5b/relu_1x1
I0504 00:41:35.018833  3080 net.cpp:157] Top shape: 32 384 7 7 (602112)
I0504 00:41:35.018837  3080 net.cpp:165] Memory required for data: 1772022280
I0504 00:41:35.018842  3080 layer_factory.hpp:77] Creating layer inception_5b/3x3_reduce
I0504 00:41:35.018851  3080 net.cpp:106] Creating Layer inception_5b/3x3_reduce
I0504 00:41:35.018857  3080 net.cpp:454] inception_5b/3x3_reduce <- inception_5a/output_inception_5a/output_0_split_1
I0504 00:41:35.018867  3080 net.cpp:411] inception_5b/3x3_reduce -> inception_5b/3x3_reduce
I0504 00:41:35.020709  3080 net.cpp:150] Setting up inception_5b/3x3_reduce
I0504 00:41:35.020723  3080 net.cpp:157] Top shape: 32 192 7 7 (301056)
I0504 00:41:35.020728  3080 net.cpp:165] Memory required for data: 1773226504
I0504 00:41:35.020737  3080 layer_factory.hpp:77] Creating layer inception_5b/relu_3x3_reduce
I0504 00:41:35.020745  3080 net.cpp:106] Creating Layer inception_5b/relu_3x3_reduce
I0504 00:41:35.020750  3080 net.cpp:454] inception_5b/relu_3x3_reduce <- inception_5b/3x3_reduce
I0504 00:41:35.020761  3080 net.cpp:397] inception_5b/relu_3x3_reduce -> inception_5b/3x3_reduce (in-place)
I0504 00:41:35.020771  3080 net.cpp:150] Setting up inception_5b/relu_3x3_reduce
I0504 00:41:35.020777  3080 net.cpp:157] Top shape: 32 192 7 7 (301056)
I0504 00:41:35.020781  3080 net.cpp:165] Memory required for data: 1774430728
I0504 00:41:35.020787  3080 layer_factory.hpp:77] Creating layer inception_5b/3x3
I0504 00:41:35.020797  3080 net.cpp:106] Creating Layer inception_5b/3x3
I0504 00:41:35.020802  3080 net.cpp:454] inception_5b/3x3 <- inception_5b/3x3_reduce
I0504 00:41:35.020812  3080 net.cpp:411] inception_5b/3x3 -> inception_5b/3x3
I0504 00:41:35.027267  3080 net.cpp:150] Setting up inception_5b/3x3
I0504 00:41:35.027283  3080 net.cpp:157] Top shape: 32 384 7 7 (602112)
I0504 00:41:35.027288  3080 net.cpp:165] Memory required for data: 1776839176
I0504 00:41:35.027297  3080 layer_factory.hpp:77] Creating layer inception_5b/relu_3x3
I0504 00:41:35.027307  3080 net.cpp:106] Creating Layer inception_5b/relu_3x3
I0504 00:41:35.027314  3080 net.cpp:454] inception_5b/relu_3x3 <- inception_5b/3x3
I0504 00:41:35.027321  3080 net.cpp:397] inception_5b/relu_3x3 -> inception_5b/3x3 (in-place)
I0504 00:41:35.027331  3080 net.cpp:150] Setting up inception_5b/relu_3x3
I0504 00:41:35.027338  3080 net.cpp:157] Top shape: 32 384 7 7 (602112)
I0504 00:41:35.027343  3080 net.cpp:165] Memory required for data: 1779247624
I0504 00:41:35.027346  3080 layer_factory.hpp:77] Creating layer inception_5b/5x5_reduce
I0504 00:41:35.027359  3080 net.cpp:106] Creating Layer inception_5b/5x5_reduce
I0504 00:41:35.027364  3080 net.cpp:454] inception_5b/5x5_reduce <- inception_5a/output_inception_5a/output_0_split_2
I0504 00:41:35.027372  3080 net.cpp:411] inception_5b/5x5_reduce -> inception_5b/5x5_reduce
I0504 00:41:35.027915  3080 net.cpp:150] Setting up inception_5b/5x5_reduce
I0504 00:41:35.027930  3080 net.cpp:157] Top shape: 32 48 7 7 (75264)
I0504 00:41:35.027935  3080 net.cpp:165] Memory required for data: 1779548680
I0504 00:41:35.027945  3080 layer_factory.hpp:77] Creating layer inception_5b/relu_5x5_reduce
I0504 00:41:35.027951  3080 net.cpp:106] Creating Layer inception_5b/relu_5x5_reduce
I0504 00:41:35.027957  3080 net.cpp:454] inception_5b/relu_5x5_reduce <- inception_5b/5x5_reduce
I0504 00:41:35.027964  3080 net.cpp:397] inception_5b/relu_5x5_reduce -> inception_5b/5x5_reduce (in-place)
I0504 00:41:35.027974  3080 net.cpp:150] Setting up inception_5b/relu_5x5_reduce
I0504 00:41:35.027984  3080 net.cpp:157] Top shape: 32 48 7 7 (75264)
I0504 00:41:35.027998  3080 net.cpp:165] Memory required for data: 1779849736
I0504 00:41:35.028004  3080 layer_factory.hpp:77] Creating layer inception_5b/5x5
I0504 00:41:35.028017  3080 net.cpp:106] Creating Layer inception_5b/5x5
I0504 00:41:35.028023  3080 net.cpp:454] inception_5b/5x5 <- inception_5b/5x5_reduce
I0504 00:41:35.028033  3080 net.cpp:411] inception_5b/5x5 -> inception_5b/5x5
I0504 00:41:35.029315  3080 net.cpp:150] Setting up inception_5b/5x5
I0504 00:41:35.029330  3080 net.cpp:157] Top shape: 32 128 7 7 (200704)
I0504 00:41:35.029333  3080 net.cpp:165] Memory required for data: 1780652552
I0504 00:41:35.029342  3080 layer_factory.hpp:77] Creating layer inception_5b/relu_5x5
I0504 00:41:35.029350  3080 net.cpp:106] Creating Layer inception_5b/relu_5x5
I0504 00:41:35.029356  3080 net.cpp:454] inception_5b/relu_5x5 <- inception_5b/5x5
I0504 00:41:35.029364  3080 net.cpp:397] inception_5b/relu_5x5 -> inception_5b/5x5 (in-place)
I0504 00:41:35.029374  3080 net.cpp:150] Setting up inception_5b/relu_5x5
I0504 00:41:35.029381  3080 net.cpp:157] Top shape: 32 128 7 7 (200704)
I0504 00:41:35.029386  3080 net.cpp:165] Memory required for data: 1781455368
I0504 00:41:35.029389  3080 layer_factory.hpp:77] Creating layer inception_5b/pool
I0504 00:41:35.029399  3080 net.cpp:106] Creating Layer inception_5b/pool
I0504 00:41:35.029405  3080 net.cpp:454] inception_5b/pool <- inception_5a/output_inception_5a/output_0_split_3
I0504 00:41:35.029412  3080 net.cpp:411] inception_5b/pool -> inception_5b/pool
I0504 00:41:35.029458  3080 net.cpp:150] Setting up inception_5b/pool
I0504 00:41:35.029469  3080 net.cpp:157] Top shape: 32 832 7 7 (1304576)
I0504 00:41:35.029474  3080 net.cpp:165] Memory required for data: 1786673672
I0504 00:41:35.029479  3080 layer_factory.hpp:77] Creating layer inception_5b/pool_proj
I0504 00:41:35.029489  3080 net.cpp:106] Creating Layer inception_5b/pool_proj
I0504 00:41:35.029495  3080 net.cpp:454] inception_5b/pool_proj <- inception_5b/pool
I0504 00:41:35.029505  3080 net.cpp:411] inception_5b/pool_proj -> inception_5b/pool_proj
I0504 00:41:35.030941  3080 net.cpp:150] Setting up inception_5b/pool_proj
I0504 00:41:35.030956  3080 net.cpp:157] Top shape: 32 128 7 7 (200704)
I0504 00:41:35.030961  3080 net.cpp:165] Memory required for data: 1787476488
I0504 00:41:35.030969  3080 layer_factory.hpp:77] Creating layer inception_5b/relu_pool_proj
I0504 00:41:35.030979  3080 net.cpp:106] Creating Layer inception_5b/relu_pool_proj
I0504 00:41:35.030987  3080 net.cpp:454] inception_5b/relu_pool_proj <- inception_5b/pool_proj
I0504 00:41:35.030995  3080 net.cpp:397] inception_5b/relu_pool_proj -> inception_5b/pool_proj (in-place)
I0504 00:41:35.031005  3080 net.cpp:150] Setting up inception_5b/relu_pool_proj
I0504 00:41:35.031013  3080 net.cpp:157] Top shape: 32 128 7 7 (200704)
I0504 00:41:35.031016  3080 net.cpp:165] Memory required for data: 1788279304
I0504 00:41:35.031021  3080 layer_factory.hpp:77] Creating layer inception_5b/output
I0504 00:41:35.031028  3080 net.cpp:106] Creating Layer inception_5b/output
I0504 00:41:35.031033  3080 net.cpp:454] inception_5b/output <- inception_5b/1x1
I0504 00:41:35.031040  3080 net.cpp:454] inception_5b/output <- inception_5b/3x3
I0504 00:41:35.031045  3080 net.cpp:454] inception_5b/output <- inception_5b/5x5
I0504 00:41:35.031051  3080 net.cpp:454] inception_5b/output <- inception_5b/pool_proj
I0504 00:41:35.031059  3080 net.cpp:411] inception_5b/output -> inception_5b/output
I0504 00:41:35.031093  3080 net.cpp:150] Setting up inception_5b/output
I0504 00:41:35.031105  3080 net.cpp:157] Top shape: 32 1024 7 7 (1605632)
I0504 00:41:35.031110  3080 net.cpp:165] Memory required for data: 1794701832
I0504 00:41:35.031114  3080 layer_factory.hpp:77] Creating layer pool5/7x7_s1
I0504 00:41:35.031121  3080 net.cpp:106] Creating Layer pool5/7x7_s1
I0504 00:41:35.031127  3080 net.cpp:454] pool5/7x7_s1 <- inception_5b/output
I0504 00:41:35.031136  3080 net.cpp:411] pool5/7x7_s1 -> pool5/7x7_s1
I0504 00:41:35.031168  3080 net.cpp:150] Setting up pool5/7x7_s1
I0504 00:41:35.031178  3080 net.cpp:157] Top shape: 32 1024 1 1 (32768)
I0504 00:41:35.031193  3080 net.cpp:165] Memory required for data: 1794832904
I0504 00:41:35.031198  3080 layer_factory.hpp:77] Creating layer pool5/drop_7x7_s1
I0504 00:41:35.031209  3080 net.cpp:106] Creating Layer pool5/drop_7x7_s1
I0504 00:41:35.031215  3080 net.cpp:454] pool5/drop_7x7_s1 <- pool5/7x7_s1
I0504 00:41:35.031224  3080 net.cpp:397] pool5/drop_7x7_s1 -> pool5/7x7_s1 (in-place)
I0504 00:41:35.031255  3080 net.cpp:150] Setting up pool5/drop_7x7_s1
I0504 00:41:35.031265  3080 net.cpp:157] Top shape: 32 1024 1 1 (32768)
I0504 00:41:35.031270  3080 net.cpp:165] Memory required for data: 1794963976
I0504 00:41:35.031275  3080 layer_factory.hpp:77] Creating layer loss3/classifier
I0504 00:41:35.031287  3080 net.cpp:106] Creating Layer loss3/classifier
I0504 00:41:35.031293  3080 net.cpp:454] loss3/classifier <- pool5/7x7_s1
I0504 00:41:35.031302  3080 net.cpp:411] loss3/classifier -> loss3/classifier
I0504 00:41:35.040845  3080 net.cpp:150] Setting up loss3/classifier
I0504 00:41:35.040860  3080 net.cpp:157] Top shape: 32 1000 (32000)
I0504 00:41:35.040865  3080 net.cpp:165] Memory required for data: 1795091976
I0504 00:41:35.040874  3080 layer_factory.hpp:77] Creating layer loss3/loss3
I0504 00:41:35.040884  3080 net.cpp:106] Creating Layer loss3/loss3
I0504 00:41:35.040889  3080 net.cpp:454] loss3/loss3 <- loss3/classifier
I0504 00:41:35.040896  3080 net.cpp:454] loss3/loss3 <- label_data_1_split_2
I0504 00:41:35.040906  3080 net.cpp:411] loss3/loss3 -> loss3/loss3
…
