…
I0503 17:26:50.784953  2730 net.cpp:322] The NetState phase (0) differed from the phase (1) specified by a rule in layer accuracy
I0503 17:26:50.785156  2730 net.cpp:49] Initializing net from parameters: 
name: "CaffeNet"
state {
  phase: TRAIN
}
layer {
  name: "data"
  type: "Data"
  top: "data"
  top: "label"
  include {
    phase: TRAIN
  }
  transform_param {
    mirror: true
    crop_size: 227
    mean_file: "data/driving/drivingnet_mean.binaryproto"
  }
  data_param {
    source: "data/driving/driving_train_lmdb"
    batch_size: 256
    backend: LMDB
  }
}
layer {
  name: "conv1"
  type: "Convolution"
  bottom: "data"
  top: "conv1"
  param {
    lr_mult: 1
    decay_mult: 1
  }
  param {
    lr_mult: 2
    decay_mult: 0
  }
  convolution_param {
    num_output: 96
    kernel_size: 11
    stride: 4
    weight_filler {
      type: "gaussian"
      std: 0.01
    }
    bias_filler {
      type: "constant"
      value: 0
    }
  }
}
layer {
  name: "relu1"
  type: "ReLU"
  bottom: "conv1"
  top: "conv1"
}
layer {
  name: "pool1"
  type: "Pooling"
  bottom: "conv1"
  top: "pool1"
  pooling_param {
    pool: MAX
    kernel_size: 3
    stride: 2
  }
}
layer {
  name: "norm1"
  type: "LRN"
  bottom: "pool1"
  top: "norm1"
  lrn_param {
    local_size: 5
    alpha: 0.0001
    beta: 0.75
  }
}
layer {
  name: "conv2"
  type: "Convolution"
  bottom: "norm1"
  top: "conv2"
  param {
    lr_mult: 1
    decay_mult: 1
  }
  param {
    lr_mult: 2
    decay_mult: 0
  }
  convolution_param {
    num_output: 256
    pad: 2
    kernel_size: 5
    group: 2
    weight_filler {
      type: "gaussian"
      std: 0.01
    }
    bias_filler {
      type: "constant"
      value: 1
    }
  }
}
layer {
  name: "relu2"
  type: "ReLU"
  bottom: "conv2"
  top: "conv2"
}
layer {
  name: "pool2"
  type: "Pooling"
  bottom: "conv2"
  top: "pool2"
  pooling_param {
    pool: MAX
    kernel_size: 3
    stride: 2
  }
}
layer {
  name: "norm2"
  type: "LRN"
  bottom: "pool2"
  top: "norm2"
  lrn_param {
    local_size: 5
    alpha: 0.0001
    beta: 0.75
  }
}
layer {
  name: "conv3"
  type: "Convolution"
  bottom: "norm2"
  top: "conv3"
  param {
    lr_mult: 1
    decay_mult: 1
  }
  param {
    lr_mult: 2
    decay_mult: 0
  }
  convolution_param {
    num_output: 384
    pad: 1
    kernel_size: 3
    weight_filler {
      type: "gaussian"
      std: 0.01
    }
    bias_filler {
      type: "constant"
      value: 0
    }
  }
}
layer {
  name: "relu3"
  type: "ReLU"
  bottom: "conv3"
  top: "conv3"
}
layer {
  name: "conv4"
  type: "Convolution"
  bottom: "conv3"
  top: "conv4"
  param {
    lr_mult: 1
    decay_mult: 1
  }
  param {
    lr_mult: 2
    decay_mult: 0
  }
  convolution_param {
    num_output: 384
    pad: 1
    kernel_size: 3
    group: 2
    weight_filler {
      type: "gaussian"
      std: 0.01
    }
    bias_filler {
      type: "constant"
      value: 1
    }
  }
}
layer {
  name: "relu4"
  type: "ReLU"
  bottom: "conv4"
  top: "conv4"
}
layer {
  name: "conv5"
  type: "Convolution"
  bottom: "conv4"
  top: "conv5"
  param {
    lr_mult: 1
    decay_mult: 1
  }
  param {
    lr_mult: 2
    decay_mult: 0
  }
  convolution_param {
    num_output: 256
    pad: 1
    kernel_size: 3
    group: 2
    weight_filler {
      type: "gaussian"
      std: 0.01
    }
    bias_filler {
      type: "constant"
      value: 1
    }
  }
}
layer {
  name: "relu5"
  type: "ReLU"
  bottom: "conv5"
  top: "conv5"
}
layer {
  name: "pool5"
  type: "Pooling"
  bottom: "conv5"
  top: "pool5"
  pooling_param {
    pool: MAX
    kernel_size: 3
    stride: 2
  }
}
layer {
  name: "fc6"
  type: "InnerProduct"
  bottom: "pool5"
  top: "fc6"
  param {
    lr_mult: 1
    decay_mult: 1
  }
  param {
    lr_mult: 2
    decay_mult: 0
  }
  inner_product_param {
    num_output: 4096
    weight_filler {
      type: "gaussian"
      std: 0.005
    }
    bias_filler {
      type: "constant"
      value: 1
    }
  }
}
layer {
  name: "relu6"
  type: "ReLU"
  bottom: "fc6"
  top: "fc6"
}
layer {
  name: "drop6"
  type: "Dropout"
  bottom: "fc6"
  top: "fc6"
  dropout_param {
    dropout_ratio: 0.5
  }
}
layer {
  name: "fc7"
  type: "InnerProduct"
  bottom: "fc6"
  top: "fc7"
  param {
    lr_mult: 1
    decay_mult: 1
  }
  param {
    lr_mult: 2
    decay_mult: 0
  }
  inner_product_param {
    num_output: 4096
    weight_filler {
      type: "gaussian"
      std: 0.005
    }
    bias_filler {
      type: "constant"
      value: 1
    }
  }
}
layer {
  name: "relu7"
  type: "ReLU"
  bottom: "fc7"
  top: "fc7"
}
layer {
  name: "drop7"
  type: "Dropout"
  bottom: "fc7"
  top: "fc7"
  dropout_param {
    dropout_ratio: 0.5
  }
}
layer {
  name: "fc8"
  type: "InnerProduct"
  bottom: "fc7"
  top: "fc8"
  param {
    lr_mult: 1
    decay_mult: 1
  }
  param {
    lr_mult: 2
    decay_mult: 0
  }
  inner_product_param {
    num_output: 10
    weight_filler {
      type: "gaussian"
      std: 0.01
    }
    bias_filler {
      type: "constant"
      value: 0
    }
  }
}
layer {
  name: "loss"
  type: "SoftmaxWithLoss"
  bottom: "fc8"
  bottom: "label"
  top: "loss"
}
I0503 17:26:50.785307  2730 layer_factory.hpp:77] Creating layer data
I0503 17:26:50.785966  2730 net.cpp:106] Creating Layer data
I0503 17:26:50.786020  2730 net.cpp:411] data -> data
I0503 17:26:50.786068  2730 net.cpp:411] data -> label
I0503 17:26:50.786095  2730 data_transformer.cpp:25] Loading mean file from: data/driving/drivingnet_mean.binaryproto
I0503 17:26:50.805747  2732 db_lmdb.cpp:38] Opened lmdb data/driving/driving_train_lmdb
I0503 17:26:50.806480  2730 data_layer.cpp:41] output data size: 256,3,227,227
I0503 17:26:51.144636  2730 net.cpp:150] Setting up data
I0503 17:26:51.144757  2730 net.cpp:157] Top shape: 256 3 227 227 (39574272)
I0503 17:26:51.144768  2730 net.cpp:157] Top shape: 256 (256)
I0503 17:26:51.144774  2730 net.cpp:165] Memory required for data: 158298112
I0503 17:26:51.144793  2730 layer_factory.hpp:77] Creating layer conv1
I0503 17:26:51.144857  2730 net.cpp:106] Creating Layer conv1
I0503 17:26:51.144870  2730 net.cpp:454] conv1 <- data
I0503 17:26:51.144896  2730 net.cpp:411] conv1 -> conv1
I0503 17:26:51.167439  2730 net.cpp:150] Setting up conv1
I0503 17:26:51.167485  2730 net.cpp:157] Top shape: 256 96 55 55 (74342400)
I0503 17:26:51.167492  2730 net.cpp:165] Memory required for data: 455667712
I0503 17:26:51.167523  2730 layer_factory.hpp:77] Creating layer relu1
I0503 17:26:51.167544  2730 net.cpp:106] Creating Layer relu1
I0503 17:26:51.167551  2730 net.cpp:454] relu1 <- conv1
I0503 17:26:51.167563  2730 net.cpp:397] relu1 -> conv1 (in-place)
I0503 17:26:51.167585  2730 net.cpp:150] Setting up relu1
I0503 17:26:51.167593  2730 net.cpp:157] Top shape: 256 96 55 55 (74342400)
I0503 17:26:51.167598  2730 net.cpp:165] Memory required for data: 753037312
I0503 17:26:51.167603  2730 layer_factory.hpp:77] Creating layer pool1
I0503 17:26:51.167614  2730 net.cpp:106] Creating Layer pool1
I0503 17:26:51.167620  2730 net.cpp:454] pool1 <- conv1
I0503 17:26:51.167628  2730 net.cpp:411] pool1 -> pool1
I0503 17:26:51.167687  2730 net.cpp:150] Setting up pool1
I0503 17:26:51.167698  2730 net.cpp:157] Top shape: 256 96 27 27 (17915904)
I0503 17:26:51.167703  2730 net.cpp:165] Memory required for data: 824700928
I0503 17:26:51.167708  2730 layer_factory.hpp:77] Creating layer norm1
I0503 17:26:51.167722  2730 net.cpp:106] Creating Layer norm1
I0503 17:26:51.167733  2730 net.cpp:454] norm1 <- pool1
I0503 17:26:51.167743  2730 net.cpp:411] norm1 -> norm1
I0503 17:26:51.167829  2730 net.cpp:150] Setting up norm1
I0503 17:26:51.167841  2730 net.cpp:157] Top shape: 256 96 27 27 (17915904)
I0503 17:26:51.167846  2730 net.cpp:165] Memory required for data: 896364544
I0503 17:26:51.167851  2730 layer_factory.hpp:77] Creating layer conv2
I0503 17:26:51.167867  2730 net.cpp:106] Creating Layer conv2
I0503 17:26:51.167873  2730 net.cpp:454] conv2 <- norm1
I0503 17:26:51.167882  2730 net.cpp:411] conv2 -> conv2
I0503 17:26:51.181164  2730 net.cpp:150] Setting up conv2
I0503 17:26:51.181210  2730 net.cpp:157] Top shape: 256 256 27 27 (47775744)
I0503 17:26:51.181217  2730 net.cpp:165] Memory required for data: 1087467520
I0503 17:26:51.181237  2730 layer_factory.hpp:77] Creating layer relu2
I0503 17:26:51.181254  2730 net.cpp:106] Creating Layer relu2
I0503 17:26:51.181262  2730 net.cpp:454] relu2 <- conv2
I0503 17:26:51.181273  2730 net.cpp:397] relu2 -> conv2 (in-place)
I0503 17:26:51.181291  2730 net.cpp:150] Setting up relu2
I0503 17:26:51.181298  2730 net.cpp:157] Top shape: 256 256 27 27 (47775744)
I0503 17:26:51.181303  2730 net.cpp:165] Memory required for data: 1278570496
I0503 17:26:51.181308  2730 layer_factory.hpp:77] Creating layer pool2
I0503 17:26:51.181318  2730 net.cpp:106] Creating Layer pool2
I0503 17:26:51.181324  2730 net.cpp:454] pool2 <- conv2
I0503 17:26:51.181330  2730 net.cpp:411] pool2 -> pool2
I0503 17:26:51.181372  2730 net.cpp:150] Setting up pool2
I0503 17:26:51.181382  2730 net.cpp:157] Top shape: 256 256 13 13 (11075584)
I0503 17:26:51.181387  2730 net.cpp:165] Memory required for data: 1322872832
I0503 17:26:51.181392  2730 layer_factory.hpp:77] Creating layer norm2
I0503 17:26:51.181408  2730 net.cpp:106] Creating Layer norm2
I0503 17:26:51.181418  2730 net.cpp:454] norm2 <- pool2
I0503 17:26:51.181427  2730 net.cpp:411] norm2 -> norm2
I0503 17:26:51.181463  2730 net.cpp:150] Setting up norm2
I0503 17:26:51.181473  2730 net.cpp:157] Top shape: 256 256 13 13 (11075584)
I0503 17:26:51.181478  2730 net.cpp:165] Memory required for data: 1367175168
I0503 17:26:51.181483  2730 layer_factory.hpp:77] Creating layer conv3
I0503 17:26:51.181499  2730 net.cpp:106] Creating Layer conv3
I0503 17:26:51.181504  2730 net.cpp:454] conv3 <- norm2
I0503 17:26:51.181515  2730 net.cpp:411] conv3 -> conv3
I0503 17:26:51.218332  2730 net.cpp:150] Setting up conv3
I0503 17:26:51.218384  2730 net.cpp:157] Top shape: 256 384 13 13 (16613376)
I0503 17:26:51.218389  2730 net.cpp:165] Memory required for data: 1433628672
I0503 17:26:51.218408  2730 layer_factory.hpp:77] Creating layer relu3
I0503 17:26:51.218425  2730 net.cpp:106] Creating Layer relu3
I0503 17:26:51.218432  2730 net.cpp:454] relu3 <- conv3
I0503 17:26:51.218446  2730 net.cpp:397] relu3 -> conv3 (in-place)
I0503 17:26:51.218462  2730 net.cpp:150] Setting up relu3
I0503 17:26:51.218469  2730 net.cpp:157] Top shape: 256 384 13 13 (16613376)
I0503 17:26:51.218474  2730 net.cpp:165] Memory required for data: 1500082176
I0503 17:26:51.218479  2730 layer_factory.hpp:77] Creating layer conv4
I0503 17:26:51.218494  2730 net.cpp:106] Creating Layer conv4
I0503 17:26:51.218499  2730 net.cpp:454] conv4 <- conv3
I0503 17:26:51.218511  2730 net.cpp:411] conv4 -> conv4
I0503 17:26:51.246300  2730 net.cpp:150] Setting up conv4
I0503 17:26:51.246350  2730 net.cpp:157] Top shape: 256 384 13 13 (16613376)
I0503 17:26:51.246356  2730 net.cpp:165] Memory required for data: 1566535680
I0503 17:26:51.246371  2730 layer_factory.hpp:77] Creating layer relu4
I0503 17:26:51.246387  2730 net.cpp:106] Creating Layer relu4
I0503 17:26:51.246394  2730 net.cpp:454] relu4 <- conv4
I0503 17:26:51.246407  2730 net.cpp:397] relu4 -> conv4 (in-place)
I0503 17:26:51.246425  2730 net.cpp:150] Setting up relu4
I0503 17:26:51.246431  2730 net.cpp:157] Top shape: 256 384 13 13 (16613376)
I0503 17:26:51.246436  2730 net.cpp:165] Memory required for data: 1632989184
I0503 17:26:51.246441  2730 layer_factory.hpp:77] Creating layer conv5
I0503 17:26:51.246464  2730 net.cpp:106] Creating Layer conv5
I0503 17:26:51.246470  2730 net.cpp:454] conv5 <- conv4
I0503 17:26:51.246501  2730 net.cpp:411] conv5 -> conv5
I0503 17:26:51.264755  2730 net.cpp:150] Setting up conv5
I0503 17:26:51.264802  2730 net.cpp:157] Top shape: 256 256 13 13 (11075584)
I0503 17:26:51.264808  2730 net.cpp:165] Memory required for data: 1677291520
I0503 17:26:51.264830  2730 layer_factory.hpp:77] Creating layer relu5
I0503 17:26:51.264847  2730 net.cpp:106] Creating Layer relu5
I0503 17:26:51.264854  2730 net.cpp:454] relu5 <- conv5
I0503 17:26:51.264868  2730 net.cpp:397] relu5 -> conv5 (in-place)
I0503 17:26:51.264885  2730 net.cpp:150] Setting up relu5
I0503 17:26:51.264891  2730 net.cpp:157] Top shape: 256 256 13 13 (11075584)
I0503 17:26:51.264896  2730 net.cpp:165] Memory required for data: 1721593856
I0503 17:26:51.264902  2730 layer_factory.hpp:77] Creating layer pool5
I0503 17:26:51.264912  2730 net.cpp:106] Creating Layer pool5
I0503 17:26:51.264917  2730 net.cpp:454] pool5 <- conv5
I0503 17:26:51.264926  2730 net.cpp:411] pool5 -> pool5
I0503 17:26:51.264971  2730 net.cpp:150] Setting up pool5
I0503 17:26:51.264981  2730 net.cpp:157] Top shape: 256 256 6 6 (2359296)
I0503 17:26:51.264986  2730 net.cpp:165] Memory required for data: 1731031040
I0503 17:26:51.264991  2730 layer_factory.hpp:77] Creating layer fc6
I0503 17:26:51.265019  2730 net.cpp:106] Creating Layer fc6
I0503 17:26:51.265025  2730 net.cpp:454] fc6 <- pool5
I0503 17:26:51.265034  2730 net.cpp:411] fc6 -> fc6
I0503 17:26:52.813870  2730 net.cpp:150] Setting up fc6
I0503 17:26:52.813927  2730 net.cpp:157] Top shape: 256 4096 (1048576)
I0503 17:26:52.813933  2730 net.cpp:165] Memory required for data: 1735225344
I0503 17:26:52.813949  2730 layer_factory.hpp:77] Creating layer relu6
I0503 17:26:52.813969  2730 net.cpp:106] Creating Layer relu6
I0503 17:26:52.813977  2730 net.cpp:454] relu6 <- fc6
I0503 17:26:52.813992  2730 net.cpp:397] relu6 -> fc6 (in-place)
I0503 17:26:52.814009  2730 net.cpp:150] Setting up relu6
I0503 17:26:52.814016  2730 net.cpp:157] Top shape: 256 4096 (1048576)
I0503 17:26:52.814021  2730 net.cpp:165] Memory required for data: 1739419648
I0503 17:26:52.814026  2730 layer_factory.hpp:77] Creating layer drop6
I0503 17:26:52.814039  2730 net.cpp:106] Creating Layer drop6
I0503 17:26:52.814045  2730 net.cpp:454] drop6 <- fc6
I0503 17:26:52.814052  2730 net.cpp:397] drop6 -> fc6 (in-place)
I0503 17:26:52.814087  2730 net.cpp:150] Setting up drop6
I0503 17:26:52.814096  2730 net.cpp:157] Top shape: 256 4096 (1048576)
I0503 17:26:52.814101  2730 net.cpp:165] Memory required for data: 1743613952
I0503 17:26:52.814107  2730 layer_factory.hpp:77] Creating layer fc7
I0503 17:26:52.814121  2730 net.cpp:106] Creating Layer fc7
I0503 17:26:52.814126  2730 net.cpp:454] fc7 <- fc6
I0503 17:26:52.814136  2730 net.cpp:411] fc7 -> fc7
I0503 17:26:53.500550  2730 net.cpp:150] Setting up fc7
I0503 17:26:53.501143  2730 net.cpp:157] Top shape: 256 4096 (1048576)
I0503 17:26:53.501154  2730 net.cpp:165] Memory required for data: 1747808256
I0503 17:26:53.501171  2730 layer_factory.hpp:77] Creating layer relu7
I0503 17:26:53.501189  2730 net.cpp:106] Creating Layer relu7
I0503 17:26:53.501197  2730 net.cpp:454] relu7 <- fc7
I0503 17:26:53.501211  2730 net.cpp:397] relu7 -> fc7 (in-place)
I0503 17:26:53.501230  2730 net.cpp:150] Setting up relu7
I0503 17:26:53.501236  2730 net.cpp:157] Top shape: 256 4096 (1048576)
I0503 17:26:53.501241  2730 net.cpp:165] Memory required for data: 1752002560
I0503 17:26:53.501246  2730 layer_factory.hpp:77] Creating layer drop7
I0503 17:26:53.501257  2730 net.cpp:106] Creating Layer drop7
I0503 17:26:53.501262  2730 net.cpp:454] drop7 <- fc7
I0503 17:26:53.501271  2730 net.cpp:397] drop7 -> fc7 (in-place)
I0503 17:26:53.501307  2730 net.cpp:150] Setting up drop7
I0503 17:26:53.501317  2730 net.cpp:157] Top shape: 256 4096 (1048576)
I0503 17:26:53.501322  2730 net.cpp:165] Memory required for data: 1756196864
I0503 17:26:53.501327  2730 layer_factory.hpp:77] Creating layer fc8
I0503 17:26:53.501348  2730 net.cpp:106] Creating Layer fc8
I0503 17:26:53.501353  2730 net.cpp:454] fc8 <- fc7
I0503 17:26:53.501386  2730 net.cpp:411] fc8 -> fc8
I0503 17:26:53.503183  2730 net.cpp:150] Setting up fc8
I0503 17:26:53.503197  2730 net.cpp:157] Top shape: 256 10 (2560)
I0503 17:26:53.503202  2730 net.cpp:165] Memory required for data: 1756207104
I0503 17:26:53.503211  2730 layer_factory.hpp:77] Creating layer loss
I0503 17:26:53.503222  2730 net.cpp:106] Creating Layer loss
I0503 17:26:53.503227  2730 net.cpp:454] loss <- fc8
I0503 17:26:53.503234  2730 net.cpp:454] loss <- label
I0503 17:26:53.503247  2730 net.cpp:411] loss -> loss
I0503 17:26:53.503273  2730 layer_factory.hpp:77] Creating layer loss
…
I0503 17:26:53.504662  2730 net.cpp:322] The NetState phase (1) differed from the phase (0) specified by a rule in layer data
I0503 17:26:53.504871  2730 net.cpp:49] Initializing net from parameters: 
name: "CaffeNet"
state {
  phase: TEST
}
layer {
  name: "data"
  type: "Data"
  top: "data"
  top: "label"
  include {
    phase: TEST
  }
  transform_param {
    mirror: false
    crop_size: 227
    mean_file: "data/driving/drivingnet_mean.binaryproto"
  }
  data_param {
    source: "data/driving/driving_val_lmdb"
    batch_size: 50
    backend: LMDB
  }
}
layer {
  name: "conv1"
  type: "Convolution"
  bottom: "data"
  top: "conv1"
  param {
    lr_mult: 1
    decay_mult: 1
  }
  param {
    lr_mult: 2
    decay_mult: 0
  }
  convolution_param {
    num_output: 96
    kernel_size: 11
    stride: 4
    weight_filler {
      type: "gaussian"
      std: 0.01
    }
    bias_filler {
      type: "constant"
      value: 0
    }
  }
}
layer {
  name: "relu1"
  type: "ReLU"
  bottom: "conv1"
  top: "conv1"
}
layer {
  name: "pool1"
  type: "Pooling"
  bottom: "conv1"
  top: "pool1"
  pooling_param {
    pool: MAX
    kernel_size: 3
    stride: 2
  }
}
layer {
  name: "norm1"
  type: "LRN"
  bottom: "pool1"
  top: "norm1"
  lrn_param {
    local_size: 5
    alpha: 0.0001
    beta: 0.75
  }
}
layer {
  name: "conv2"
  type: "Convolution"
  bottom: "norm1"
  top: "conv2"
  param {
    lr_mult: 1
    decay_mult: 1
  }
  param {
    lr_mult: 2
    decay_mult: 0
  }
  convolution_param {
    num_output: 256
    pad: 2
    kernel_size: 5
    group: 2
    weight_filler {
      type: "gaussian"
      std: 0.01
    }
    bias_filler {
      type: "constant"
      value: 1
    }
  }
}
layer {
  name: "relu2"
  type: "ReLU"
  bottom: "conv2"
  top: "conv2"
}
layer {
  name: "pool2"
  type: "Pooling"
  bottom: "conv2"
  top: "pool2"
  pooling_param {
    pool: MAX
    kernel_size: 3
    stride: 2
  }
}
layer {
  name: "norm2"
  type: "LRN"
  bottom: "pool2"
  top: "norm2"
  lrn_param {
    local_size: 5
    alpha: 0.0001
    beta: 0.75
  }
}
layer {
  name: "conv3"
  type: "Convolution"
  bottom: "norm2"
  top: "conv3"
  param {
    lr_mult: 1
    decay_mult: 1
  }
  param {
    lr_mult: 2
    decay_mult: 0
  }
  convolution_param {
    num_output: 384
    pad: 1
    kernel_size: 3
    weight_filler {
      type: "gaussian"
      std: 0.01
    }
    bias_filler {
      type: "constant"
      value: 0
    }
  }
}
layer {
  name: "relu3"
  type: "ReLU"
  bottom: "conv3"
  top: "conv3"
}
layer {
  name: "conv4"
  type: "Convolution"
  bottom: "conv3"
  top: "conv4"
  param {
    lr_mult: 1
    decay_mult: 1
  }
  param {
    lr_mult: 2
    decay_mult: 0
  }
  convolution_param {
    num_output: 384
    pad: 1
    kernel_size: 3
    group: 2
    weight_filler {
      type: "gaussian"
      std: 0.01
    }
    bias_filler {
      type: "constant"
      value: 1
    }
  }
}
layer {
  name: "relu4"
  type: "ReLU"
  bottom: "conv4"
  top: "conv4"
}
layer {
  name: "conv5"
  type: "Convolution"
  bottom: "conv4"
  top: "conv5"
  param {
    lr_mult: 1
    decay_mult: 1
  }
  param {
    lr_mult: 2
    decay_mult: 0
  }
  convolution_param {
    num_output: 256
    pad: 1
    kernel_size: 3
    group: 2
    weight_filler {
      type: "gaussian"
      std: 0.01
    }
    bias_filler {
      type: "constant"
      value: 1
    }
  }
}
layer {
  name: "relu5"
  type: "ReLU"
  bottom: "conv5"
  top: "conv5"
}
layer {
  name: "pool5"
  type: "Pooling"
  bottom: "conv5"
  top: "pool5"
  pooling_param {
    pool: MAX
    kernel_size: 3
    stride: 2
  }
}
layer {
  name: "fc6"
  type: "InnerProduct"
  bottom: "pool5"
  top: "fc6"
  param {
    lr_mult: 1
    decay_mult: 1
  }
  param {
    lr_mult: 2
    decay_mult: 0
  }
  inner_product_param {
    num_output: 4096
    weight_filler {
      type: "gaussian"
      std: 0.005
    }
    bias_filler {
      type: "constant"
      value: 1
    }
  }
}
layer {
  name: "relu6"
  type: "ReLU"
  bottom: "fc6"
  top: "fc6"
}
layer {
  name: "drop6"
  type: "Dropout"
  bottom: "fc6"
  top: "fc6"
  dropout_param {
    dropout_ratio: 0.5
  }
}
layer {
  name: "fc7"
  type: "InnerProduct"
  bottom: "fc6"
  top: "fc7"
  param {
    lr_mult: 1
    decay_mult: 1
  }
  param {
    lr_mult: 2
    decay_mult: 0
  }
  inner_product_param {
    num_output: 4096
    weight_filler {
      type: "gaussian"
      std: 0.005
    }
    bias_filler {
      type: "constant"
      value: 1
    }
  }
}
layer {
  name: "relu7"
  type: "ReLU"
  bottom: "fc7"
  top: "fc7"
}
layer {
  name: "drop7"
  type: "Dropout"
  bottom: "fc7"
  top: "fc7"
  dropout_param {
    dropout_ratio: 0.5
  }
}
layer {
  name: "fc8"
  type: "InnerProduct"
  bottom: "fc7"
  top: "fc8"
  param {
    lr_mult: 1
    decay_mult: 1
  }
  param {
    lr_mult: 2
    decay_mult: 0
  }
  inner_product_param {
    num_output: 10
    weight_filler {
      type: "gaussian"
      std: 0.01
    }
    bias_filler {
      type: "constant"
      value: 0
    }
  }
}
layer {
  name: "accuracy"
  type: "Accuracy"
  bottom: "fc8"
  bottom: "label"
  top: "accuracy"
  include {
    phase: TEST
  }
}
layer {
  name: "loss"
  type: "SoftmaxWithLoss"
  bottom: "fc8"
  bottom: "label"
  top: "loss"
}
I0503 17:26:53.505015  2730 layer_factory.hpp:77] Creating layer data
I0503 17:26:53.505204  2730 net.cpp:106] Creating Layer data
I0503 17:26:53.505219  2730 net.cpp:411] data -> data
I0503 17:26:53.505231  2730 net.cpp:411] data -> label
I0503 17:26:53.505250  2730 data_transformer.cpp:25] Loading mean file from: data/driving/drivingnet_mean.binaryproto
I0503 17:26:53.521702  2734 db_lmdb.cpp:38] Opened lmdb data/driving/driving_val_lmdb
I0503 17:26:53.522377  2730 data_layer.cpp:41] output data size: 50,3,227,227
I0503 17:26:53.594864  2730 net.cpp:150] Setting up data
I0503 17:26:53.594923  2730 net.cpp:157] Top shape: 50 3 227 227 (7729350)
I0503 17:26:53.594933  2730 net.cpp:157] Top shape: 50 (50)
I0503 17:26:53.594938  2730 net.cpp:165] Memory required for data: 30917600
I0503 17:26:53.594949  2730 layer_factory.hpp:77] Creating layer label_data_1_split
I0503 17:26:53.594971  2730 net.cpp:106] Creating Layer label_data_1_split
I0503 17:26:53.594979  2730 net.cpp:454] label_data_1_split <- label
I0503 17:26:53.594990  2730 net.cpp:411] label_data_1_split -> label_data_1_split_0
I0503 17:26:53.595007  2730 net.cpp:411] label_data_1_split -> label_data_1_split_1
I0503 17:26:53.595077  2730 net.cpp:150] Setting up label_data_1_split
I0503 17:26:53.595088  2730 net.cpp:157] Top shape: 50 (50)
I0503 17:26:53.595093  2730 net.cpp:157] Top shape: 50 (50)
I0503 17:26:53.595098  2730 net.cpp:165] Memory required for data: 30918000
I0503 17:26:53.595103  2730 layer_factory.hpp:77] Creating layer conv1
I0503 17:26:53.595124  2730 net.cpp:106] Creating Layer conv1
I0503 17:26:53.595130  2730 net.cpp:454] conv1 <- data
I0503 17:26:53.595139  2730 net.cpp:411] conv1 -> conv1
I0503 17:26:53.599561  2730 net.cpp:150] Setting up conv1
I0503 17:26:53.599578  2730 net.cpp:157] Top shape: 50 96 55 55 (14520000)
I0503 17:26:53.599583  2730 net.cpp:165] Memory required for data: 88998000
I0503 17:26:53.599599  2730 layer_factory.hpp:77] Creating layer relu1
I0503 17:26:53.599609  2730 net.cpp:106] Creating Layer relu1
I0503 17:26:53.599616  2730 net.cpp:454] relu1 <- conv1
I0503 17:26:53.599624  2730 net.cpp:397] relu1 -> conv1 (in-place)
I0503 17:26:53.599634  2730 net.cpp:150] Setting up relu1
I0503 17:26:53.599642  2730 net.cpp:157] Top shape: 50 96 55 55 (14520000)
I0503 17:26:53.599647  2730 net.cpp:165] Memory required for data: 147078000
I0503 17:26:53.599652  2730 layer_factory.hpp:77] Creating layer pool1
I0503 17:26:53.599663  2730 net.cpp:106] Creating Layer pool1
I0503 17:26:53.599668  2730 net.cpp:454] pool1 <- conv1
I0503 17:26:53.599676  2730 net.cpp:411] pool1 -> pool1
I0503 17:26:53.599720  2730 net.cpp:150] Setting up pool1
I0503 17:26:53.599730  2730 net.cpp:157] Top shape: 50 96 27 27 (3499200)
I0503 17:26:53.599735  2730 net.cpp:165] Memory required for data: 161074800
I0503 17:26:53.599740  2730 layer_factory.hpp:77] Creating layer norm1
I0503 17:26:53.599752  2730 net.cpp:106] Creating Layer norm1
I0503 17:26:53.599757  2730 net.cpp:454] norm1 <- pool1
I0503 17:26:53.599766  2730 net.cpp:411] norm1 -> norm1
I0503 17:26:53.599822  2730 net.cpp:150] Setting up norm1
I0503 17:26:53.599834  2730 net.cpp:157] Top shape: 50 96 27 27 (3499200)
I0503 17:26:53.599839  2730 net.cpp:165] Memory required for data: 175071600
I0503 17:26:53.599844  2730 layer_factory.hpp:77] Creating layer conv2
I0503 17:26:53.599858  2730 net.cpp:106] Creating Layer conv2
I0503 17:26:53.599864  2730 net.cpp:454] conv2 <- norm1
I0503 17:26:53.599874  2730 net.cpp:411] conv2 -> conv2
I0503 17:26:53.612615  2730 net.cpp:150] Setting up conv2
I0503 17:26:53.612661  2730 net.cpp:157] Top shape: 50 256 27 27 (9331200)
I0503 17:26:53.612668  2730 net.cpp:165] Memory required for data: 212396400
I0503 17:26:53.612687  2730 layer_factory.hpp:77] Creating layer relu2
I0503 17:26:53.612704  2730 net.cpp:106] Creating Layer relu2
I0503 17:26:53.612711  2730 net.cpp:454] relu2 <- conv2
I0503 17:26:53.612725  2730 net.cpp:397] relu2 -> conv2 (in-place)
I0503 17:26:53.612751  2730 net.cpp:150] Setting up relu2
I0503 17:26:53.612757  2730 net.cpp:157] Top shape: 50 256 27 27 (9331200)
I0503 17:26:53.612784  2730 net.cpp:165] Memory required for data: 249721200
I0503 17:26:53.612790  2730 layer_factory.hpp:77] Creating layer pool2
I0503 17:26:53.612803  2730 net.cpp:106] Creating Layer pool2
I0503 17:26:53.612808  2730 net.cpp:454] pool2 <- conv2
I0503 17:26:53.612817  2730 net.cpp:411] pool2 -> pool2
I0503 17:26:53.612862  2730 net.cpp:150] Setting up pool2
I0503 17:26:53.612872  2730 net.cpp:157] Top shape: 50 256 13 13 (2163200)
I0503 17:26:53.612877  2730 net.cpp:165] Memory required for data: 258374000
I0503 17:26:53.612882  2730 layer_factory.hpp:77] Creating layer norm2
I0503 17:26:53.612895  2730 net.cpp:106] Creating Layer norm2
I0503 17:26:53.612900  2730 net.cpp:454] norm2 <- pool2
I0503 17:26:53.612908  2730 net.cpp:411] norm2 -> norm2
I0503 17:26:53.612946  2730 net.cpp:150] Setting up norm2
I0503 17:26:53.612953  2730 net.cpp:157] Top shape: 50 256 13 13 (2163200)
I0503 17:26:53.612958  2730 net.cpp:165] Memory required for data: 267026800
I0503 17:26:53.612963  2730 layer_factory.hpp:77] Creating layer conv3
I0503 17:26:53.612978  2730 net.cpp:106] Creating Layer conv3
I0503 17:26:53.612983  2730 net.cpp:454] conv3 <- norm2
I0503 17:26:53.612993  2730 net.cpp:411] conv3 -> conv3
I0503 17:26:53.649909  2730 net.cpp:150] Setting up conv3
I0503 17:26:53.649957  2730 net.cpp:157] Top shape: 50 384 13 13 (3244800)
I0503 17:26:53.649963  2730 net.cpp:165] Memory required for data: 280006000
I0503 17:26:53.649982  2730 layer_factory.hpp:77] Creating layer relu3
I0503 17:26:53.649998  2730 net.cpp:106] Creating Layer relu3
I0503 17:26:53.650007  2730 net.cpp:454] relu3 <- conv3
I0503 17:26:53.650019  2730 net.cpp:397] relu3 -> conv3 (in-place)
I0503 17:26:53.650038  2730 net.cpp:150] Setting up relu3
I0503 17:26:53.650044  2730 net.cpp:157] Top shape: 50 384 13 13 (3244800)
I0503 17:26:53.650049  2730 net.cpp:165] Memory required for data: 292985200
I0503 17:26:53.650054  2730 layer_factory.hpp:77] Creating layer conv4
I0503 17:26:53.650069  2730 net.cpp:106] Creating Layer conv4
I0503 17:26:53.650075  2730 net.cpp:454] conv4 <- conv3
I0503 17:26:53.650084  2730 net.cpp:411] conv4 -> conv4
I0503 17:26:53.678139  2730 net.cpp:150] Setting up conv4
I0503 17:26:53.678184  2730 net.cpp:157] Top shape: 50 384 13 13 (3244800)
I0503 17:26:53.678190  2730 net.cpp:165] Memory required for data: 305964400
I0503 17:26:53.678205  2730 layer_factory.hpp:77] Creating layer relu4
I0503 17:26:53.678220  2730 net.cpp:106] Creating Layer relu4
I0503 17:26:53.678227  2730 net.cpp:454] relu4 <- conv4
I0503 17:26:53.678241  2730 net.cpp:397] relu4 -> conv4 (in-place)
I0503 17:26:53.678258  2730 net.cpp:150] Setting up relu4
I0503 17:26:53.678266  2730 net.cpp:157] Top shape: 50 384 13 13 (3244800)
I0503 17:26:53.678272  2730 net.cpp:165] Memory required for data: 318943600
I0503 17:26:53.678278  2730 layer_factory.hpp:77] Creating layer conv5
I0503 17:26:53.678293  2730 net.cpp:106] Creating Layer conv5
I0503 17:26:53.678299  2730 net.cpp:454] conv5 <- conv4
I0503 17:26:53.678308  2730 net.cpp:411] conv5 -> conv5
I0503 17:26:53.696560  2730 net.cpp:150] Setting up conv5
I0503 17:26:53.696607  2730 net.cpp:157] Top shape: 50 256 13 13 (2163200)
I0503 17:26:53.696614  2730 net.cpp:165] Memory required for data: 327596400
I0503 17:26:53.696636  2730 layer_factory.hpp:77] Creating layer relu5
I0503 17:26:53.696652  2730 net.cpp:106] Creating Layer relu5
I0503 17:26:53.696660  2730 net.cpp:454] relu5 <- conv5
I0503 17:26:53.696673  2730 net.cpp:397] relu5 -> conv5 (in-place)
I0503 17:26:53.696691  2730 net.cpp:150] Setting up relu5
I0503 17:26:53.696697  2730 net.cpp:157] Top shape: 50 256 13 13 (2163200)
I0503 17:26:53.696702  2730 net.cpp:165] Memory required for data: 336249200
I0503 17:26:53.696707  2730 layer_factory.hpp:77] Creating layer pool5
I0503 17:26:53.696722  2730 net.cpp:106] Creating Layer pool5
I0503 17:26:53.696727  2730 net.cpp:454] pool5 <- conv5
I0503 17:26:53.696743  2730 net.cpp:411] pool5 -> pool5
I0503 17:26:53.696792  2730 net.cpp:150] Setting up pool5
I0503 17:26:53.696825  2730 net.cpp:157] Top shape: 50 256 6 6 (460800)
I0503 17:26:53.696830  2730 net.cpp:165] Memory required for data: 338092400
I0503 17:26:53.696835  2730 layer_factory.hpp:77] Creating layer fc6
I0503 17:26:53.696849  2730 net.cpp:106] Creating Layer fc6
I0503 17:26:53.696854  2730 net.cpp:454] fc6 <- pool5
I0503 17:26:53.696864  2730 net.cpp:411] fc6 -> fc6
I0503 17:26:55.237776  2730 net.cpp:150] Setting up fc6
I0503 17:26:55.237833  2730 net.cpp:157] Top shape: 50 4096 (204800)
I0503 17:26:55.237838  2730 net.cpp:165] Memory required for data: 338911600
I0503 17:26:55.237854  2730 layer_factory.hpp:77] Creating layer relu6
I0503 17:26:55.237870  2730 net.cpp:106] Creating Layer relu6
I0503 17:26:55.237879  2730 net.cpp:454] relu6 <- fc6
I0503 17:26:55.237892  2730 net.cpp:397] relu6 -> fc6 (in-place)
I0503 17:26:55.237910  2730 net.cpp:150] Setting up relu6
I0503 17:26:55.237917  2730 net.cpp:157] Top shape: 50 4096 (204800)
I0503 17:26:55.237921  2730 net.cpp:165] Memory required for data: 339730800
I0503 17:26:55.237926  2730 layer_factory.hpp:77] Creating layer drop6
I0503 17:26:55.237937  2730 net.cpp:106] Creating Layer drop6
I0503 17:26:55.237942  2730 net.cpp:454] drop6 <- fc6
I0503 17:26:55.237951  2730 net.cpp:397] drop6 -> fc6 (in-place)
I0503 17:26:55.237984  2730 net.cpp:150] Setting up drop6
I0503 17:26:55.237993  2730 net.cpp:157] Top shape: 50 4096 (204800)
I0503 17:26:55.237998  2730 net.cpp:165] Memory required for data: 340550000
I0503 17:26:55.238003  2730 layer_factory.hpp:77] Creating layer fc7
I0503 17:26:55.238018  2730 net.cpp:106] Creating Layer fc7
I0503 17:26:55.238023  2730 net.cpp:454] fc7 <- fc6
I0503 17:26:55.238032  2730 net.cpp:411] fc7 -> fc7
I0503 17:26:55.924005  2730 net.cpp:150] Setting up fc7
I0503 17:26:55.924062  2730 net.cpp:157] Top shape: 50 4096 (204800)
I0503 17:26:55.924068  2730 net.cpp:165] Memory required for data: 341369200
I0503 17:26:55.924083  2730 layer_factory.hpp:77] Creating layer relu7
I0503 17:26:55.924100  2730 net.cpp:106] Creating Layer relu7
I0503 17:26:55.924108  2730 net.cpp:454] relu7 <- fc7
I0503 17:26:55.924123  2730 net.cpp:397] relu7 -> fc7 (in-place)
I0503 17:26:55.924140  2730 net.cpp:150] Setting up relu7
I0503 17:26:55.924147  2730 net.cpp:157] Top shape: 50 4096 (204800)
I0503 17:26:55.924152  2730 net.cpp:165] Memory required for data: 342188400
I0503 17:26:55.924157  2730 layer_factory.hpp:77] Creating layer drop7
I0503 17:26:55.924168  2730 net.cpp:106] Creating Layer drop7
I0503 17:26:55.924173  2730 net.cpp:454] drop7 <- fc7
I0503 17:26:55.924180  2730 net.cpp:397] drop7 -> fc7 (in-place)
I0503 17:26:55.924214  2730 net.cpp:150] Setting up drop7
I0503 17:26:55.924223  2730 net.cpp:157] Top shape: 50 4096 (204800)
I0503 17:26:55.924228  2730 net.cpp:165] Memory required for data: 343007600
I0503 17:26:55.924233  2730 layer_factory.hpp:77] Creating layer fc8
I0503 17:26:55.924247  2730 net.cpp:106] Creating Layer fc8
I0503 17:26:55.924252  2730 net.cpp:454] fc8 <- fc7
I0503 17:26:55.924264  2730 net.cpp:411] fc8 -> fc8
I0503 17:26:55.925997  2730 net.cpp:150] Setting up fc8
I0503 17:26:55.926009  2730 net.cpp:157] Top shape: 50 10 (500)
I0503 17:26:55.926015  2730 net.cpp:165] Memory required for data: 343009600
I0503 17:26:55.926024  2730 layer_factory.hpp:77] Creating layer fc8_fc8_0_split
I0503 17:26:55.926034  2730 net.cpp:106] Creating Layer fc8_fc8_0_split
I0503 17:26:55.926040  2730 net.cpp:454] fc8_fc8_0_split <- fc8
I0503 17:26:55.926048  2730 net.cpp:411] fc8_fc8_0_split -> fc8_fc8_0_split_0
I0503 17:26:55.926059  2730 net.cpp:411] fc8_fc8_0_split -> fc8_fc8_0_split_1
I0503 17:26:55.926095  2730 net.cpp:150] Setting up fc8_fc8_0_split
I0503 17:26:55.926105  2730 net.cpp:157] Top shape: 50 10 (500)
I0503 17:26:55.926110  2730 net.cpp:157] Top shape: 50 10 (500)
I0503 17:26:55.926115  2730 net.cpp:165] Memory required for data: 343013600
I0503 17:26:55.926120  2730 layer_factory.hpp:77] Creating layer accuracy
I0503 17:26:55.926148  2730 net.cpp:106] Creating Layer accuracy
I0503 17:26:55.926156  2730 net.cpp:454] accuracy <- fc8_fc8_0_split_0
I0503 17:26:55.926198  2730 net.cpp:454] accuracy <- label_data_1_split_0
I0503 17:26:55.926208  2730 net.cpp:411] accuracy -> accuracy
…
