…
I0503 04:13:22.171203  2066 net.cpp:322] The NetState phase (0) differed from the phase (1) specified by a rule in layer accuracy
I0503 04:13:22.171407  2066 net.cpp:49] Initializing net from parameters: 
name: "CaffeNet"
state {
  phase: TRAIN
}
layer {
  name: "data"
  type: "Data"
  top: "data"
  top: "label"
  include {
    phase: TRAIN
  }
  transform_param {
    mirror: true
    crop_size: 227
    mean_file: "data/driving/drivingnet_mean.binaryproto"
  }
  data_param {
    source: "data/driving/driving_train_lmdb"
    batch_size: 256
    backend: LMDB
  }
}
layer {
  name: "conv1"
  type: "Convolution"
  bottom: "data"
  top: "conv1"
  param {
    lr_mult: 1
    decay_mult: 1
  }
  param {
    lr_mult: 2
    decay_mult: 0
  }
  convolution_param {
    num_output: 96
    kernel_size: 11
    stride: 4
    weight_filler {
      type: "gaussian"
      std: 0.01
    }
    bias_filler {
      type: "constant"
      value: 0
    }
  }
}
layer {
  name: "relu1"
  type: "ReLU"
  bottom: "conv1"
  top: "conv1"
}
layer {
  name: "pool1"
  type: "Pooling"
  bottom: "conv1"
  top: "pool1"
  pooling_param {
    pool: MAX
    kernel_size: 3
    stride: 2
  }
}
layer {
  name: "norm1"
  type: "LRN"
  bottom: "pool1"
  top: "norm1"
  lrn_param {
    local_size: 5
    alpha: 0.0001
    beta: 0.75
  }
}
layer {
  name: "conv2"
  type: "Convolution"
  bottom: "norm1"
  top: "conv2"
  param {
    lr_mult: 1
    decay_mult: 1
  }
  param {
    lr_mult: 2
    decay_mult: 0
  }
  convolution_param {
    num_output: 256
    pad: 2
    kernel_size: 5
    group: 2
    weight_filler {
      type: "gaussian"
      std: 0.01
    }
    bias_filler {
      type: "constant"
      value: 1
    }
  }
}
layer {
  name: "relu2"
  type: "ReLU"
  bottom: "conv2"
  top: "conv2"
}
layer {
  name: "pool2"
  type: "Pooling"
  bottom: "conv2"
  top: "pool2"
  pooling_param {
    pool: MAX
    kernel_size: 3
    stride: 2
  }
}
layer {
  name: "norm2"
  type: "LRN"
  bottom: "pool2"
  top: "norm2"
  lrn_param {
    local_size: 5
    alpha: 0.0001
    beta: 0.75
  }
}
layer {
  name: "conv3"
  type: "Convolution"
  bottom: "norm2"
  top: "conv3"
  param {
    lr_mult: 1
    decay_mult: 1
  }
  param {
    lr_mult: 2
    decay_mult: 0
  }
  convolution_param {
    num_output: 384
    pad: 1
    kernel_size: 3
    weight_filler {
      type: "gaussian"
      std: 0.01
    }
    bias_filler {
      type: "constant"
      value: 0
    }
  }
}
layer {
  name: "relu3"
  type: "ReLU"
  bottom: "conv3"
  top: "conv3"
}
layer {
  name: "conv4"
  type: "Convolution"
  bottom: "conv3"
  top: "conv4"
  param {
    lr_mult: 1
    decay_mult: 1
  }
  param {
    lr_mult: 2
    decay_mult: 0
  }
  convolution_param {
    num_output: 384
    pad: 1
    kernel_size: 3
    group: 2
    weight_filler {
      type: "gaussian"
      std: 0.01
    }
    bias_filler {
      type: "constant"
      value: 1
    }
  }
}
layer {
  name: "relu4"
  type: "ReLU"
  bottom: "conv4"
  top: "conv4"
}
layer {
  name: "conv5"
  type: "Convolution"
  bottom: "conv4"
  top: "conv5"
  param {
    lr_mult: 1
    decay_mult: 1
  }
  param {
    lr_mult: 2
    decay_mult: 0
  }
  convolution_param {
    num_output: 256
    pad: 1
    kernel_size: 3
    group: 2
    weight_filler {
      type: "gaussian"
      std: 0.01
    }
    bias_filler {
      type: "constant"
      value: 1
    }
  }
}
layer {
  name: "relu5"
  type: "ReLU"
  bottom: "conv5"
  top: "conv5"
}
layer {
  name: "pool5"
  type: "Pooling"
  bottom: "conv5"
  top: "pool5"
  pooling_param {
    pool: MAX
    kernel_size: 3
    stride: 2
  }
}
layer {
  name: "fc6"
  type: "InnerProduct"
  bottom: "pool5"
  top: "fc6"
  param {
    lr_mult: 1
    decay_mult: 1
  }
  param {
    lr_mult: 2
    decay_mult: 0
  }
  inner_product_param {
    num_output: 4096
    weight_filler {
      type: "gaussian"
      std: 0.005
    }
    bias_filler {
      type: "constant"
      value: 1
    }
  }
}
layer {
  name: "relu6"
  type: "ReLU"
  bottom: "fc6"
  top: "fc6"
}
layer {
  name: "drop6"
  type: "Dropout"
  bottom: "fc6"
  top: "fc6"
  dropout_param {
    dropout_ratio: 0.5
  }
}
layer {
  name: "fc7"
  type: "InnerProduct"
  bottom: "fc6"
  top: "fc7"
  param {
    lr_mult: 1
    decay_mult: 1
  }
  param {
    lr_mult: 2
    decay_mult: 0
  }
  inner_product_param {
    num_output: 4096
    weight_filler {
      type: "gaussian"
      std: 0.005
    }
    bias_filler {
      type: "constant"
      value: 1
    }
  }
}
layer {
  name: "relu7"
  type: "ReLU"
  bottom: "fc7"
  top: "fc7"
}
layer {
  name: "drop7"
  type: "Dropout"
  bottom: "fc7"
  top: "fc7"
  dropout_param {
    dropout_ratio: 0.5
  }
}
layer {
  name: "fc8"
  type: "InnerProduct"
  bottom: "fc7"
  top: "fc8"
  param {
    lr_mult: 1
    decay_mult: 1
  }
  param {
    lr_mult: 2
    decay_mult: 0
  }
  inner_product_param {
    num_output: 1000
    weight_filler {
      type: "gaussian"
      std: 0.01
    }
    bias_filler {
      type: "constant"
      value: 0
    }
  }
}
layer {
  name: "loss"
  type: "SoftmaxWithLoss"
  bottom: "fc8"
  bottom: "label"
  top: "loss"
}
I0503 04:13:22.171561  2066 layer_factory.hpp:77] Creating layer data
I0503 04:13:22.172263  2066 net.cpp:106] Creating Layer data
I0503 04:13:22.172312  2066 net.cpp:411] data -> data
I0503 04:13:22.172359  2066 net.cpp:411] data -> label
I0503 04:13:22.172385  2066 data_transformer.cpp:25] Loading mean file from: data/driving/drivingnet_mean.binaryproto
I0503 04:13:22.176445  2072 db_lmdb.cpp:38] Opened lmdb data/driving/driving_train_lmdb
I0503 04:13:22.185572  2066 data_layer.cpp:41] output data size: 256,3,227,227
I0503 04:13:22.551507  2066 net.cpp:150] Setting up data
I0503 04:13:22.551576  2066 net.cpp:157] Top shape: 256 3 227 227 (39574272)
I0503 04:13:22.551587  2066 net.cpp:157] Top shape: 256 (256)
I0503 04:13:22.551592  2066 net.cpp:165] Memory required for data: 158298112
I0503 04:13:22.551611  2066 layer_factory.hpp:77] Creating layer conv1
I0503 04:13:22.551648  2066 net.cpp:106] Creating Layer conv1
I0503 04:13:22.551658  2066 net.cpp:454] conv1 <- data
I0503 04:13:22.551676  2066 net.cpp:411] conv1 -> conv1
I0503 04:13:22.572789  2066 net.cpp:150] Setting up conv1
I0503 04:13:22.572809  2066 net.cpp:157] Top shape: 256 96 55 55 (74342400)
I0503 04:13:22.572815  2066 net.cpp:165] Memory required for data: 455667712
I0503 04:13:22.572839  2066 layer_factory.hpp:77] Creating layer relu1
I0503 04:13:22.572855  2066 net.cpp:106] Creating Layer relu1
I0503 04:13:22.572861  2066 net.cpp:454] relu1 <- conv1
I0503 04:13:22.572870  2066 net.cpp:397] relu1 -> conv1 (in-place)
I0503 04:13:22.572885  2066 net.cpp:150] Setting up relu1
I0503 04:13:22.572893  2066 net.cpp:157] Top shape: 256 96 55 55 (74342400)
I0503 04:13:22.572898  2066 net.cpp:165] Memory required for data: 753037312
I0503 04:13:22.572902  2066 layer_factory.hpp:77] Creating layer pool1
I0503 04:13:22.572914  2066 net.cpp:106] Creating Layer pool1
I0503 04:13:22.572919  2066 net.cpp:454] pool1 <- conv1
I0503 04:13:22.572926  2066 net.cpp:411] pool1 -> pool1
I0503 04:13:22.572981  2066 net.cpp:150] Setting up pool1
I0503 04:13:22.572993  2066 net.cpp:157] Top shape: 256 96 27 27 (17915904)
I0503 04:13:22.572998  2066 net.cpp:165] Memory required for data: 824700928
I0503 04:13:22.573004  2066 layer_factory.hpp:77] Creating layer norm1
I0503 04:13:22.573016  2066 net.cpp:106] Creating Layer norm1
I0503 04:13:22.573027  2066 net.cpp:454] norm1 <- pool1
I0503 04:13:22.573035  2066 net.cpp:411] norm1 -> norm1
I0503 04:13:22.573102  2066 net.cpp:150] Setting up norm1
I0503 04:13:22.573114  2066 net.cpp:157] Top shape: 256 96 27 27 (17915904)
I0503 04:13:22.573118  2066 net.cpp:165] Memory required for data: 896364544
I0503 04:13:22.573124  2066 layer_factory.hpp:77] Creating layer conv2
I0503 04:13:22.573137  2066 net.cpp:106] Creating Layer conv2
I0503 04:13:22.573142  2066 net.cpp:454] conv2 <- norm1
I0503 04:13:22.573151  2066 net.cpp:411] conv2 -> conv2
I0503 04:13:22.586422  2066 net.cpp:150] Setting up conv2
I0503 04:13:22.586465  2066 net.cpp:157] Top shape: 256 256 27 27 (47775744)
I0503 04:13:22.586472  2066 net.cpp:165] Memory required for data: 1087467520
I0503 04:13:22.586491  2066 layer_factory.hpp:77] Creating layer relu2
I0503 04:13:22.586506  2066 net.cpp:106] Creating Layer relu2
I0503 04:13:22.586513  2066 net.cpp:454] relu2 <- conv2
I0503 04:13:22.586526  2066 net.cpp:397] relu2 -> conv2 (in-place)
I0503 04:13:22.586544  2066 net.cpp:150] Setting up relu2
I0503 04:13:22.586550  2066 net.cpp:157] Top shape: 256 256 27 27 (47775744)
I0503 04:13:22.586555  2066 net.cpp:165] Memory required for data: 1278570496
I0503 04:13:22.586560  2066 layer_factory.hpp:77] Creating layer pool2
I0503 04:13:22.586571  2066 net.cpp:106] Creating Layer pool2
I0503 04:13:22.586576  2066 net.cpp:454] pool2 <- conv2
I0503 04:13:22.586585  2066 net.cpp:411] pool2 -> pool2
I0503 04:13:22.586626  2066 net.cpp:150] Setting up pool2
I0503 04:13:22.586635  2066 net.cpp:157] Top shape: 256 256 13 13 (11075584)
I0503 04:13:22.586640  2066 net.cpp:165] Memory required for data: 1322872832
I0503 04:13:22.586645  2066 layer_factory.hpp:77] Creating layer norm2
I0503 04:13:22.586660  2066 net.cpp:106] Creating Layer norm2
I0503 04:13:22.586665  2066 net.cpp:454] norm2 <- pool2
I0503 04:13:22.586673  2066 net.cpp:411] norm2 -> norm2
I0503 04:13:22.586709  2066 net.cpp:150] Setting up norm2
I0503 04:13:22.586719  2066 net.cpp:157] Top shape: 256 256 13 13 (11075584)
I0503 04:13:22.586725  2066 net.cpp:165] Memory required for data: 1367175168
I0503 04:13:22.586730  2066 layer_factory.hpp:77] Creating layer conv3
I0503 04:13:22.586746  2066 net.cpp:106] Creating Layer conv3
I0503 04:13:22.586751  2066 net.cpp:454] conv3 <- norm2
I0503 04:13:22.586762  2066 net.cpp:411] conv3 -> conv3
I0503 04:13:22.623563  2066 net.cpp:150] Setting up conv3
I0503 04:13:22.623608  2066 net.cpp:157] Top shape: 256 384 13 13 (16613376)
I0503 04:13:22.623615  2066 net.cpp:165] Memory required for data: 1433628672
I0503 04:13:22.623633  2066 layer_factory.hpp:77] Creating layer relu3
I0503 04:13:22.623656  2066 net.cpp:106] Creating Layer relu3
I0503 04:13:22.623663  2066 net.cpp:454] relu3 <- conv3
I0503 04:13:22.623677  2066 net.cpp:397] relu3 -> conv3 (in-place)
I0503 04:13:22.623693  2066 net.cpp:150] Setting up relu3
I0503 04:13:22.623700  2066 net.cpp:157] Top shape: 256 384 13 13 (16613376)
I0503 04:13:22.623705  2066 net.cpp:165] Memory required for data: 1500082176
I0503 04:13:22.623710  2066 layer_factory.hpp:77] Creating layer conv4
I0503 04:13:22.623726  2066 net.cpp:106] Creating Layer conv4
I0503 04:13:22.623731  2066 net.cpp:454] conv4 <- conv3
I0503 04:13:22.623740  2066 net.cpp:411] conv4 -> conv4
I0503 04:13:22.651816  2066 net.cpp:150] Setting up conv4
I0503 04:13:22.651870  2066 net.cpp:157] Top shape: 256 384 13 13 (16613376)
I0503 04:13:22.651877  2066 net.cpp:165] Memory required for data: 1566535680
I0503 04:13:22.651895  2066 layer_factory.hpp:77] Creating layer relu4
I0503 04:13:22.651911  2066 net.cpp:106] Creating Layer relu4
I0503 04:13:22.651918  2066 net.cpp:454] relu4 <- conv4
I0503 04:13:22.651932  2066 net.cpp:397] relu4 -> conv4 (in-place)
I0503 04:13:22.651950  2066 net.cpp:150] Setting up relu4
I0503 04:13:22.651957  2066 net.cpp:157] Top shape: 256 384 13 13 (16613376)
I0503 04:13:22.651962  2066 net.cpp:165] Memory required for data: 1632989184
I0503 04:13:22.651967  2066 layer_factory.hpp:77] Creating layer conv5
I0503 04:13:22.651990  2066 net.cpp:106] Creating Layer conv5
I0503 04:13:22.651996  2066 net.cpp:454] conv5 <- conv4
I0503 04:13:22.652031  2066 net.cpp:411] conv5 -> conv5
I0503 04:13:22.670279  2066 net.cpp:150] Setting up conv5
I0503 04:13:22.670328  2066 net.cpp:157] Top shape: 256 256 13 13 (11075584)
I0503 04:13:22.670334  2066 net.cpp:165] Memory required for data: 1677291520
I0503 04:13:22.670356  2066 layer_factory.hpp:77] Creating layer relu5
I0503 04:13:22.670373  2066 net.cpp:106] Creating Layer relu5
I0503 04:13:22.670380  2066 net.cpp:454] relu5 <- conv5
I0503 04:13:22.670393  2066 net.cpp:397] relu5 -> conv5 (in-place)
I0503 04:13:22.670410  2066 net.cpp:150] Setting up relu5
I0503 04:13:22.670418  2066 net.cpp:157] Top shape: 256 256 13 13 (11075584)
I0503 04:13:22.670423  2066 net.cpp:165] Memory required for data: 1721593856
I0503 04:13:22.670428  2066 layer_factory.hpp:77] Creating layer pool5
I0503 04:13:22.670439  2066 net.cpp:106] Creating Layer pool5
I0503 04:13:22.670444  2066 net.cpp:454] pool5 <- conv5
I0503 04:13:22.670451  2066 net.cpp:411] pool5 -> pool5
I0503 04:13:22.670498  2066 net.cpp:150] Setting up pool5
I0503 04:13:22.670509  2066 net.cpp:157] Top shape: 256 256 6 6 (2359296)
I0503 04:13:22.670514  2066 net.cpp:165] Memory required for data: 1731031040
I0503 04:13:22.670519  2066 layer_factory.hpp:77] Creating layer fc6
I0503 04:13:22.670547  2066 net.cpp:106] Creating Layer fc6
I0503 04:13:22.670552  2066 net.cpp:454] fc6 <- pool5
I0503 04:13:22.670562  2066 net.cpp:411] fc6 -> fc6
I0503 04:13:24.300001  2066 net.cpp:150] Setting up fc6
I0503 04:13:24.300053  2066 net.cpp:157] Top shape: 256 4096 (1048576)
I0503 04:13:24.300060  2066 net.cpp:165] Memory required for data: 1735225344
I0503 04:13:24.300076  2066 layer_factory.hpp:77] Creating layer relu6
I0503 04:13:24.300093  2066 net.cpp:106] Creating Layer relu6
I0503 04:13:24.300101  2066 net.cpp:454] relu6 <- fc6
I0503 04:13:24.300115  2066 net.cpp:397] relu6 -> fc6 (in-place)
I0503 04:13:24.300134  2066 net.cpp:150] Setting up relu6
I0503 04:13:24.300140  2066 net.cpp:157] Top shape: 256 4096 (1048576)
I0503 04:13:24.300145  2066 net.cpp:165] Memory required for data: 1739419648
I0503 04:13:24.300150  2066 layer_factory.hpp:77] Creating layer drop6
I0503 04:13:24.300163  2066 net.cpp:106] Creating Layer drop6
I0503 04:13:24.300168  2066 net.cpp:454] drop6 <- fc6
I0503 04:13:24.300176  2066 net.cpp:397] drop6 -> fc6 (in-place)
I0503 04:13:24.300211  2066 net.cpp:150] Setting up drop6
I0503 04:13:24.300221  2066 net.cpp:157] Top shape: 256 4096 (1048576)
I0503 04:13:24.300226  2066 net.cpp:165] Memory required for data: 1743613952
I0503 04:13:24.300232  2066 layer_factory.hpp:77] Creating layer fc7
I0503 04:13:24.300246  2066 net.cpp:106] Creating Layer fc7
I0503 04:13:24.300251  2066 net.cpp:454] fc7 <- fc6
I0503 04:13:24.300261  2066 net.cpp:411] fc7 -> fc7
I0503 04:13:25.016433  2066 net.cpp:150] Setting up fc7
I0503 04:13:25.017115  2066 net.cpp:157] Top shape: 256 4096 (1048576)
I0503 04:13:25.017127  2066 net.cpp:165] Memory required for data: 1747808256
I0503 04:13:25.017143  2066 layer_factory.hpp:77] Creating layer relu7
I0503 04:13:25.017161  2066 net.cpp:106] Creating Layer relu7
I0503 04:13:25.017169  2066 net.cpp:454] relu7 <- fc7
I0503 04:13:25.017184  2066 net.cpp:397] relu7 -> fc7 (in-place)
I0503 04:13:25.017201  2066 net.cpp:150] Setting up relu7
I0503 04:13:25.017209  2066 net.cpp:157] Top shape: 256 4096 (1048576)
I0503 04:13:25.017213  2066 net.cpp:165] Memory required for data: 1752002560
I0503 04:13:25.017221  2066 layer_factory.hpp:77] Creating layer drop7
I0503 04:13:25.017232  2066 net.cpp:106] Creating Layer drop7
I0503 04:13:25.017238  2066 net.cpp:454] drop7 <- fc7
I0503 04:13:25.017246  2066 net.cpp:397] drop7 -> fc7 (in-place)
I0503 04:13:25.017280  2066 net.cpp:150] Setting up drop7
I0503 04:13:25.017290  2066 net.cpp:157] Top shape: 256 4096 (1048576)
I0503 04:13:25.017295  2066 net.cpp:165] Memory required for data: 1756196864
I0503 04:13:25.017302  2066 layer_factory.hpp:77] Creating layer fc8
I0503 04:13:25.017321  2066 net.cpp:106] Creating Layer fc8
I0503 04:13:25.017326  2066 net.cpp:454] fc8 <- fc7
I0503 04:13:25.017361  2066 net.cpp:411] fc8 -> fc8
I0503 04:13:25.192411  2066 net.cpp:150] Setting up fc8
I0503 04:13:25.192459  2066 net.cpp:157] Top shape: 256 1000 (256000)
I0503 04:13:25.192466  2066 net.cpp:165] Memory required for data: 1757220864
I0503 04:13:25.192478  2066 layer_factory.hpp:77] Creating layer loss
I0503 04:13:25.192494  2066 net.cpp:106] Creating Layer loss
I0503 04:13:25.192502  2066 net.cpp:454] loss <- fc8
I0503 04:13:25.192512  2066 net.cpp:454] loss <- label
I0503 04:13:25.192525  2066 net.cpp:411] loss -> loss
I0503 04:13:25.192561  2066 layer_factory.hpp:77] Creating layer loss
…
I0503 04:13:25.194990  2066 net.cpp:322] The NetState phase (1) differed from the phase (0) specified by a rule in layer data
I0503 04:13:25.195204  2066 net.cpp:49] Initializing net from parameters: 
name: "CaffeNet"
state {
  phase: TEST
}
layer {
  name: "data"
  type: "Data"
  top: "data"
  top: "label"
  include {
    phase: TEST
  }
  transform_param {
    mirror: false
    crop_size: 227
    mean_file: "data/driving/drivingnet_mean.binaryproto"
  }
  data_param {
    source: "data/driving/driving_val_lmdb"
    batch_size: 50
    backend: LMDB
  }
}
layer {
  name: "conv1"
  type: "Convolution"
  bottom: "data"
  top: "conv1"
  param {
    lr_mult: 1
    decay_mult: 1
  }
  param {
    lr_mult: 2
    decay_mult: 0
  }
  convolution_param {
    num_output: 96
    kernel_size: 11
    stride: 4
    weight_filler {
      type: "gaussian"
      std: 0.01
    }
    bias_filler {
      type: "constant"
      value: 0
    }
  }
}
layer {
  name: "relu1"
  type: "ReLU"
  bottom: "conv1"
  top: "conv1"
}
layer {
  name: "pool1"
  type: "Pooling"
  bottom: "conv1"
  top: "pool1"
  pooling_param {
    pool: MAX
    kernel_size: 3
    stride: 2
  }
}
layer {
  name: "norm1"
  type: "LRN"
  bottom: "pool1"
  top: "norm1"
  lrn_param {
    local_size: 5
    alpha: 0.0001
    beta: 0.75
  }
}
layer {
  name: "conv2"
  type: "Convolution"
  bottom: "norm1"
  top: "conv2"
  param {
    lr_mult: 1
    decay_mult: 1
  }
  param {
    lr_mult: 2
    decay_mult: 0
  }
  convolution_param {
    num_output: 256
    pad: 2
    kernel_size: 5
    group: 2
    weight_filler {
      type: "gaussian"
      std: 0.01
    }
    bias_filler {
      type: "constant"
      value: 1
    }
  }
}
layer {
  name: "relu2"
  type: "ReLU"
  bottom: "conv2"
  top: "conv2"
}
layer {
  name: "pool2"
  type: "Pooling"
  bottom: "conv2"
  top: "pool2"
  pooling_param {
    pool: MAX
    kernel_size: 3
    stride: 2
  }
}
layer {
  name: "norm2"
  type: "LRN"
  bottom: "pool2"
  top: "norm2"
  lrn_param {
    local_size: 5
    alpha: 0.0001
    beta: 0.75
  }
}
layer {
  name: "conv3"
  type: "Convolution"
  bottom: "norm2"
  top: "conv3"
  param {
    lr_mult: 1
    decay_mult: 1
  }
  param {
    lr_mult: 2
    decay_mult: 0
  }
  convolution_param {
    num_output: 384
    pad: 1
    kernel_size: 3
    weight_filler {
      type: "gaussian"
      std: 0.01
    }
    bias_filler {
      type: "constant"
      value: 0
    }
  }
}
layer {
  name: "relu3"
  type: "ReLU"
  bottom: "conv3"
  top: "conv3"
}
layer {
  name: "conv4"
  type: "Convolution"
  bottom: "conv3"
  top: "conv4"
  param {
    lr_mult: 1
    decay_mult: 1
  }
  param {
    lr_mult: 2
    decay_mult: 0
  }
  convolution_param {
    num_output: 384
    pad: 1
    kernel_size: 3
    group: 2
    weight_filler {
      type: "gaussian"
      std: 0.01
    }
    bias_filler {
      type: "constant"
      value: 1
    }
  }
}
layer {
  name: "relu4"
  type: "ReLU"
  bottom: "conv4"
  top: "conv4"
}
layer {
  name: "conv5"
  type: "Convolution"
  bottom: "conv4"
  top: "conv5"
  param {
    lr_mult: 1
    decay_mult: 1
  }
  param {
    lr_mult: 2
    decay_mult: 0
  }
  convolution_param {
    num_output: 256
    pad: 1
    kernel_size: 3
    group: 2
    weight_filler {
      type: "gaussian"
      std: 0.01
    }
    bias_filler {
      type: "constant"
      value: 1
    }
  }
}
layer {
  name: "relu5"
  type: "ReLU"
  bottom: "conv5"
  top: "conv5"
}
layer {
  name: "pool5"
  type: "Pooling"
  bottom: "conv5"
  top: "pool5"
  pooling_param {
    pool: MAX
    kernel_size: 3
    stride: 2
  }
}
layer {
  name: "fc6"
  type: "InnerProduct"
  bottom: "pool5"
  top: "fc6"
  param {
    lr_mult: 1
    decay_mult: 1
  }
  param {
    lr_mult: 2
    decay_mult: 0
  }
  inner_product_param {
    num_output: 4096
    weight_filler {
      type: "gaussian"
      std: 0.005
    }
    bias_filler {
      type: "constant"
      value: 1
    }
  }
}
layer {
  name: "relu6"
  type: "ReLU"
  bottom: "fc6"
  top: "fc6"
}
layer {
  name: "drop6"
  type: "Dropout"
  bottom: "fc6"
  top: "fc6"
  dropout_param {
    dropout_ratio: 0.5
  }
}
layer {
  name: "fc7"
  type: "InnerProduct"
  bottom: "fc6"
  top: "fc7"
  param {
    lr_mult: 1
    decay_mult: 1
  }
  param {
    lr_mult: 2
    decay_mult: 0
  }
  inner_product_param {
    num_output: 4096
    weight_filler {
      type: "gaussian"
      std: 0.005
    }
    bias_filler {
      type: "constant"
      value: 1
    }
  }
}
layer {
  name: "relu7"
  type: "ReLU"
  bottom: "fc7"
  top: "fc7"
}
layer {
  name: "drop7"
  type: "Dropout"
  bottom: "fc7"
  top: "fc7"
  dropout_param {
    dropout_ratio: 0.5
  }
}
layer {
  name: "fc8"
  type: "InnerProduct"
  bottom: "fc7"
  top: "fc8"
  param {
    lr_mult: 1
    decay_mult: 1
  }
  param {
    lr_mult: 2
    decay_mult: 0
  }
  inner_product_param {
    num_output: 1000
    weight_filler {
      type: "gaussian"
      std: 0.01
    }
    bias_filler {
      type: "constant"
      value: 0
    }
  }
}
layer {
  name: "accuracy"
  type: "Accuracy"
  bottom: "fc8"
  bottom: "label"
  top: "accuracy"
  include {
    phase: TEST
  }
}
layer {
  name: "loss"
  type: "SoftmaxWithLoss"
  bottom: "fc8"
  bottom: "label"
  top: "loss"
}
I0503 04:13:25.195361  2066 layer_factory.hpp:77] Creating layer data
I0503 04:13:25.195523  2066 net.cpp:106] Creating Layer data
I0503 04:13:25.195538  2066 net.cpp:411] data -> data
I0503 04:13:25.195550  2066 net.cpp:411] data -> label
I0503 04:13:25.195570  2066 data_transformer.cpp:25] Loading mean file from: data/driving/drivingnet_mean.binaryproto
I0503 04:13:25.224534  2094 db_lmdb.cpp:38] Opened lmdb data/driving/driving_val_lmdb
I0503 04:13:25.313336  2066 data_layer.cpp:41] output data size: 50,3,227,227
I0503 04:13:25.405447  2066 net.cpp:150] Setting up data
I0503 04:13:25.405504  2066 net.cpp:157] Top shape: 50 3 227 227 (7729350)
I0503 04:13:25.405514  2066 net.cpp:157] Top shape: 50 (50)
I0503 04:13:25.405520  2066 net.cpp:165] Memory required for data: 30917600
I0503 04:13:25.405534  2066 layer_factory.hpp:77] Creating layer label_data_1_split
I0503 04:13:25.405553  2066 net.cpp:106] Creating Layer label_data_1_split
I0503 04:13:25.405560  2066 net.cpp:454] label_data_1_split <- label
I0503 04:13:25.405573  2066 net.cpp:411] label_data_1_split -> label_data_1_split_0
I0503 04:13:25.405591  2066 net.cpp:411] label_data_1_split -> label_data_1_split_1
I0503 04:13:25.405649  2066 net.cpp:150] Setting up label_data_1_split
I0503 04:13:25.405660  2066 net.cpp:157] Top shape: 50 (50)
I0503 04:13:25.405668  2066 net.cpp:157] Top shape: 50 (50)
I0503 04:13:25.405673  2066 net.cpp:165] Memory required for data: 30918000
I0503 04:13:25.405678  2066 layer_factory.hpp:77] Creating layer conv1
I0503 04:13:25.405741  2066 net.cpp:106] Creating Layer conv1
I0503 04:13:25.405752  2066 net.cpp:454] conv1 <- data
I0503 04:13:25.405768  2066 net.cpp:411] conv1 -> conv1
I0503 04:13:25.411746  2066 net.cpp:150] Setting up conv1
I0503 04:13:25.411762  2066 net.cpp:157] Top shape: 50 96 55 55 (14520000)
I0503 04:13:25.411768  2066 net.cpp:165] Memory required for data: 88998000
I0503 04:13:25.411783  2066 layer_factory.hpp:77] Creating layer relu1
I0503 04:13:25.411815  2066 net.cpp:106] Creating Layer relu1
I0503 04:13:25.411828  2066 net.cpp:454] relu1 <- conv1
I0503 04:13:25.411839  2066 net.cpp:397] relu1 -> conv1 (in-place)
I0503 04:13:25.411850  2066 net.cpp:150] Setting up relu1
I0503 04:13:25.411857  2066 net.cpp:157] Top shape: 50 96 55 55 (14520000)
I0503 04:13:25.411862  2066 net.cpp:165] Memory required for data: 147078000
I0503 04:13:25.411867  2066 layer_factory.hpp:77] Creating layer pool1
I0503 04:13:25.411880  2066 net.cpp:106] Creating Layer pool1
I0503 04:13:25.411885  2066 net.cpp:454] pool1 <- conv1
I0503 04:13:25.411892  2066 net.cpp:411] pool1 -> pool1
I0503 04:13:25.411937  2066 net.cpp:150] Setting up pool1
I0503 04:13:25.411948  2066 net.cpp:157] Top shape: 50 96 27 27 (3499200)
I0503 04:13:25.411953  2066 net.cpp:165] Memory required for data: 161074800
I0503 04:13:25.411958  2066 layer_factory.hpp:77] Creating layer norm1
I0503 04:13:25.411969  2066 net.cpp:106] Creating Layer norm1
I0503 04:13:25.411975  2066 net.cpp:454] norm1 <- pool1
I0503 04:13:25.411983  2066 net.cpp:411] norm1 -> norm1
I0503 04:13:25.412022  2066 net.cpp:150] Setting up norm1
I0503 04:13:25.412031  2066 net.cpp:157] Top shape: 50 96 27 27 (3499200)
I0503 04:13:25.412036  2066 net.cpp:165] Memory required for data: 175071600
I0503 04:13:25.412041  2066 layer_factory.hpp:77] Creating layer conv2
I0503 04:13:25.412055  2066 net.cpp:106] Creating Layer conv2
I0503 04:13:25.412060  2066 net.cpp:454] conv2 <- norm1
I0503 04:13:25.412070  2066 net.cpp:411] conv2 -> conv2
I0503 04:13:25.428112  2066 net.cpp:150] Setting up conv2
I0503 04:13:25.428165  2066 net.cpp:157] Top shape: 50 256 27 27 (9331200)
I0503 04:13:25.428177  2066 net.cpp:165] Memory required for data: 212396400
I0503 04:13:25.428200  2066 layer_factory.hpp:77] Creating layer relu2
I0503 04:13:25.428216  2066 net.cpp:106] Creating Layer relu2
I0503 04:13:25.428225  2066 net.cpp:454] relu2 <- conv2
I0503 04:13:25.428237  2066 net.cpp:397] relu2 -> conv2 (in-place)
I0503 04:13:25.428261  2066 net.cpp:150] Setting up relu2
I0503 04:13:25.428290  2066 net.cpp:157] Top shape: 50 256 27 27 (9331200)
I0503 04:13:25.428295  2066 net.cpp:165] Memory required for data: 249721200
I0503 04:13:25.428300  2066 layer_factory.hpp:77] Creating layer pool2
I0503 04:13:25.428314  2066 net.cpp:106] Creating Layer pool2
I0503 04:13:25.428319  2066 net.cpp:454] pool2 <- conv2
I0503 04:13:25.428328  2066 net.cpp:411] pool2 -> pool2
I0503 04:13:25.428380  2066 net.cpp:150] Setting up pool2
I0503 04:13:25.428390  2066 net.cpp:157] Top shape: 50 256 13 13 (2163200)
I0503 04:13:25.428395  2066 net.cpp:165] Memory required for data: 258374000
I0503 04:13:25.428400  2066 layer_factory.hpp:77] Creating layer norm2
I0503 04:13:25.428412  2066 net.cpp:106] Creating Layer norm2
I0503 04:13:25.428417  2066 net.cpp:454] norm2 <- pool2
I0503 04:13:25.428426  2066 net.cpp:411] norm2 -> norm2
I0503 04:13:25.428469  2066 net.cpp:150] Setting up norm2
I0503 04:13:25.428479  2066 net.cpp:157] Top shape: 50 256 13 13 (2163200)
I0503 04:13:25.428484  2066 net.cpp:165] Memory required for data: 267026800
I0503 04:13:25.428489  2066 layer_factory.hpp:77] Creating layer conv3
I0503 04:13:25.428506  2066 net.cpp:106] Creating Layer conv3
I0503 04:13:25.428511  2066 net.cpp:454] conv3 <- norm2
I0503 04:13:25.428520  2066 net.cpp:411] conv3 -> conv3
I0503 04:13:25.428596  2099 blocking_queue.cpp:50] Waiting for data
I0503 04:13:25.473915  2066 net.cpp:150] Setting up conv3
I0503 04:13:25.473958  2066 net.cpp:157] Top shape: 50 384 13 13 (3244800)
I0503 04:13:25.473964  2066 net.cpp:165] Memory required for data: 280006000
I0503 04:13:25.473984  2066 layer_factory.hpp:77] Creating layer relu3
I0503 04:13:25.473999  2066 net.cpp:106] Creating Layer relu3
I0503 04:13:25.474007  2066 net.cpp:454] relu3 <- conv3
I0503 04:13:25.474020  2066 net.cpp:397] relu3 -> conv3 (in-place)
I0503 04:13:25.474038  2066 net.cpp:150] Setting up relu3
I0503 04:13:25.474045  2066 net.cpp:157] Top shape: 50 384 13 13 (3244800)
I0503 04:13:25.474050  2066 net.cpp:165] Memory required for data: 292985200
I0503 04:13:25.474056  2066 layer_factory.hpp:77] Creating layer conv4
I0503 04:13:25.474069  2066 net.cpp:106] Creating Layer conv4
I0503 04:13:25.474076  2066 net.cpp:454] conv4 <- conv3
I0503 04:13:25.474084  2066 net.cpp:411] conv4 -> conv4
I0503 04:13:25.518507  2066 net.cpp:150] Setting up conv4
I0503 04:13:25.518626  2066 net.cpp:157] Top shape: 50 384 13 13 (3244800)
I0503 04:13:25.518667  2066 net.cpp:165] Memory required for data: 305964400
I0503 04:13:25.518753  2066 layer_factory.hpp:77] Creating layer relu4
I0503 04:13:25.518798  2066 net.cpp:106] Creating Layer relu4
I0503 04:13:25.518860  2066 net.cpp:454] relu4 <- conv4
I0503 04:13:25.518882  2066 net.cpp:397] relu4 -> conv4 (in-place)
I0503 04:13:25.518900  2066 net.cpp:150] Setting up relu4
I0503 04:13:25.518908  2066 net.cpp:157] Top shape: 50 384 13 13 (3244800)
I0503 04:13:25.518913  2066 net.cpp:165] Memory required for data: 318943600
I0503 04:13:25.518918  2066 layer_factory.hpp:77] Creating layer conv5
I0503 04:13:25.518966  2066 net.cpp:106] Creating Layer conv5
I0503 04:13:25.518978  2066 net.cpp:454] conv5 <- conv4
I0503 04:13:25.518990  2066 net.cpp:411] conv5 -> conv5
I0503 04:13:25.548120  2066 net.cpp:150] Setting up conv5
I0503 04:13:25.548238  2066 net.cpp:157] Top shape: 50 256 13 13 (2163200)
I0503 04:13:25.548250  2066 net.cpp:165] Memory required for data: 327596400
I0503 04:13:25.548318  2066 layer_factory.hpp:77] Creating layer relu5
I0503 04:13:25.548343  2066 net.cpp:106] Creating Layer relu5
I0503 04:13:25.548352  2066 net.cpp:454] relu5 <- conv5
I0503 04:13:25.548363  2066 net.cpp:397] relu5 -> conv5 (in-place)
I0503 04:13:25.548379  2066 net.cpp:150] Setting up relu5
I0503 04:13:25.548387  2066 net.cpp:157] Top shape: 50 256 13 13 (2163200)
I0503 04:13:25.548390  2066 net.cpp:165] Memory required for data: 336249200
I0503 04:13:25.548395  2066 layer_factory.hpp:77] Creating layer pool5
I0503 04:13:25.548410  2066 net.cpp:106] Creating Layer pool5
I0503 04:13:25.548420  2066 net.cpp:454] pool5 <- conv5
I0503 04:13:25.548429  2066 net.cpp:411] pool5 -> pool5
I0503 04:13:25.548646  2066 net.cpp:150] Setting up pool5
I0503 04:13:25.548660  2066 net.cpp:157] Top shape: 50 256 6 6 (460800)
I0503 04:13:25.548665  2066 net.cpp:165] Memory required for data: 338092400
I0503 04:13:25.548669  2066 layer_factory.hpp:77] Creating layer fc6
I0503 04:13:25.548682  2066 net.cpp:106] Creating Layer fc6
I0503 04:13:25.548688  2066 net.cpp:454] fc6 <- pool5
I0503 04:13:25.548697  2066 net.cpp:411] fc6 -> fc6
I0503 04:13:27.299787  2066 net.cpp:150] Setting up fc6
I0503 04:13:27.299849  2066 net.cpp:157] Top shape: 50 4096 (204800)
I0503 04:13:27.299856  2066 net.cpp:165] Memory required for data: 338911600
I0503 04:13:27.299871  2066 layer_factory.hpp:77] Creating layer relu6
I0503 04:13:27.299891  2066 net.cpp:106] Creating Layer relu6
I0503 04:13:27.299899  2066 net.cpp:454] relu6 <- fc6
I0503 04:13:27.299913  2066 net.cpp:397] relu6 -> fc6 (in-place)
I0503 04:13:27.299932  2066 net.cpp:150] Setting up relu6
I0503 04:13:27.299938  2066 net.cpp:157] Top shape: 50 4096 (204800)
I0503 04:13:27.299942  2066 net.cpp:165] Memory required for data: 339730800
I0503 04:13:27.299947  2066 layer_factory.hpp:77] Creating layer drop6
I0503 04:13:27.299959  2066 net.cpp:106] Creating Layer drop6
I0503 04:13:27.299964  2066 net.cpp:454] drop6 <- fc6
I0503 04:13:27.299971  2066 net.cpp:397] drop6 -> fc6 (in-place)
I0503 04:13:27.300007  2066 net.cpp:150] Setting up drop6
I0503 04:13:27.300017  2066 net.cpp:157] Top shape: 50 4096 (204800)
I0503 04:13:27.300021  2066 net.cpp:165] Memory required for data: 340550000
I0503 04:13:27.300027  2066 layer_factory.hpp:77] Creating layer fc7
I0503 04:13:27.300040  2066 net.cpp:106] Creating Layer fc7
I0503 04:13:27.300045  2066 net.cpp:454] fc7 <- fc6
I0503 04:13:27.300058  2066 net.cpp:411] fc7 -> fc7
I0503 04:13:27.985086  2066 net.cpp:150] Setting up fc7
I0503 04:13:27.985138  2066 net.cpp:157] Top shape: 50 4096 (204800)
I0503 04:13:27.985146  2066 net.cpp:165] Memory required for data: 341369200
I0503 04:13:27.985160  2066 layer_factory.hpp:77] Creating layer relu7
I0503 04:13:27.985177  2066 net.cpp:106] Creating Layer relu7
I0503 04:13:27.985185  2066 net.cpp:454] relu7 <- fc7
I0503 04:13:27.985204  2066 net.cpp:397] relu7 -> fc7 (in-place)
I0503 04:13:27.985224  2066 net.cpp:150] Setting up relu7
I0503 04:13:27.985230  2066 net.cpp:157] Top shape: 50 4096 (204800)
I0503 04:13:27.985234  2066 net.cpp:165] Memory required for data: 342188400
I0503 04:13:27.985239  2066 layer_factory.hpp:77] Creating layer drop7
I0503 04:13:27.985251  2066 net.cpp:106] Creating Layer drop7
I0503 04:13:27.985256  2066 net.cpp:454] drop7 <- fc7
I0503 04:13:27.985263  2066 net.cpp:397] drop7 -> fc7 (in-place)
I0503 04:13:27.985299  2066 net.cpp:150] Setting up drop7
I0503 04:13:27.985311  2066 net.cpp:157] Top shape: 50 4096 (204800)
I0503 04:13:27.985314  2066 net.cpp:165] Memory required for data: 343007600
I0503 04:13:27.985319  2066 layer_factory.hpp:77] Creating layer fc8
I0503 04:13:27.985333  2066 net.cpp:106] Creating Layer fc8
I0503 04:13:27.985338  2066 net.cpp:454] fc8 <- fc7
I0503 04:13:27.985348  2066 net.cpp:411] fc8 -> fc8
I0503 04:13:28.153843  2066 net.cpp:150] Setting up fc8
I0503 04:13:28.153892  2066 net.cpp:157] Top shape: 50 1000 (50000)
I0503 04:13:28.153898  2066 net.cpp:165] Memory required for data: 343207600
I0503 04:13:28.153913  2066 layer_factory.hpp:77] Creating layer fc8_fc8_0_split
I0503 04:13:28.153930  2066 net.cpp:106] Creating Layer fc8_fc8_0_split
I0503 04:13:28.153939  2066 net.cpp:454] fc8_fc8_0_split <- fc8
I0503 04:13:28.153952  2066 net.cpp:411] fc8_fc8_0_split -> fc8_fc8_0_split_0
I0503 04:13:28.153970  2066 net.cpp:411] fc8_fc8_0_split -> fc8_fc8_0_split_1
I0503 04:13:28.154018  2066 net.cpp:150] Setting up fc8_fc8_0_split
I0503 04:13:28.154028  2066 net.cpp:157] Top shape: 50 1000 (50000)
I0503 04:13:28.154036  2066 net.cpp:157] Top shape: 50 1000 (50000)
I0503 04:13:28.154042  2066 net.cpp:165] Memory required for data: 343607600
I0503 04:13:28.154054  2066 layer_factory.hpp:77] Creating layer accuracy
I0503 04:13:28.154090  2066 net.cpp:106] Creating Layer accuracy
I0503 04:13:28.154096  2066 net.cpp:454] accuracy <- fc8_fc8_0_split_0
I0503 04:13:28.154106  2066 net.cpp:454] accuracy <- label_data_1_split_0
I0503 04:13:28.154115  2066 net.cpp:411] accuracy -> accuracy
…
